trotterization/Order_n6/Cycle_q9/q9_parameters_d.npy (npy, 1208 bytes, 1 tensors)

array f8 [15, 9]
00000000: 3e15 91ca 9e46 e23f e663 da90 7728 e73f
00000010: a808 7b33 b17e ca3f fc2e 7096 e8a7 da3f
00000020: 0a5f cd9b df06 dcbf e862 30c6 a7e0 ce3f
00000030: 3c70 af2c 56c4 e3bf eee6 0bfd c95e e6bf
00000040: 52d9 9c94 785d b83f 334f 5bbe 3523 d93f
00000050: bbb4 62c1 2afb c73f db3b 72c0 e156 e83f
00000060: 8c87 f4b7 67c9 ec3f bd91 822a 1c8f e9bf
00000070: 0347 24f3 e40d ecbf 5cdf 3d27 f77c cf3f
00000080: d70c da5e 6312 dabf 2779 bada 2fb2 b83f
00000090: c8b5 a8d9 00d5 d63f 46cd cc61 c924 f0bf
000000a0: ffb1 c3a7 574b d2bf b3e5 f9ff 2461 d03f
000000b0: d77d 69da 6f0c c63f c0e7 d449 a091 d13f
000000c0: 761f 871f 536b dabf 5674 9d1e ef28 f03f
000000d0: 1fe6 b786 2bb0 c13f d27c 5b0c 27d4 ce3f
000000e0: 1f98 bbb0 f783 e9bf 4b5b eb05 8e9b e73f
000000f0: ea4c 051f 7d45 e23f 5077 4c1b bf5a cb3f
00000100: f689 c0b6 68bc e5bf 0250 5905 5e32 e5bf
00000110: 8479 b9ca b661 e93f a79a 0a9a 1722 b53f
00000120: ff95 bb00 036e d73f 325e ddfe e2dd f0bf
00000130: 75ff 73c7 0bd7 cd3f de3f 6d5b 1664 d43f
00000140: 3cb8 2e1f b2dd d6bf 9287 fe6d d77f d03f
00000150: 4fe9 cc7a 2a52 dabf 7837 3f2e cae1 f03f
00000160: 217d 4bba 248b b73f acbd a6b2 0167 e8bf
00000170: 5ec7 656a 9b93 dbbf 9b84 71d0 75d8 c13f
00000180: 6ff1 b6ba 5971 e43f 0adc a8b1 04f9 e4bf
00000190: 9e92 a34a c4aa d03f 064c a8b4 6f61 c33f
000001a0: 87a2 3cf1 2fc3 e83f f057 edcd dda2 d83f
000001b0: ddac b9cc 1c26 e7bf ecdf cb13 104b ebbf
000001c0: 246f a572 d0ac c33f 9a47 9ff3 6865 e33f
000001d0: 278b 8f26 e5db e3bf 36c1 f753 902e ce3f
000001e0: e3cf 1b22 aa73 e63f 5e70 023c 63bb eb3f
000001f0: f70f c10e 0e07 c13f 0da9 8b61 9375 e1bf
00000200: 5f8f 529f a68d c73f d4a5 f230 12a5 e23f
00000210: 5511 2d5b bb14 e0bf a8f9 ce0a c908 db3f
00000220: 5211 2d5b bb14 e0bf 6585 8947 00bb c63f
00000230: 618f 529f a68d c73f 0200 0000 0000 e03f
00000240: 0320 5a95 5629 ff3f aeb6 4af9 a582 0040
00000250: cc0b 7653 9050 d4bf db45 3efb 6fdb c33f
00000260: 86c6 c0e9 01c7 cc3f c59c e00a 2c7d c33f
00000270: d924 d80d 8f4d ffbf 9931 fd9a 0a74 00c0
00000280: ee21 124b c85c d23f 2b2e 966c 283b c73f
00000290: 0877 6cdf 3c68 c83f 0251 9659 dc14 d7bf
000002a0: 627d 8021 45a7 a13f 6cdd c91e 821c da3f
000002b0: a87d 8021 45a7 a13f 0651 9659 dc14 d7bf
000002c0: 1f77 6cdf 3c68 c83f 242e 966c 283b c73f
000002d0: 1b15 751a c099 c33f a5f0 edbb d175 f43f
000002e0: 4d22 783c f792 0040 db8c f624 bc76 fa3f
000002f0: e9d5 91c4 6e26 f5bf 80e3 fc33 43a2 00c0
00000300: 3d05 e8fb 09e1 f9bf 23de b661 a787 d03f
00000310: 025e 282e 0f46 ba3f 9187 c20a 7259 d93f
00000320: a949 3bed 2bd2 e1bf d2e2 57c8 bdcd f53f
00000330: 6527 1e00 b853 a3bf 030b f6e9 f7f7 dcbf
00000340: 8582 9526 71b0 df3f 8a99 5631 02c8 f5bf
00000350: 56c8 7a4e 770b d23f b86b 98e8 7dda d73f
00000360: c695 45a9 6b1a d93f d917 9ce2 4e30 be3f
00000370: 2b25 6faa 751a e3bf 5581 5bf6 5b81 e43f
00000380: 8a5b c5f9 4b74 e3bf b786 5bf6 5b81 e43f
00000390: 8722 6faa 751a e3bf 1115 9ce2 4e30 be3f
000003a0: 5e95 45a9 6b1a d93f 6b6b 6206 66ac e43f
000003b0: 1190 b7d0 86e4 e0bf 7904 a71d b0e3 c23f
000003c0: 3657 0aeb dfe8 d43f 9f8a 3365 76ea e5bf
000003d0: db54 0aeb dfe8 d43f 0d02 a71d b0e3 c23f
000003e0: 1f92 b7d0 86e4 e0bf bb69 6206 66ac e43f
000003f0: 7efa 38fb feba eebf 1a9e 4345 0180 e63f
00000400: 1db7 844d 0c4b a43f d8b2 73ca 928b e33f
00000410: ceea 2cd7 22bb c2bf 4665 d5a1 a999 efbf
00000420: a90e d782 6641 aa3f 72b0 2ac8 ece1 ba3f
00000430: 8d9b 8b3e 6c59 f13f
0.5711206394559338 0.7236898259317257 0.20699133886052334 0.41649832431060907 -0.43791952338277496 0.24123093774030413 -0.6177168724784745 -0.6990709249796205
0.09517625454177406 0.3927740439369131 0.1873525089517097 0.7606056936946247 0.8995855896830434 -0.7987194853090426 -0.8766960858212943 0.24600114265535467
-0.4073723245894149 0.0964689167981062 0.3567506909920124 -1.0089811153710158 -0.28584853537793714 0.25592923162147513 0.1722545448746888 0.27451331338999907
-0.41280057982338947 1.0099936672115937 0.13818878248257335 0.24084938147914287 -0.79735931890605 0.7377386203396353 0.5709825139878408 0.21370686371749992
-0.6792491502167752 -0.662398348280931 0.793177982279119 0.08255145560051834 0.3660895831256709 -1.0541715579655713 0.23312518347665515 0.3186088459815418
-0.35728123707929504 0.25780282727839066 -0.41126501075963956 1.0551244551201915 0.09196691082205578 -0.7625740517886945 -0.4308842219389727 0.13941834142591322
0.6388367316026641 -0.655397746077939 0.26042277611694853 0.15141102143442725 0.7738265716225933 0.3849405776030599 -0.7234024046460054 -0.8529129397056727
0.15371137235603627 0.6061291464086367 -0.6205926659716611 0.2357960138319954 0.701619211786689 0.8666244670926166 0.13302779884736513 -0.5456025033174982
0.18401034144801096 0.5826502758038097 -0.5025307446272033 0.4224112134505966 -0.5025307446272029 0.17758182042147577 0.184010341448011 0.5000000000000002
1.9475923379959574 2.0637931323934344 -0.31741722250461346 0.15513419883477195 0.22482322610590105 0.15225744753954565 -1.9564352551263282 -2.0566608532446478
0.2869129880059792 0.18149285604555251 0.19068108472213674 -0.3606482386469595 0.03447929414709951 0.4079900074643408 0.03447929414709999 -0.3606482386469597
0.19068108472213738 0.18149285604555232 0.15312958995688394 1.2787644711488977 2.0717606281434997 1.653988022219713 -1.3218829802038903 -2.079229742198038
-1.6174411621180547 0.2582796530000186 0.10263152005097001 0.3960843186451877 -0.5569057115010781 1.3627298189077703 -0.037748098387125485 -0.45263479087604724
0.49514416473360995 -1.3613302161480498 0.28194983161950427 0.37271068300622856 0.3922375824971279 0.11792462379898384 -0.5969799355308728 0.6407909213703912
-0.6079463842714727 0.6407909213705442 -0.5969799355307978 0.11792462379897396 0.39223758249712215 0.6460447430321045 -0.5278963161949851 0.14757348487731628
0.3267135424915638 -0.6848709084118417 0.32671354249153034 0.14757348487729907 -0.5278963161950435 0.6460447430320565 -0.9603266627016891 0.7031256058516562
0.03963507124204411 0.610787768758736 -0.14633594042410042 -0.9875076447307627 0.051280215713203355 0.10500984084018386 1.0843317454507286
