trotterization/Order_n6/Cycle_q9/q9_standard_parameters_a.npy (npy, 728 bytes, 1 tensors)

array f8 [15, 5]
0.09517625454177406 -0.12795028552368676 0.10597295345325113 0.4482222766008275 -0.02142119907216589 0.0964689167981062 -0.014598280652501763 0.4333536516070644
-0.11609039212666962 0.1008661043740008 0.13818878248257335 1.366744358203606 -1.4217816951944053 -0.01133522198793804 0.4281837764961639 0.08255145560051834
1.0340273637582618 -1.459757667186981 0.05848947012286009 0.7846893777053408 0.09196691082205578 1.4212140382458625 -1.4654365687252109 0.4909280107550458
-0.038672391097753236 0.3849405776030599 0.011252519833898736 -0.27947320050454544 0.3998411175428617 -0.016561014475274912 0.13302779884736513 0.14322206244661126
-0.15129372791898374 0.38950738618803166 -0.014463519563024316 0.5000000000000002 -0.3615921618694871 0.36159216186948673 0.08011953117660672 -0.08011953117660661
0.2869129880059792 -0.10906851524869048 0.10735787726710608 -0.1651597749650678 0.379957424940673 0.18149285604555232 0.3721739407676899 -0.169967153924823
-0.3261689444998595 0.4424693016114403 0.10263152005097001 0.4114092429569025 -0.338676690969157 -0.0074691140545383155 0.33210504201582275 0.37271068300622856
0.678034150264692 -1.918235927649128 1.8578739836413802 -0.49038288926317275 0.39223758249712215 0.5101622062961019 -0.4790553117318139 0.04381098583967139
0.03284453709891852 0.6460447430320565 0.11814842683706094 -0.38032283131768607 0.47428702736884665 -0.35815736592027797 1.0843317454507286 -0.8553168218615051
0.7544058215648595 -0.9478725734887186 0.4644518283346356
00000000: 52d9 9c94 785d b83f c246 ebc9 ac60 c0bf
00000010: 4b9d 5721 0b21 bb3f c8b5 d57c acaf dc3f
00000020: e100 d355 70ef 95bf 2779 bada 2fb2 b83f
00000030: 6eb4 d70f b4e5 8dbf 0c4a 50f4 10bc db3f
00000040: 4159 9095 19b8 bdbf 79ae 8f6b 5cd2 b93f
00000050: 1fe6 b786 2bb0 c13f c8a1 0755 2fde f53f
00000060: 2495 ae29 9ebf f6bf ce47 d9bd eb36 87bf
00000070: 9ea4 2eed 5c67 db3f a79a 0a9a 1722 b53f
00000080: 5c2c e846 608b f03f 1074 0adb 2a5b f7bf
00000090: 4f15 adf2 54f2 ad3f be6a d8e5 2c1c e93f
000000a0: 217d 4bba 248b b73f f81c 6eee 4abd f63f
000000b0: 8698 909d 6d72 f7bf 4c87 b851 5d6b df3f
000000c0: f2c2 0b1e decc a3bf f057 edcd dda2 d83f
000000d0: bb36 79a5 8f0b 873f 5ba1 1190 e3e2 d1bf
000000e0: eb54 dc32 ff96 d93f 5f53 3dde 5ef5 90bf
000000f0: f70f c10e 0e07 c13f 030e 23bd 1955 c23f
00000100: 2340 c0c6 975d c3bf 2d98 4e63 b0ed d83f
00000110: 18e3 10bc 0c9f 8dbf 0200 0000 0000 e03f
00000120: 690a 6e73 5324 d7bf 620a 6e73 5324 d73f
00000130: 0ea4 2cae b682 b43f 06a4 2cae b682 b4bf
00000140: ee21 124b c85c d23f fb32 040a eaeb bbbf
00000150: 2688 d44b ce7b bb3f d37a 0b9c f423 c5bf
00000160: 3186 7ff2 3851 d83f 242e 966c 283b c73f
00000170: a552 01a6 b2d1 d73f 052b c0d3 7bc1 c5bf
00000180: 4d41 66b5 f3df d4bf 19ed f9c2 6a51 dc3f
00000190: 025e 282e 0f46 ba3f b068 f16e 8754 da3f
000001a0: 6052 e8ff e0ac d5bf 7e66 8209 ef97 7ebf
000001b0: c9db 9281 3541 d53f b86b 98e8 7dda d73f
000001c0: f4a7 9eac 74b2 e53f 5f3e f427 18b1 febf
000001d0: 7343 fd11 dab9 fd3f f0cf f9e9 6e62 dfbf
000001e0: 5e95 45a9 6b1a d93f 854d f6b0 3f53 e03f
000001f0: 183f 379c d7a8 debf c518 c6be 646e a63f
00000200: bc5c 62c9 ffd0 a03f bb69 6206 66ac e43f
00000210: 5fca 56ad f93e be3f 1c9f 9b92 3557 d8bf
00000220: 18d7 ddf9 b75a de3f 09be 5cdf 0cec d6bf
00000230: 8d9b 8b3e 6c59 f13f 6fa4 3362 c15e ebbf
00000240: 040f 71ad 1724 e83f d419 fddc f854 eebf
00000250: 4af0 5029 94b9 dd3f
