trotterization/Order_n6/Cycle_q9/q9_standard_parameters_b.npy (npy, 728 bytes, 1 tensors)

array f8 [15, 5]
0.6662968939977079 0.02461890095210509 -0.4107255336179512 0.6577292620509132 -0.8758390467655499 0.4892429607350193 -0.2200198156377052 1.0066068363499794
0.022889503861749 -1.5974389706180852 0.4949394734745857 0.0010125518405778894 -0.6986491152013266 0.5304425450114741 0.3445090897493776 0.3234008370796612
-0.0041813366269310625 0.07534027205870437 -0.10826663622893443 0.42741372743499983 0.45805649394772674 0.0009528971546202831 -0.17813982728298441 0.5764116732599325
-0.7145624741585901 -0.3776334741856346 0.34294234968362053 0.29082936286034045 0.8992595077196126 -1.310795492155878 -0.5903746057986402 0.013711527386943924
0.8553305841427252 0.8419251602406321 -1.2411853319433221 -0.045602503317497864 0.36802068289602197 0.7602320962252854 -1.005061489254406 0.8448224269011932
2.2345053260019365 0.007132279148786429 -2.2738524776309417 0.3073916463743176 0.4496464522118021 0.3629857120911048 0.38136216944427415 -0.7212964772939192
0.0689585882941995 0.8159800149286816 0.25576111000785395 1.5370441241489163 0.4543194660254448 -0.42524171997832483 -2.6437659604077806 0.7687950016514162
-0.27495587988157383 0.001399602759720368 0.45739606634648444 -0.9052695817520945 0.7844751649942501 0.2358492475979578 -1.1939598710616706 1.2815818427409353
-1.2158927685429455 1.292089486064161 -1.0557926323900286 0.29514696975461535 0.6534270849830941 -1.3697418168236835 0.12400508274903958 0.80813544669184
0.09091528695524746 -0.37671987597202666 -0.29267188084820084
00000000: 68b0 24dd 4d52 e53f e89e cf79 b235 993f
00000010: 255c a1bf 5349 dabf 3830 c43c 1e0c e53f
00000020: 0a5f cd9b df06 ecbf 7ded 09b5 c14f df3f
00000030: f364 51fc 9b29 ccbf d9d9 20c5 0f1b f03f
00000040: 1511 089a 5870 973f bd91 822a 1c8f f9bf
00000050: d7a8 049d 16ad df3f 923f 9c42 f396 503f
00000060: ba68 a563 555b e6bf b966 e7a4 62f9 e03f
00000070: d77d 69da 6f0c d63f 1365 b06c 99b2 d43f
00000080: 574d 0f01 7320 71bf 4d5a 9004 8049 b33f
00000090: 62e8 d9bd 5cb7 bbbf 5077 4c1b bf5a db3f
000000a0: 4875 4e2f cc50 dd3f 8132 ca0e 7b39 4f3f
000000b0: 29d3 252e 49cd c6bf b8e3 b5e4 f671 e23f
000000c0: 3cb8 2e1f b2dd e6bf 6723 6097 252b d8bf
000000d0: af7d 1378 c4f2 d53f 50e8 8cc2 f29c d23f
000000e0: beba 08e0 bbc6 ec3f 0adc a8b1 04f9 f4bf
000000f0: df68 0949 59e4 e2bf 811c a40d ca14 8c3f
00000100: ac2b c53e de5e eb3f e837 9d08 0df1 ea3f
00000110: 278b 8f26 e5db f3bf a690 ba18 3659 a7bf
00000120: 608f 529f a68d d73f 2d07 d542 d253 e83f
00000130: 5311 2d5b bb14 f0bf a8f9 ce0a c908 eb3f
00000140: 3f54 0f54 44e0 0140 ec28 0a9b bc36 7d3f
00000150: e6d3 5a91 d930 02c0 5071 0f03 4eac d33f
00000160: 86c6 c0e9 01c7 dc3f 272e 966c 283b d73f
00000170: 1477 6cdf 3c68 d83f 0451 9659 dc14 e7bf
00000180: 857d 8021 45a7 b13f 6cdd c91e 821c ea3f
00000190: 0ea2 c4d8 635e d03f 2ea8 5b94 bb97 f83f
000001a0: 70fd 20f4 9113 dd3f 92e8 0c0c 2937 dbbf
000001b0: e9d5 91c4 6e26 05c0 a479 adf9 f799 e83f
000001c0: fbca fb8b e098 d1bf 781d 2505 5cee 563f
000001d0: 98bd 9126 fa45 dd3f 030b f6e9 f7f7 ecbf
000001e0: 9295 45a9 6b1a e93f 7516 9ce2 4e30 ce3f
000001f0: d923 6faa 751a f3bf 0684 5bf6 5b81 f43f
00000200: 8a5b c5f9 4b74 f3bf 936a 6206 66ac f43f
00000210: 1891 b7d0 86e4 f0bf 4303 a71d b0e3 d23f
00000220: 0856 0aeb dfe8 e43f 9f8a 3365 76ea f5bf
00000230: e3e4 f10e ccbe bf3f 28f4 48de 3edc e93f
00000240: e3e2 2d68 3946 b73f db64 c3ae 2d1c d8bf
00000250: ceea 2cd7 22bb d2bf
