trotterization/Order_n6/Cycle_q13/q13_parameters_a.npy (npy, 75784 bytes, 1 tensors)

array f8 [1351, 7]
000000 7d 68 23 22 55 fa 98 bf f3 3d 12 93 19 58 d7 3f
       -0.02439244290221908 0.36475219118526
000010 ea 34 d3 56 68 76 e2 3f d3 af ec ed 5c a9 a8 3f
       0.5769540496636669 0.04816713718750489
000020 d7 5f 44 d1 23 3a cf bf b0 38 9c 42 06 fb ca 3f
       -0.2439617893039656 0.2107856583829224
000030 65 31 00 ec 78 54 b1 3f 42 f8 7c 0a de e0 e7 3f
       0.06769519578683043 0.7461996273848472
000040 cb 8a 75 3a 9b 6f ad 3f f6 c7 e6 68 bd 54 d3 bf
       0.057492113958479495 -0.3020471119335747
000050 00 66 5f 4a 69 2a e3 3f 60 2a 4d 90 4a d4 e7 bf
       0.5989271595564674 -0.7446644609820616
000060 72 0b 23 3f 9b 2d e2 3f d6 5f ce e8 67 76 b3 3f
       0.5680671914236497 0.07602548059219258
000070 78 69 b8 ed fe d4 db bf 99 33 f5 f8 31 8e e5 3f
       -0.4348752328384289 0.6736078131158251
000080 dc dc fc 44 08 34 d6 3f 6b dc fe 8e 0d 0f bf bf
       0.34692579972347715 -0.12132343999006572
000090 0c 59 dd ee bc 51 ad 3f 8c 6f 8b 40 58 a3 d9 3f
       0.057264236601144075 0.40059477141561994
0000a0 61 07 a7 f0 18 eb b3 3f cd 97 4d 4b 81 cc 9f bf
       0.07780605197242842 -0.031053562375198674
0000b0 b4 87 3a 1c 19 f1 d5 3f 65 eb 20 81 48 48 d0 3f
       0.34284045941069086 0.2544118176480679
0000c0 f0 16 9c ef 65 1c dc 3f b2 80 05 f5 4a ad b1 3f
       0.43923328780543525 0.06905048830003827
0000d0 39 50 82 ba 76 d9 c4 bf 90 5d f4 9e a4 a1 b6 3f
       -0.16288646799933007 0.08840397721029647
0000e0 17 57 87 83 78 26 d5 3f 33 cc 70 12 97 1e eb 3f
       0.3304730686626142 0.8474841461342123
0000f0 f2 95 d3 9b 1f d1 f4 bf b0 66 69 fa be 68 aa 3f
       -1.3010555350277824 0.051580398624265
000100 41 59 65 2f 70 ea e7 3f 60 b3 23 43 67 5c d0 3f
       0.7473679471684492 0.2556398540171383
000110 48 56 a7 16 e1 89 b1 3f c1 65 cd 89 87 6e d3 3f
       0.06851012042110327 0.3036211820341031
000120 d5 a7 a6 da 70 70 e8 3f 6c 54 af 18 0f 72 ae 3f
       0.7637256880309403 0.05946395088509679
000130 dc 10 bd 53 00 ad f6 bf f6 cd 8f 47 12 94 ee 3f
       -1.417236640075365 0.955575122612969
000140 77 52 13 c8 79 72 d0 3f 53 d4 42 56 df ee b3 3f
       0.2569870427953797 0.07786365371687624
000150 99 03 a2 ef 71 c4 d4 3f c3 96 44 bb 72 8b ec 3f
       0.3244900550999375 0.8920224816872281
000160 39 28 6e 0f 56 9a 91 3f b1 cd 6a 3b 8c 40 f4 bf
       0.017190308276930664 -1.2657587357506197
000170 2d e5 60 27 a8 82 e5 3f db 46 4b 7b d4 74 d2 3f
       0.6721993226157444 0.28838073769030154
000180 b7 47 f0 71 3d 4c b2 3f 3a 46 71 e6 c7 a3 d2 3f
       0.07147583038047754 0.29124639038227296
000190 86 13 d3 f0 75 d6 cf 3f c1 bf 8a 3c 25 92 c1 bf
       0.24873232134828188 -0.13727250534202365
0001a0 fa 8c 98 5b ee 80 bc 3f 84 e3 5c 1e 2f 3d 82 bf
       0.11134233223178916 -0.008905761827564758
0001b0 74 bd f5 70 b3 59 d9 3f 31 59 06 c2 28 48 b9 3f
       0.39609991103403464 0.09875731217320972
0001c0 d2 73 d4 aa ca 53 d3 3f 90 67 47 e6 dc 00 d5 3f
       0.3019892376194636 0.3281776665513627
0001d0 ae 3e 58 7a 1b 18 7b bf cb 4c 33 d9 16 be bc 3f
       -0.006614787421781605 0.11227553179496678
0001e0 99 c2 bb 4f b8 16 c3 bf f5 d2 56 cd e8 ab d4 3f
       -0.14913085835680276 0.3229925160660934
0001f0 f3 02 1f 04 9a 1e b7 3f 4a 50 ba 72 56 74 cc 3f
       0.0903106937466978 0.22230034448569064
000200 5e ed d9 43 62 5f cf bf bf 97 9b 04 51 32 e5 3f
       -0.24509838402796452 0.6623921480174814
000210 dc 74 88 8b 16 29 c1 bf 0d 6d 1f 10 1a 35 d7 3f
       -0.13406640828262695 0.3626160771797949
000220 88 06 9c af ad 82 ac bf 7b da e1 95 55 01 c8 3f
       -0.05568449753446908 0.18754072016209364
000230 1a f6 e4 69 f6 f2 d7 3f cd e0 fe 5a 4f 68 d7 bf
       0.3742042574047858 -0.36574157606402197
000240 60 c5 16 ae f9 a4 ed 3f 4b 65 da 68 bf 6e 95 bf
       0.9263885879683293 -0.020930281424260937
000250 af 4f ca ff fe 3c d0 3f 0e 99 38 77 04 ed d4 bf
       0.2537229059173524 -0.32696639673885464
000260 4d 9f d0 05 ae 64 c4 3f 06 cd 84 66 c7 40 e0 3f
       0.15932250293666997 0.5079075815505412
000270 8c 57 53 05 f4 65 72 bf 53 07 4b c6 cd 3d b6 3f
       -0.004491761404286875 0.08688055125369702
000280 b4 65 29 7a 48 48 c1 bf a2 83 0d 5a 21 f7 d0 3f
       -0.13501840557982592 0.2650836352750564
000290 99 dc 05 f8 04 42 cc 3f 51 93 e9 c3 af 24 ae 3f
       0.22076475248806984 0.05887364641674842
0002a0 04 20 df 59 58 99 99 bf 99 0a f1 a2 75 ff ea 3f
       -0.02499902771504027 0.8436840231373309
0002b0 65 ed 6b 0e e7 eb b2 3f 70 72 11 95 cd 6d d6 bf
       0.07391208746041895 -0.35045184667050133
0002c0 5b 6f 5d bb b3 14 ce 3f 08 40 02 07 3a 25 c6 3f
       0.23500677727394756 0.1730110677931409
0002d0 9e e1 13 80 39 84 a9 3f 3e e6 51 8e 51 03 c3 3f
       0.04983691872070327 0.14853877495970552
0002e0 fc 88 f7 b7 6f 3c c7 bf b1 08 cb 72 32 16 db 3f
       -0.18153187258491943 0.4232298012758618
0002f0 71 70 32 60 34 00 e0 3f 81 84 24 fa 65 c8 a0 bf
       0.5000249747131545 -0.03277891806124789
000300 c3 eb 18 98 d8 13 bd bf 4c b3 ed c6 f6 63 d0 3f
       -0.11358407700838229 0.2561013167058277
000310 af 0a 12 ed 76 e1 e1 3f 5f d8 31 fa 88 02 b3 bf
       0.5587725286753392 -0.07425743206280931
000320 6c 48 1f 9f 69 b9 cc bf c9 ab f4 98 14 ce ec 3f
       -0.22440834302557577 0.9001563060204428
000330 14 ab 12 77 b4 a3 ea bf 63 7e 85 0b a7 fc e2 3f
       -0.8324835134165789 0.593341372015811
000340 fe 1a a4 64 6b 31 b4 3f 0f d6 14 5e 51 67 dc 3f
       0.07887908179337086 0.44380602061878077
000350 df 4f 70 06 a8 b2 94 bf e3 7f c0 36 c6 5b c4 3f
       -0.020212769883144573 0.15905072854457022
000360 8e 51 87 9b 94 67 c6 bf fe e0 49 09 c1 f8 e1 3f
       -0.1750360259453711 0.5616154843728791
000370 65 25 74 7e b1 7b b2 bf 82 7c fb 86 aa 5c ba 3f
       -0.07219991051910808 0.10297647281139358
000380 16 ac 64 70 59 bd f0 3f 70 1b d3 a0 c5 df f2 bf
       1.046227873836647 -1.1796318323337935
000390 2b c9 06 48 57 13 e4 3f cd a8 5d 5d 6b 92 cf bf
       0.6273609549300877 -0.24665586527709707
0003a0 c9 1d 70 c6 37 b1 b4 3f 5c 58 8a f6 14 a6 e2 3f
       0.08082913012196181 0.5827736678354642
0003b0 32 1d a9 06 00 cf b6 3f 42 00 a3 fa 06 10 d6 3f
       0.08909607088672969 0.3447282264351125
0003c0 91 1c 31 7a f5 73 e0 bf 1a 5f 0c c0 95 8f b2 3f
       -0.5141551386413018 0.07250343264274442
0003d0 dd 7a 63 7a ab 13 f0 3f 8a 2e 29 fc d9 72 99 bf
       1.0048022061161455 -0.02485218621795452
0003e0 b5 ba 0a c7 34 da a9 bf c7 3f a4 b1 89 6f c5 3f
       -0.050492905900104836 0.16746636556535874
0003f0 23 68 ad 31 2c 0f e0 3f 14 77 d8 2b 04 18 a5 bf
       0.5018521280537737 -0.04119885478233534
000400 32 1a 32 32 76 2c c3 bf 80 ea 0c 0b 78 a5 80 bf
       -0.14979436350786696 -0.00812810691569621
000410 c8 75 4d a9 52 be af 3f 9f cb 53 9a 1b 42 e1 3f
       0.06199892346078745 0.5393198026853162
000420 4a b4 01 c7 35 90 b8 3f 8b 60 39 fe 48 df 98 bf
       0.09595047100602119 -0.02428926517163225
000430 49 bd 69 e4 59 b8 d8 3f 3b 2c 52 34 cc fe d3 3f
       0.38625190072976473 0.3124266158053534
000440 3b dd 95 63 9b 5f c6 bf 46 6c 49 b6 d7 a7 aa 3f
       -0.17479269373482417 0.052061787607009566
000450 17 90 3f 64 ed b7 d7 3f 0b 76 a7 37 cf e6 b3 3f
       0.37060103216049484 0.0777406226038339
000460 2a 57 ee 1f 40 fd e0 3f 60 57 44 03 05 53 81 bf
       0.5309143661167799 -0.00845912853450742
000470 6e 82 bc 1e 8b c0 b1 bf 9f bb aa 2c eb 56 cd bf
       -0.06934422970199147 -0.2292150467014524
000480 d8 d1 a4 64 aa 7a c2 3f e9 99 e4 c8 f8 0e e1 3f
       0.14436845697640766 0.533077614182557
000490 4f 58 99 08 a6 41 b9 3f 4b 9a 8b b1 a0 6a c0 3f
       0.09865796766220679 0.12825401944356182
0004a0 e5 67 34 f8 3e 9f c2 bf 95 cb 17 02 40 45 dc 3f
       -0.14548480147715206 0.44172668651952424
0004b0 25 72 82 9a dc 6f db 3f 52 2f 1e 2e d9 04 c2 bf
       0.42870249832938817 -0.14077296020365765
0004c0 6e 18 01 34 95 94 cb 3f 12 d2 22 0f 52 75 b2 3f
       0.21547188796302258 0.07210266942531288
0004d0 79 66 fe d9 e7 a5 a1 bf 72 53 73 24 64 6b e6 3f
       -0.0344688848119405 0.7006092750476525
0004e0 52 bf 87 54 b0 90 f9 bf 9f 5e 40 8e 10 93 f6 3f
       -1.5978244115794564 1.410904460591986
0004f0 9a fe 20 bd e6 5a d8 3f 33 e2 a8 7d 48 3c aa bf
       0.3805481764756934 -0.05124117406780151
000500 c8 8c 15 3c 2c 82 c8 3f c4 11 8a c5 22 d4 f2 3f
       0.19147255834386656 1.1767909733181208
000510 6c b7 4e 5f 6b 29 fa bf ed f5 35 1e 11 5d a7 3f
       -1.6351121638249095 0.04563191884788496
000520 15 e5 1b 4f 56 e8 ee 3f 57 47 10 e9 95 37 a1 bf
       0.965861467847534 -0.033627209377427185
000530 49 52 e4 c5 d2 b7 d9 3f 70 11 47 71 ce 1f b4 3f
       0.40184468579653704 0.07861032739226004
000540 31 39 77 19 c7 94 b9 3f 00 71 af d5 85 65 bd bf
       0.09992641803475945 -0.11483036486555775
000550 f3 d6 3d d4 f6 11 da 3f d4 8d 5c 5b 72 fa d1 3f
       0.4073464462920661 0.2809110538675814
000560 9f 28 36 e8 35 55 d5 3f 45 27 39 f2 d7 0e b3 bf
       0.3333258407298078 -0.07444524444249818
000570 7c 29 2f 4f 1a 59 b1 3f 63 62 eb eb 35 6f a1 bf
       0.06776585038384114 -0.034051594780696325
000580 35 12 ef 9f e4 d2 e2 3f 81 ae bf 51 8d 13 af bf
       0.5882437823971204 -0.06069604514035821
000590 31 9c e1 d7 d1 61 ce bf 31 98 4f 87 e7 2e be 3f
       -0.2373602203472003 0.11790320447434578
0005a0 c3 3f 54 f4 23 2c e1 3f de 98 2e 25 d9 dd b6 3f
       0.5366382381489462 0.08932263524784242
0005b0 2b 7c 97 8a 94 b6 bc 3f 83 04 d8 b8 f5 47 c0 bf
       0.11216095336520542 -0.12719604039742557
0005c0 bd f5 27 69 13 7e dd 3f e9 9c 88 6a 3c f5 da 3f
       0.4608200575747466 0.42121801761318395
0005d0 24 85 19 2d f4 bd 99 bf 7e cf f5 99 d3 04 8c bf
       -0.02513867879168176 -0.013681080947868681
0005e0 bf ae 6d 8b 17 fe c5 3f cc b8 b7 c3 f0 05 d7 bf
       0.1718167715838401 -0.35973757851651267
0005f0 a6 f6 53 9a cf fd e4 3f 6c 7e 93 d5 25 d1 d5 3f
       0.6559827818125157 0.3408903680519646
000600 87 b4 99 45 29 69 69 3f 1a 9c 7f 0c 77 b1 a4 bf
       0.003101902588972086 -0.04041645076340945
000610 4a 18 38 1f 3f d2 d4 3f 94 d3 23 a5 24 29 b3 3f
       0.3253324322580552 0.07484654456841461
000620 8b ad 87 40 9d 4a dd 3f 0b 17 6e 2e 02 ef d5 bf
       0.45767909337765705 -0.34271292242225176
000630 79 0a 7a 4c 16 33 d2 3f 53 82 a6 5b 94 8e b9 3f
       0.28436810940198815 0.09983184087332946
000640 4e 1d c2 f2 af 2d 97 bf ee 7e 6c 4b 84 2f db 3f
       -0.02263522071055251 0.42477519384009
000650 68 85 09 f9 00 44 b9 3f 4e de fc 23 fe e9 a2 bf
       0.09869390563973968 -0.03694147290519521
000660 d3 7d f9 d6 3c d1 e6 3f 79 b3 7b af 56 e8 bc 3f
       0.7130417059633437 0.11292020591981879
000670 45 1c 3a f0 f5 10 cb bf 2f ff cc 66 52 b3 84 bf
       -0.21145509939035115 -0.010107654344778531
000680 53 f1 65 67 41 f1 d6 3f 3d e0 6c 3a 12 f6 b2 3f
       0.35847506616098207 0.07406724859618037
000690 5c 4d 0b ed 48 a9 d0 bf 57 7e 4c 2a 3a d4 de 3f
       -0.2603323283085126 0.4817033207964178
0006a0 82 62 53 59 b5 9f d5 3f a3 9e 65 30 ba b7 d3 3f
       0.33787282679762864 0.3080888245226367
0006b0 3e 28 3a 6c d7 17 77 3f 9f b7 a7 7e 7b d7 b4 bf
       0.005637971396604212 -0.08141300050894394
0006c0 4f a6 fd 75 3d ae ca 3f 26 7c 46 00 be 83 ae bf
       0.20844238530416923 -0.05959886315690026
0006d0 79 9b a7 ec 9e 48 da 3f 60 af da 00 26 7c e1 3f
       0.4106824217873775 0.5464048401531549
0006e0 e2 f6 0a 30 16 b3 c2 3f a2 1f 2a 19 3d 28 c8 bf
       0.146090291460431 -0.1887279866098171
0006f0 23 dd fa eb d9 f8 ae bf 9f 8a 75 07 77 52 ca 3f
       -0.060492334419388415 0.20564163078514228
000700 a0 32 17 3c 59 09 9a bf a5 ff d0 63 e0 d8 eb 3f
       -0.02542628697647109 0.8702241849459723
000710 bf c0 43 c9 01 0b b1 3f 6e 2e 6c e4 f5 42 d7 bf
       0.06657420314491257 -0.3634619455994884
000720 59 bb 3f fa f9 e2 df 3f 36 c1 3e b3 78 1a c0 bf
       0.498228544601195 -0.1258078456135167
000730 85 5d 69 76 32 65 b4 3f 42 94 8d 98 6d a9 e2 bf
       0.07966914549739641 -0.5831821422149306
000740 00 04 6f 13 70 14 ec 3f 7d 3b e0 c6 a6 8d c8 bf
       0.8774948482097216 -0.19182285986650163
000750 90 ee c8 45 b9 a2 b8 3f 82 33 20 73 b6 9c e0 3f
       0.09623296693546934 0.5191299675512797
000760 31 a8 30 d9 47 05 cb 3f 0a 1e 89 25 3d 30 b2 3f
       0.21109865288718901 0.07104856649777261
000770 f4 1b 9e 85 2e ab df 3f 12 0c e8 ba ed 4d a8 bf
       0.494823103414489 -0.04746954828808482
000780 af a4 89 d9 ef c0 92 3f 08 24 f4 5c fc ab d6 bf
       0.01831412091488421 -0.3542471797705393
000790 66 ed 26 39 65 63 d1 3f f8 19 58 9d cc ba e0 3f
       0.27169161397224284 0.5228026459815842
0007a0 d5 37 0d 75 f8 15 b8 3f 21 df b4 9b 39 18 d8 3f
       0.09408524377542389 0.3764785786220149
0007b0 bb 02 5c b3 b8 9d 54 3f 59 a7 0f 38 17 2f e9 3f
       0.0012583068577784312 0.7869983763641627
0007c0 3a 52 98 8d 77 21 ee bf ea 50 a3 9f 75 dc d8 3f
       -0.9415853276755748 0.38845577802318465
0007d0 1e 2c 9d a8 7a a2 d4 3f 60 76 a2 39 e4 e3 b0 3f
       0.32241693941313254 0.06597734839530167
0007e0 bd 72 36 b3 60 91 9e bf 6e 39 c6 be 31 2b db 3f
       -0.029851447046541624 0.4245113719015511
0007f0 1a 6c 92 1c 44 9f de 3f 1e 3b 45 4a e2 64 82 bf
       0.4784708289168421 -0.008981483356050254
