trotterization/Order_n6/Cycle_q13/q13_parameters_c.npy (npy, 140632 bytes, 1 tensors)

array f8 [1351, 13]
000000 65 31 00 ec 78 54 a1 3f a7 aa 06 f8 74 84 aa 3f
       0.03384759789341522 0.05179181602155341
000010 07 33 a0 c2 f9 85 d0 bf 85 7c 28 86 6a 44 d2 bf
       -0.2581772232668275 -0.28542578793889845
000020 9b 23 e5 ce b1 ee b7 3f c7 94 78 e8 c9 88 b8 3f
       0.09348593999051362 0.09583722997247711
000030 ec a3 ba 10 2a 35 cd bf 64 6d 98 be 84 a5 cb 3f
       -0.2281849462208635 0.21598872476975395
000040 1e e7 ab 3d 69 27 b6 3f 06 d8 33 c6 77 f5 c8 3f
       0.08653886562015287 0.19499108484131983
000050 82 47 07 55 00 cf d3 3f 23 36 9e 9c e1 6e c1 3f
       0.3095093565326509 0.13619632861484474
000060 b8 c6 31 8d 97 71 ab 3f d6 5f ce e8 67 76 a3 3f
       0.053601013169907785 0.03801274029609629
000070 1c 62 59 8c 59 ff c7 3f 07 53 b3 a4 97 99 c3 bf
       0.1874801574038124 -0.15312476675048733
000080 fe 6b a3 5d eb ac c3 3f 3f ff 52 69 c5 c4 d5 bf
       0.15371458122430676 -0.34013495717589487
000090 21 5d e7 1b 54 db d7 bf d2 97 43 30 8c 36 bc 3f
       -0.3727617523668006 0.11020733049698997
0000a0 4f 12 6c fe 3a d3 d0 3f cf b5 8e cf 4d b2 d9 3f
       0.26289248319543373 0.4015078093460404
0000b0 8c 36 bf 69 cd 34 c8 3f 06 60 1b 37 e7 a7 c2 3f
       0.18911140120910763 0.14574899855392703
0000c0 b6 01 e7 7b fd 0e cc bf 96 69 d9 e3 b9 b7 b8 3f
       -0.2192074637405434 0.09655343830801252
0000d0 61 07 a7 f0 18 eb a3 3f ef ea 3c 59 30 a7 c1 3f
       0.03890302598621421 0.13791469914743668
0000e0 7b 00 e7 0c 19 c0 d5 3f 5a c7 b2 06 0a d3 cd 3f
       0.33984972248072837 0.23300290419643482
0000f0 cc a0 e7 26 44 dc b6 3f 10 2a d7 35 3e bb cb 3f
       0.08929849576782373 0.21665170315675697
000100 08 d7 7a 95 f8 e9 8e 3f e8 16 10 77 9e c3 cd bf
       0.015094701825869375 -0.2325323182450838
000110 45 7a 26 78 4b c2 be 3f ed 18 12 63 cc 8b b5 3f
       0.12015220340115558 0.08416440409391486
000120 3a 3f 39 b5 66 cb d2 bf ea 2a f9 3d fd ea d3 bf
       -0.29366462419146766 -0.3112176041801563
000130 77 12 3a 9d 9f f0 af 3f 90 5d f4 9e a4 a1 a6 3f
       0.06238268656037332 0.044201988605148235
000140 59 be da 14 2b 6e d0 bf 72 44 0b 91 c4 74 d0 bf
       -0.25672413860863724 -0.25712694324926766
000150 30 39 b3 b3 61 6c b2 3f 5a 23 26 e9 cc b8 b4 3f
       0.07196627270898115 0.08094483081926054
000160 78 6c 63 8a e8 46 b5 3f 9f f9 b4 51 10 74 ca bf
       0.08311322573301705 -0.20666698445888884
000170 22 20 00 3d 48 77 c8 3f f1 a2 11 ae 49 9b b6 3f
       0.1911402032712895 0.0883070039723284
000180 e2 66 37 32 88 af a7 3f 58 7a c2 15 35 e6 c2 3f
       0.04626107800477343 0.14765037119373647
000190 88 f4 ab ef 6d aa d2 3f 95 54 74 cc 9a 6f c6 3f
       0.2916521873992868 0.1752809046089722
0001a0 48 56 a7 16 e1 89 a1 3f 91 81 2d 24 3e dc b0 3f
       0.034255060210551636 0.06586063750501682
0001b0 d8 15 10 82 ee f5 d2 3f ea 2a 35 b1 ca 74 d8 3f
       0.29626047803352895 0.38212840371549694
0001c0 6d 47 aa c3 f7 ce d3 bf f7 8e 81 ba 2d db bd 3f
       -0.30950731380391155 0.11662565043803484
0001d0 e5 ef 85 f8 ef 8b b7 3f 43 be 88 0e 01 c1 b2 3f
       0.09197902505360352 0.07325750927770351
0001e0 74 68 d0 a3 cb a7 d3 3f 79 e4 fc 73 47 d3 d5 bf
       0.30711642262907124 -0.34102045370997974
0001f0 81 94 8e c1 3e ce d6 bf a0 0d 55 b5 06 d2 b3 3f
       -0.35633820440336456 0.07742349555069561
000200 54 ca 33 c4 20 b9 af 3f 53 d4 42 56 df ee a3 3f
       0.061959289503552256 0.03893182685843812
000210 fd 54 f8 d0 a0 31 af 3f 45 eb c8 0b c0 7c d7 3f
       0.060925508030928534 0.36698914671767496
000220 1b 8d eb 97 0f b5 d5 bf d1 c5 68 53 9a 54 d6 bf
       -0.33917608104657554 -0.34891374726711627
000230 b4 17 fe 00 c2 61 b7 3f 2d 32 a8 ab c2 85 af 3f
       0.09133541607124479 0.06156738610670618
000240 6a b2 c6 bd 2d 1a b7 3f e8 21 67 5a 00 98 d2 3f
       0.09024320491034535 0.29052742794422537
000250 18 bb f3 44 bb 3b d8 3f 9e 94 8e 0f f1 a4 d7 bf
       0.3786457227096647 -0.36944223899110706
000260 c2 8a 1b ef 48 5d bc 3f 6e 7a aa 27 23 4c b1 3f
       0.11079841458880949 0.0675680133667613
000270 b7 47 f0 71 3d 4c a2 3f 0a ce 72 50 a6 59 b3 3f
       0.03573791519023877 0.0755866953284611
000280 53 3b c3 dd cd 6a ce 3f df 1f f7 42 5e a2 d8 bf
       0.23763440445187686 -0.38491016902525915
000290 9a 4f ce da 19 c2 dc bf e7 87 14 c4 93 e3 b3 3f
       -0.44934698455585365 0.07769130265344835
0002a0 3d e0 10 41 f5 04 bb 3f fa 4d 66 3c dd 07 ad 3f
       0.10554440344356038 0.056700624106408484
0002b0 cb 74 3f ca 8d 92 d7 3f de c0 49 8b ec 4e dd 3f
       0.3683199381901658 0.4579421386943191
0002c0 02 f7 bc 67 74 bd cf bf 16 1e fd e1 04 35 b9 3f
       -0.2479691988500506 0.09846525685599547
0002d0 b4 bf 23 a6 02 90 b1 3f 31 59 06 c2 28 48 a9 3f
       0.06860367351668978 0.04937865608660486
0002e0 4c c1 21 b1 34 12 bf 3f ce 5a 32 6a 52 4b d4 bf
       0.1213715488863773 -0.3170972859456186
0002f0 eb b3 9a ce 23 27 db 3f 17 4f 3e d7 63 ae d5 3f
       0.42426390815927445 0.3387689210878632
000300 50 ef 72 4a ef 5a aa 3f 84 c7 8a 3a 0d be ac 3f
       0.05147502692986328 0.05613747920632675
000310 aa 28 9d 2f 89 e8 b6 3f d6 9b 99 4b fe a8 b2 3f
       0.08948571598480962 0.07289113374427755
000320 09 ff 60 26 ed 12 da bf 4e a2 27 03 06 97 d7 bf
       -0.40740517375887514 -0.36859274204338
000330 3e e7 b8 ad 5d 02 d4 3f 94 b9 c9 30 32 a1 b3 3f
       0.3126444050318361 0.0766784066306399
000340 f3 02 1f 04 9a 1e a7 3f c6 1e a5 e2 5e 1d b7 3f
       0.0451553468733489 0.09029191048932281
000350 eb c8 2f 25 33 d3 d6 bf 4c e5 f1 1f a7 4d d4 bf
       -0.35664061194905966 -0.31723955268497117
000360 a5 60 3b b9 c5 2f d1 3f 1f 12 ce 7e b2 80 ad 3f
       0.26854079331452346 0.057622507075425704
000370 71 e4 03 ec 93 29 b0 3f 27 03 a5 69 01 7e b6 3f
       0.06313442718591646 0.08786019162381518
000380 05 c6 27 8d 60 41 bb 3f 25 11 30 f0 f5 65 d1 bf
       0.10646632620025549 -0.2718481870254144
000390 e2 4e 18 fb 69 e5 d7 3f 42 d8 40 11 85 0d d2 3f
       0.3733773185824544 0.28207518277065813
0003a0 19 87 08 b8 72 3a b2 3f 7b da e1 95 55 01 b8 3f
       0.07120434754372375 0.09377036008104682
0003b0 9a a1 ae a1 86 3c bc 3f a0 83 e1 9f 8b dc b9 3f
       0.11029855201070973 0.10102150586455005
0003c0 c8 b6 01 a1 6f 87 cc bf 22 34 50 6c e4 3c c2 3f
       -0.22288318025260012 0.14248328484282619
0003d0 0e 4a c0 49 58 da e0 bf 37 04 ee 8c 98 10 db bf
       -0.5266534271671064 -0.42288793337508274
0003e0 24 4c ce 14 d7 16 e1 3f c3 18 8a 02 d8 dc d9 3f
       0.534038105617928 0.40410423515312405
0003f0 59 fb e6 9c bd 27 c8 3f 57 7c 3d 5b e4 f2 c3 3f
       0.1887127891659144 0.15584997611128656
000400 74 56 5d 80 a8 8d b4 3f a1 d1 ca 06 99 ae c1 bf
       0.0802865327253473 -0.13814080077794436
000410 4d 9f d0 05 ae 64 b4 3f 73 75 30 20 14 cf db bf
       0.07966125146833498 -0.43451407569394646
000420 d8 bc a8 21 4e 5e d4 bf 92 a7 4c 87 0c 06 b4 3f
       -0.31825593268417895 0.07821729949196612
000430 70 cd 54 22 bb 33 d3 3f 6f 86 4e de c3 0a c0 3f
       0.3000324092165192 0.12532852511235457
000440 84 80 b1 a5 73 17 b3 3f ae 6b 18 2e 79 ce bc 3f
       0.07457659526108001 0.11252553344131286
000450 9f b3 a6 9c 89 b9 d3 bf df ef 83 17 7d e2 c4 3f
       -0.3081993131443656 0.16316188476764545
000460 3d f4 67 74 e4 b3 b6 bf af e4 8d a1 cd 7c dc 3f
       -0.08868244020409662 0.44511738564285513
000470 eb 28 94 e4 91 58 d1 3f 51 93 e9 c3 af 24 9e 3f
       0.2710308773245191 0.02943682320837421
000480 f2 78 cf cc b4 41 af 3f 04 40 e3 18 d7 2e b4 3f
       0.06104817390563423 0.07883972509011988
000490 2a f2 d8 c7 00 53 d8 bf 9a aa 54 bc 98 82 d7 bf
       -0.38006610409118713 -0.3673459853331821
0004a0 9b 80 24 22 64 8a d5 3f fb 43 65 7e 17 a5 bb 3f
       0.3365717252181725 0.10798785053090391
0004b0 16 f8 d6 0d 03 af c2 3f 46 27 2f 0a 30 af d5 bf
       0.14596594024436688 -0.33881760592031573
0004c0 88 0b 1e 75 52 4a da 3f c1 98 4e a9 ee 00 d4 3f
       0.4107862609600308 0.3125569013012744
0004d0 9e 8e 6f 36 d7 7e ab 3f 5e 40 3c 23 55 42 a9 3f
       0.05370209254740853 0.0493342023384009
0004e0 9e e1 13 80 39 84 99 3f b1 1f c3 34 2a 71 a6 3f
       0.024918459360351634 0.0438321294219003
0004f0 5c 9c 73 b3 ce 1c b2 3f a5 8b 96 d2 97 3c d6 bf
       0.07075206643240634 -0.3474483067058663
000500 a1 6d d2 bc c2 e7 d6 bf 0c 07 9c f5 e3 5b c3 3f
       -0.3578955501522732 0.15124177448893084
000510 fe d1 0a c6 ec da d1 bf fe d8 3b 03 22 0e d1 3f
       -0.2789871152884017 0.26648760143088157
000520 13 07 23 a8 83 51 d1 3f 4e eb 9f 9e 3f 45 d9 3f
       0.27060023707973463 0.3948515938824827
000530 da a4 1b 10 62 0b c6 3f ff a5 d3 0f ca ef a7 3f
       0.17222238337061563 0.04675132220456745
000540 61 60 41 d9 49 d9 a5 3f 4c b3 ed c6 f6 63 c0 3f
       0.04267340447467017 0.12805065835291385
000550 a6 46 27 01 35 af b8 3f 47 be c9 50 1c 04 cb bf
       0.09642344740066253 -0.21106294579247928
000560 d9 74 a7 c7 5f 33 c0 3f 2c 53 70 55 7d 64 bb 3f
       0.12656781433807998 0.10700209937961053
000570 f4 33 ff b5 c0 cc db bf cf 99 f9 4d 12 ed d7 bf
       -0.4343721177399964 -0.37384469618555455
000580 5e 13 8e b1 e6 ad dc 3f b4 51 01 c8 a4 fd d5 3f
       0.4481140836654073 0.34360618144753663
000590 33 be 25 90 e7 c7 ba 3f 0f d8 7a f1 11 9a bf 3f
       0.10461280125832033 0.12344467301849725
0005a0 b5 2d 85 91 0f eb c8 3f 46 de 99 a6 90 9c c3 bf
       0.19467348676185528 -0.15321548590485373
0005b0 fe 1a a4 64 6b 31 a4 3f 46 d7 cc 69 b5 9f cb 3f
       0.03943954089668543 0.2158114210703223
0005c0 bd aa 82 73 f8 7e b0 bf 9f a8 8a 49 ea bc d8 3f
       -0.06443741626814421 0.38653046781349504
0005d0 72 ed a8 9a 54 e9 cb 3f 18 48 4a ca 22 49 ce bf
       0.21805818130256288 -0.23660693051766724
0005e0 66 48 a3 46 78 83 bc 3f 2c 71 d2 b6 31 81 c5 3f
       0.11138107037121045 0.1680051939664592
0005f0 01 d2 bd 8b 80 88 c9 3f d3 48 1c b5 04 23 d5 bf
       0.1994782144862626 -0.3302623528153507
000600 a9 0c a8 3d a9 44 b0 3f 64 00 32 5a f6 83 d6 bf
       0.06354768519672639 -0.3518043404401452
000610 01 4b 7c 5a 31 b3 b4 3f 82 7c fb 86 aa 5c aa 3f
       0.08085926493758323 0.05148823640569679
000620 63 b6 b4 32 2e 3a c7 bf f3 6a 53 1b b9 03 c2 3f
       -0.18146302677034773 0.1407386191775327
000630 a1 aa f6 f6 e9 26 e3 bf 92 97 ce 32 f7 f4 e0 bf
       -0.5985002349383032 -0.5299030296634888
000640 a5 db 22 b9 a0 3b d2 3f 3c 39 a9 0c 1e a1 b5 3f
       0.28488939361289517 0.08448970612628143
000650 6d 39 c0 57 c2 96 c1 3f 25 5e 56 f9 35 e1 d2 bf
       0.13741330418310885 -0.2949957785544675
000660 8e a7 a6 f9 6f 80 e3 3f 6e c0 85 63 f7 59 e0 3f
       0.6094283939357739 0.5109822219656175
000670 05 57 40 f7 c8 ed c1 3f 06 ad 17 d3 41 9b c2 3f
       0.14006912300890675 0.14536307151079358
000680 32 1d a9 06 00 cf a6 3f ae 59 97 48 ef 34 cb 3f
       0.044548035443364845 0.21255293888561994
000690 27 64 ec 61 41 03 d8 3f 3a 45 2a f7 68 b5 c9 3f
       0.3751986938746676 0.20084869450196569
0006a0 f8 d8 65 84 18 49 c9 3f 26 91 bb 0b d4 bf d6 bf
       0.19754320587862373 -0.3554582705094326
0006b0 2a dd e6 9d 46 bc c5 3f 96 e9 d5 91 8f 9c d6 3f
       0.1698082228665297 0.3533057140517938
0006c0 75 4b d5 6b 6e ff cd bf b8 72 4f 17 2c bb bd 3f
       -0.23435764565746423 0.11613727158642007
0006d0 d1 8c ec 52 4f bf d4 bf 6f 60 1e 69 1a 6d d5 bf
       -0.32417662714051426 -0.33478412881368674
0006e0 12 ae fa 48 75 2e b4 3f c7 3f a4 b1 89 6f b5 3f
       0.07883389503211216 0.08373318278267937
0006f0 9b 1b 2b 1b 17 db cd bf b4 f8 72 32 f8 98 b8 3f
       -0.23324860407430212 0.09608412963550245
000700 79 ce ff 57 12 de d6 3f 89 95 0f f3 30 0c dd 3f
       0.35730417817760657 0.4538690923348772
000710 ca 56 ab 96 9b 2a c4 3f 58 df 34 c0 8a 67 b0 3f
       0.15755028588198733 0.06407992546598729
000720 28 21 11 35 83 b8 bb 3f f7 c7 86 45 43 89 da bf
       0.1082841877515689 -0.4146278552026383
000730 a7 09 0e 3b 3e ba da bf 80 4e 8e 39 89 92 c2 3f
       -0.41761737601350507 0.1450969248804661
000740 8b 1e f8 71 53 c7 bb bf 42 c4 49 82 d0 9f ca 3f
       -0.10851022274447979 0.20800215112424963
000750 4a b4 01 c7 35 90 a8 3f 26 93 d6 c7 ec 01 c8 3f
       0.047975235503010596 0.18755874402736444
000760 e7 0c 2b 0d c8 8c da 3f 1a 4a c5 85 be 1a a5 3f
       0.4148426178546302 0.041219667272020824
000770 2a 21 1e 54 80 ca d1 3f 0e 2c 88 ab 32 4f d1 bf
       0.2779846974813319 -0.2704588580242565
000780 be 55 05 cd dc c6 b8 3f 64 25 d8 fc e9 ba c3 3f
       0.09678440099135963 0.15414166303552712
000790 36 49 95 d1 64 fb cf 3f b8 a7 aa e0 9d 95 d6 bf
       0.24985943063308874 -0.3528818792352655
0007a0 76 e7 26 87 6d 2f a7 bf 8c 35 96 e2 e2 90 d8 bf
       -0.04528372072986901 -0.3838431561242366
0007b0 2b 08 a2 d9 94 04 b5 3f 0b 76 a7 37 cf e6 a3 3f
       0.08210115731529359 0.03887031130191695
0007c0 4f 77 47 8c ab 67 c1 3f c0 5c e8 56 f3 98 d2 3f
       0.1359762606579644 0.29058536040379224
0007d0 ed d1 53 d9 e0 68 c2 3f a0 d4 67 f0 e7 fa b9 3f
       0.14382563220682645 0.10148477191235594
0007e0 76 3b 3f f4 e5 ad b9 3f 30 17 33 1e d9 9f d0 bf
       0.10030972683965253 -0.2597563548009587
0007f0 5c 98 82 ac bd b1 cf 3f 25 3f 94 d4 cd c2 b7 3f
       0.24761172221514272 0.09281622352522996
