trotterization/Order_n6/Cycle_q13/q13_parameters_d.npy (npy, 140632 bytes, 1 tensors)

array f8 [1351, 13]
0.05360101316990779 0.13619632861484474 0.3095093565326509 0.19499108484131983 0.08653886562015288 0.21598872476975395 -0.2281849462208635 0.09583722997247712
0.09348593999051363 -0.28542578793889845 -0.2581772232668275 0.051791816021553416 0.033847597893415224 0.09655343830801243 -0.21920746374054348 0.14574899855392692
0.18911140120910752 0.4015078093460403 0.2628924831954336 0.11020733049698989 -0.37276175236680065 -0.340134957175895 0.15371458122430665 -0.15312476675048742
0.18748015740381233 0.03801274029609619 0.0623826865603733 -0.3112176041801563 -0.29366462419146766 0.08416440409391485 0.12015220340115557 -0.2325323182450838
0.015094701825869361 0.21665170315675697 0.08929849576782371 0.23300290419643482 0.3398497224807283 0.13791469914743665 0.038903025986214194 0.1752809046089722
0.2916521873992868 0.14765037119373647 0.046261078004773415 0.08830700397232838 0.1911402032712895 -0.20666698445888884 0.08311322573301703 0.08094483081926053
0.07196627270898114 -0.25712694324926766 -0.25672413860863724 0.04420198860514822 0.061959289503552326 0.07742349555069568 -0.35633820440336444 -0.34102045370997963
0.3071164226290713 0.0732575092777036 0.0919790250536036 0.11662565043803493 -0.30950731380391144 0.38212840371549706 0.296260478033529 0.06586063750501689
0.034255060210551705 0.06756801336676133 0.11079841458880951 -0.369442238991107 0.3786457227096647 0.29052742794422537 0.09024320491034538 0.061567386106706194
0.09133541607124482 -0.34891374726711627 -0.3391760810465755 0.36698914671767496 0.060925508030928555 0.03893182685843814 0.06860367351668967 0.09846525685599536
-0.2479691988500507 0.457942138694319 0.3683199381901657 0.05670062410640837 0.10554440344356027 0.07769130265344824 -0.44934698455585376 -0.38491016902525926
0.23763440445187675 0.07558669532846099 0.03573791519023866 0.07667840663064002 0.3126444050318362 -0.3685927420433799 -0.407405173758875 0.07289113374427766
0.08948571598480973 0.05613747920632686 0.05147502692986339 0.3387689210878633 0.42426390815927456 -0.3170972859456185 0.12137154888637741 0.049378656086604966
0.0712043475437239 0.2820751827706583 0.37337731858245454 -0.27184818702541425 0.10646632620025566 0.08786019162381535 0.06313442718591662 0.057622507075425856
0.26854079331452363 -0.317239552684971 -0.3566406119490595 0.09029191048932296 0.04515534687334906 -0.13814080077794427 0.08028653272534739 0.15584997611128665
0.1887127891659145 0.40410423515312416 0.5340381056179281 -0.4228879333750826 -0.5266534271671063 0.14248328484282627 -0.22288318025260004 0.10102150586455014
0.11029855201070982 0.09377036008104692 0.27103087732451914 0.4451173856428552 -0.08868244020409659 0.16316188476764548 -0.30819931314436555 0.11252553344131289
0.07457659526108004 0.1253285251123546 0.3000324092165192 0.07821729949196615 -0.31825593268417895 -0.4345140756939464 0.07966125146833501 0.04933420233840069
0.05370209254740832 0.31255690130127417 0.4107862609600306 -0.33881760592031596 0.14596594024436668 0.10798785053090369 0.3365717252181723 -0.3673459853331823
-0.38006610409118735 0.07883972509011967 0.06104817390563402 0.029436823208374 0.042673404474670155 0.04675132220456744 0.17222238337061563 0.3948515938824827
0.27060023707973463 0.26648760143088157 -0.2789871152884017 0.15124177448893084 -0.3578955501522732 -0.3474483067058663 0.07075206643240634 0.04383212942190028
0.02491845936035162 -0.15321548590485368 0.19467348676185534 0.12344467301849729 0.10461280125832037 0.3436061814475367 0.44811408366540734 -0.37384469618555455
-0.43437211773999634 0.10700209937961057 0.12656781433808004 -0.21106294579247922 0.09642344740066258 0.1280506583529139 0.0808592649375832 -0.35180434044014525
0.06354768519672635 -0.33026235281535077 0.19947821448626257 0.16800519396645916 0.11138107037121042 -0.23660693051766726 0.21805818130256285 0.38653046781349504
-0.06443741626814424 0.21581142107032228 0.039439540896685395 0.1453630715107937 0.14006912300890687 0.5109822219656176 0.609428393935774 -0.29499577855446746
0.13741330418310896 0.08448970612628154 0.2848893936128952 -0.5299030296634887 -0.5985002349383031 0.1407386191775328 -0.18146302677034762 0.051488236405696886
0.0788338950321122 -0.3347841288136867 -0.3241766271405142 0.11613727158642011 -0.2343576456574642 0.35330571405179384 0.16980822286652975 -0.3554582705094325
0.19754320587862378 0.20084869450196574 0.37519869387466764 0.21255293888561996 0.044548035443364886 0.2080021511242497 -0.10851022274447972 0.1450969248804662
-0.417617376013505 -0.41462785520263823 0.10828418775156895 0.06407992546598734 0.15755028588198738 0.45386909233487727 0.3573041781776066 0.09608412963550253
-0.23324860407430206 0.08373318278267944 0.08210115731529367 -0.38384315612423653 -0.04528372072986893 -0.35288187923526537 0.2498594306330888 0.1541416630355272
0.09678440099135971 -0.2704588580242564 0.277984697481332 0.04121966727202091 0.41484261785463034 0.1875587440273645 0.04797523550301068 0.04932425542228302
-0.2645544666002875 -0.23122197907423853 0.054728535990320765 0.09281622352522984 0.24761172221514258 -0.2597563548009588 0.1003097268396524 0.10148477191235582
00000000: b9c6 318d 9771 ab3f 2336 9e9c e16e c13f
00000010: 8247 0755 00cf d33f 06d8 33c6 77f5 c83f
00000020: 1fe7 ab3d 6927 b63f 646d 98be 84a5 cb3f
00000030: eca3 ba10 2a35 cdbf c894 78e8 c988 b83f
00000040: 9c23 e5ce b1ee b73f 857c 2886 6a44 d2bf
00000050: 0733 a0c2 f985 d0bf a8aa 06f8 7484 aa3f
00000060: 6631 00ec 7854 a13f 8f69 d9e3 b9b7 b83f
00000070: b901 e77b fd0e ccbf 0260 1b37 e7a7 c23f
00000080: 8836 bf69 cd34 c83f cdb5 8ecf 4db2 d93f
00000090: 4d12 6cfe 3ad3 d03f cc97 4330 8c36 bc3f
000000a0: 225d e71b 54db d7bf 41ff 5269 c5c4 d5bf
000000b0: fa6b a35d ebac c33f 0a53 b3a4 9799 c3bf
000000c0: 1962 598c 59ff c73f c85f cee8 6776 a33f
000000d0: 7512 3a9d 9ff0 af3f ea2a f93d fdea d3bf
000000e0: 3a3f 39b5 66cb d2bf ec18 1263 cc8b b53f
000000f0: 447a 2678 4bc2 be3f e816 1077 9ec3 cdbf
00000100: 00d7 7a95 f8e9 8e3f 102a d735 3ebb cb3f
00000110: cba0 e726 44dc b63f 5ac7 b206 0ad3 cd3f
00000120: 7a00 e70c 19c0 d53f eeea 3c59 30a7 c13f
00000130: 5f07 a7f0 18eb a33f 9554 74cc 9a6f c63f
00000140: 88f4 abef 6daa d23f 587a c215 35e6 c23f
00000150: e066 3732 88af a73f f0a2 11ae 499b b63f
00000160: 2220 003d 4877 c83f 9ff9 b451 1074 cabf
00000170: 776c 638a e846 b53f 5923 26e9 ccb8 b43f
00000180: 2f39 b3b3 616c b23f 7244 0b91 c474 d0bf
00000190: 59be da14 2b6e d0bf 8e5d f49e a4a1 a63f
000001a0: 5eca 33c4 20b9 af3f a50d 55b5 06d2 b33f
000001b0: 7f94 8ec1 3ece d6bf 77e4 fc73 47d3 d5bf
000001c0: 7568 d0a3 cba7 d33f 49be 880e 01c1 b23f
000001d0: ebef 85f8 ef8b b73f fd8e 81ba 2ddb bd3f
000001e0: 6b47 aac3 f7ce d3bf ec2a 35b1 ca74 d83f
000001f0: d915 1082 eef5 d23f 9681 2d24 3edc b03f
00000200: 5256 a716 e189 a13f 707a aa27 234c b13f
00000210: c48a 1bef 485d bc3f 9d94 8e0f f1a4 d7bf
00000220: 18bb f344 bb3b d83f e821 675a 0098 d23f
00000230: 6cb2 c6bd 2d1a b73f 2f32 a8ab c285 af3f
00000240: b617 fe00 c261 b73f d1c5 6853 9a54 d6bf
00000250: 1a8d eb97 0fb5 d5bf 45eb c80b c07c d73f
00000260: 0055 f8d0 a031 af3f 56d4 4256 dfee a33f
00000270: acbf 23a6 0290 b13f 0e1e fde1 0435 b93f
00000280: 06f7 bc67 74bd cfbf dcc0 498b ec4e dd3f
00000290: c974 3fca 8d92 d73f ea4d 663c dd07 ad3f
000002a0: 35e0 1041 f504 bb3f df87 14c4 93e3 b33f
000002b0: 9c4f ceda 19c2 dcbf e11f f742 5ea2 d8bf
000002c0: 4f3b c3dd cd6a ce3f 02ce 7250 a659 b33f
000002d0: a747 f071 3d4c a23f 9cb9 c930 32a1 b33f
000002e0: 40e7 b8ad 5d02 d43f 4ca2 2703 0697 d7bf
000002f0: 07ff 6026 ed12 dabf de9b 994b fea8 b23f
00000300: b228 9d2f 89e8 b63f 94c7 8a3a 0dbe ac3f
00000310: 60ef 724a ef5a aa3f 184f 3ed7 63ae d53f
00000320: edb3 9ace 2327 db3f cc5a 326a 524b d4bf
00000330: 54c1 21b1 3412 bf3f 4059 06c2 2848 a93f
00000340: 2487 08b8 723a b23f 45d8 4011 850d d23f
00000350: e54e 18fb 69e5 d73f 2211 30f0 f565 d1bf
00000360: 11c6 278d 6041 bb3f 3303 a569 017e b63f
00000370: 7de4 03ec 9329 b03f 3512 ce7e b280 ad3f
00000380: a860 3bb9 c52f d13f 49e5 f11f a74d d4bf
00000390: e8c8 2f25 33d3 d6bf d11e a5e2 5e1d b73f
000003a0: 0a03 1f04 9a1e a73f 9ed1 ca06 99ae c1bf
000003b0: 7a56 5d80 a88d b43f 5a7c 3d5b e4f2 c33f
000003c0: 5cfb e69c bd27 c83f c518 8a02 d8dc d93f
000003d0: 254c ce14 d716 e13f 3504 ee8c 9810 dbbf
000003e0: 0d4a c049 58da e0bf 2534 506c e43c c23f
000003f0: c5b6 01a1 6f87 ccbf a683 e19f 8bdc b93f
00000400: a0a1 aea1 863c bc3f 82da e195 5501 b83f
00000410: ec28 94e4 9158 d13f b0e4 8da1 cd7c dc3f
00000420: 3bf4 6774 e4b3 b6bf e0ef 8317 7de2 c43f
00000430: 9eb3 a69c 89b9 d3bf b06b 182e 79ce bc3f
00000440: 8680 b1a5 7317 b33f 7086 4ede c30a c03f
00000450: 70cd 5422 bb33 d33f 94a7 4c87 0c06 b43f
00000460: d8bc a821 4e5e d4bf 7275 3020 14cf dbbf
00000470: 4f9f d005 ae64 b43f 4040 3c23 5542 a93f
00000480: 808e 6f36 d77e ab3f bd98 4ea9 ee00 d43f
00000490: 850b 1e75 524a da3f 4a27 2f0a 30af d5bf
000004a0: 0ff8 d60d 03af c23f eb43 657e 17a5 bb3f
000004b0: 9780 2422 648a d53f 9eaa 54bc 9882 d7bf
000004c0: 2ef2 d8c7 0053 d8bf f53f e318 d72e b43f
000004d0: d478 cfcc b441 af3f 1493 e9c3 af24 9e3f
000004e0: 5f60 41d9 49d9 a53f fda5 d30f caef a73f
000004f0: daa4 1b10 620b c63f 4eeb 9f9e 3f45 d93f
00000500: 1307 23a8 8351 d13f fed8 3b03 220e d13f
00000510: fed1 0ac6 ecda d1bf 0c07 9cf5 e35b c33f
00000520: a16d d2bc c2e7 d6bf a58b 96d2 973c d6bf
00000530: 5c9c 73b3 ce1c b23f af1f c334 2a71 a63f
00000540: 9ae1 1380 3984 993f 44de 99a6 909c c3bf
00000550: b72d 8591 0feb c83f 12d8 7af1 119a bf3f
00000560: 36be 2590 e7c7 ba3f b551 01c8 a4fd d53f
00000570: 5f13 8eb1 e6ad dc3f cf99 f94d 12ed d7bf
00000580: f333 ffb5 c0cc dbbf 2f53 7055 7d64 bb3f
00000590: db74 a7c7 5f33 c03f 45be c950 1c04 cbbf
000005a0: aa46 2701 35af b83f 4eb3 edc6 f663 c03f
000005b0: ff4a 7c5a 31b3 b43f 6500 325a f683 d6bf
000005c0: a60c a83d a944 b03f d448 1cb5 0423 d5bf
000005d0: 00d2 bd8b 8088 c93f 2b71 d2b6 3181 c53f
000005e0: 6448 a346 7883 bc3f 1948 4aca 2249 cebf
000005f0: 71ed a89a 54e9 cb3f 9fa8 8a49 eabc d83f
00000600: bfaa 8273 f87e b0bf 45d7 cc69 b59f cb3f
00000610: f91a a464 6b31 a43f 0aad 17d3 419b c23f
00000620: 0957 40f7 c8ed c13f 6fc0 8563 f759 e03f
00000630: 8fa7 a6f9 6f80 e33f 245e 56f9 35e1 d2bf
00000640: 7139 c057 c296 c13f 4439 a90c 1ea1 b53f
00000650: a6db 22b9 a03b d23f 9197 ce32 f7f4 e0bf
00000660: a0aa f6f6 e926 e3bf f76a 531b b903 c23f
00000670: 5fb6 b432 2e3a c7bf 907c fb86 aa5c aa3f
00000680: 15ae fa48 752e b43f 6e60 1e69 1a6d d5bf
00000690: d08c ec52 4fbf d4bf bb72 4f17 2cbb bd3f
000006a0: 744b d56b 6eff cdbf 97e9 d591 8f9c d63f
000006b0: 2cdd e69d 46bc c53f 2591 bb0b d4bf d6bf
000006c0: fad8 6584 1849 c93f 3c45 2af7 68b5 c93f
000006d0: 2864 ec61 4103 d83f af59 9748 ef34 cb3f
000006e0: 381d a906 00cf a63f 44c4 4982 d09f ca3f
000006f0: 861e f871 53c7 bbbf 834e 8e39 8992 c23f
00000700: a609 0e3b 3eba dabf f6c7 8645 4389 dabf
00000710: 2c21 1135 83b8 bb3f 5cdf 34c0 8a67 b03f
00000720: cc56 ab96 9b2a c43f 8a95 0ff3 300c dd3f
00000730: 7ace ff57 12de d63f baf8 7232 f898 b83f
00000740: 991b 2b1b 17db cdbf cc3f a4b1 896f b53f
00000750: 3108 a2d9 9404 b53f 8b35 96e2 e290 d8bf
00000760: 6ae7 2687 6d2f a7bf b6a7 aae0 9d95 d6bf
00000770: 3849 95d1 64fb cf3f 6725 d8fc e9ba c33f
00000780: c455 05cd dcc6 b83f 0c2c 88ab 324f d1bf
00000790: 2b21 1e54 80ca d13f 264a c585 be1a a53f
000007a0: e90c 2b0d c88c da3f 2893 d6c7 ec01 c83f
000007b0: 56b4 01c7 3590 a83f 1f63 e05f 0741 a93f
000007c0: fcc5 83db 75ee d0bf 8ac0 1e8b ae98 cdbf
000007d0: ac07 79f0 6005 ac3f 1c3f 94d4 cdc2 b73f
000007e0: 5798 82ac bdb1 cf3f 3217 331e d99f d0bf
000007f0: 6d3b 3ff4 e5ad b93f 97d4 67f0 e7fa b93f
