trotterization/Order_n6/Cycle_q13/q13_parameters_b.npy (npy, 75784 bytes, 1 tensors)

array f8 [1351, 7]
0	0xbfdd352a10baa3ec	-0.456369892441727
1	0x3fe3f4f4d96a5be4	0.6236519094844621
2	0x3fd70b0d8648855d	0.360049611221333
3	0xbfc726ba8c3a4208	-0.18086940619515723
4	0x3fba48349338a3d8	0.10266426653164673
5	0x3fd80ffeda9fe0cd	0.3759762892727963
6	0x3fc663083c98fc0f	0.17489722212664602
7	0x3fcc368c304397cf	0.22041466099397986
8	0xbfcc206475ed2b4d	-0.21973853834273385
9	0x3fbf6c4331ddb471	0.12274570434029088
10	0x3fe5f0dc63b15143	0.6856519648668286
11	0xbf8e360db2fe6092	-0.014751536393120799
12	0xbfb03e8fbe367e72	-0.06345461267346211
13	0x3fd13976ec204cbd	0.26913235720821743
14	0x3f9ee9f8957ad704	0.030189403651738736
15	0xbfa0430209c766c4	-0.03176123017665369
16	0x3fdacf47cf870d88	0.4189013983379586
17	0x3fe44c781c1de9e8	0.6343346165806993
18	0x3fb7a592bd6e0a02	0.09237019657852133
19	0xbfd62eca22b56ae5	-0.3466058100654393
20	0x3fc9eddc46f08ceb	0.20257142509317502
21	0xbfda741051b4f99f	-0.4133339689177777
22	0x3fe18d5e4118eb2f	0.5485068580086131
23	0x3fd5aa0b4b9be325	0.33850366958317785
24	0x3fce4425ccceeca0	0.23645470142750913
25	0xbfcc06a818a81d17	-0.21895314411106234
26	0x3fb1e216d689b17a	0.0698560975812991
27	0x3fdc1803f4316bf9	0.43896578642824086
28	0x3fc78beff885efe8	0.18395805010720712
29	0x3fd84e17648526a0	0.3797663194314769
30	0xbf73960fecef7bcf	-0.0047817823496804765
31	0x3fb50c19e9c23398	0.08221590001103463
32	0xbfbec281fbf3f53c	-0.12015545273967104
33	0x3fd257226cc1479b	0.286568266111425
34	0x3fc8a180ed6d9053	0.19242869942820792
35	0x3fbf85c2aba8322e	0.12313477221341237
36	0x3fd73df7df626510	0.36315724196318033
37	0xbfbde4cfc80d1f4a	-0.11677263864578183
38	0x3fb4355d68416feb	0.07893928332617832
39	0xbf741881e2d4ac2a	-0.004906184546864126
40	0x3fd5fb0cabcbdaa1	0.3434478452394761
41	0x3fcb4392d2cbe499	0.21299968045039888
42	0x3fcb04f54110e039	0.21108880688712064
43	0x3fd133c13123d76e	0.26878385351971346
44	0xbfc4be30423b6b42	-0.1620540927313759
45	0x3fc2b239214a83f3	0.14606393933811965
46	0xbf952a689f9bbb33	-0.02066958879634768
47	0x3fd647559937f60c	0.3481039043689129
48	0x3fcab6215f1be387	0.20868317741385686
49	0x3fbcbe0d3a8ac78c	0.11227495841265361
50	0x3fd20b006a6b502d	0.281921485829346
51	0x3fea58a36a24b60e	0.8233201096642817
52	0x3fa1436a839b4e48	0.0337174688007989
53	0xbff5f12c36acfe8d	-1.371380055977997
54	0x3febc6eada015793	0.868031907836427
55	0x3fd022a348e6731a	0.25211412543448974
56	0x3fc02993ec03e477	0.12626885437183308
57	0x3fd29f2d54860621	0.2909653973984821
58	0x3fe8001ddc855229	0.7500142390295582
59	0xbff2d9ce8810fb37	-1.1781754794207708
60	0x3fa1236d5e885fa5	0.0334734132667898
61	0x3fe7d4dcc9ea1ff6	0.7447341865199621
62	0x3fcdc9bfba18089e	0.2327193888341456
63	0xbfeb10988cee0436	-0.8457758667501654
64	0x3f8e3f6587010b35	0.014769356901643252
65	0x3ff17da51c59196b	1.0931750399919007
66	0xbfb17ec8106aedb1	-0.06834078217337126
67	0x3fe0709515971f15	0.5137429639516734
68	0x3fd865179105fc0a	0.38117016947211424
69	0xbfb6b7b8ef679181	-0.0887408813937949
70	0x3fc31773a5b18085	0.14915319052216006
71	0x3fde7200755abc47	0.4757081171073349
72	0xbf90b9cf4a3cc5c3	-0.016333807855692727
73	0x3fdee5835b2a43a9	0.4827583685192232
74	0xbfea0b473ec2b9e7	-0.8138767457765511
75	0x3f95b7302bade7a1	0.021206619897817473
76	0x3fe671bd660850bf	0.7013842575857082
77	0x3fcba5177e6543f3	0.2159757010618076
78	0x3feee1e5a90ffca2	0.9650753309250784
79	0xbff698e46341e8f2	-1.412327182506996
80	0x3faf751ad45195ab	0.061440313737686957
81	0x3fe90ca46f8768be	0.7827932527827881
82	0x3fcd6046019f83b9	0.2295005329060851
83	0x3fc42a56829884f4	0.1575420510935498
84	0xbfe1daecc60ad1fe	-0.5579742305768034
85	0x3feabc13fe09dc84	0.8354587518396248
86	0xbfc658fc52bd9a39	-0.17459062614507717
87	0x3fb8453e604afd46	0.09480657435323278
88	0x3fdf19c969d57308	0.4859488996060439
89	0x3fc7307a224b62d7	0.18116690325293547
90	0x3fc14db34ca5a897	0.13518372767004358
91	0xbfe7ed124df999cf	-0.7476893923711091
92	0x3f9c24bf71dbed5e	0.027483931850821867
93	0x3fecd6c41d5d6680	0.9012165616542944
94	0x3fdd97538fba53f4	0.4623612311928007
95	0xbfc66e26b018a47c	-0.17523654554796397
96	0x3fe2a155090c6885	0.5821938683250357
97	0xbfa9c4cefd6157c0	-0.050329655103879656
98	0x3fcc837846a34865	0.22276214074242087
99	0xbfc18fe226efadda	-0.13720347310241615
100	0x3feab8ea93335fb9	0.8350727915776509
101	0x3fbccf2ca372fe5c	0.1125362299962886
102	0xbf5d279aed4f0b52	-0.001779462142835715
103	0xbfd168374a972983	-0.2719858387396458
104	0x3fcecbe70cce587e	0.24059761166853727
105	0x3fc5a11e0ca93940	0.16897941225256297
106	0x3feb0701e502f85d	0.8446053955920082
107	0xbffa65922f79c6a4	-1.6497976164359125
108	0x3f966180abff3b66	0.021856317994941497
109	0x3ff4dae5aa5a9b2c	1.3034416822863006
110	0xbfb53194edd17d67	-0.08278780752288172
111	0x3fd9326c74d68c2a	0.39370261583298094
112	0x3fd5bc469de6dd2b	0.33961644573305944
113	0xbf71a23cf2d3c7a0	-0.0043051129152774925
114	0xbfb2d9579dbdc9ed	-0.0736288795576809
115	0x3fe4497f8168ff4c	0.6339719321767716
116	0x3fba1f9077febab7	0.10204413346830675
117	0xbfcf4a8b134ace5e	-0.24446237985613356
118	0x3fcf95f54c4f3cae	0.2467638609509541
119	0x3fc0678ac034df5a	0.12815985093197463
120	0x3fe1036e9899f3b0	0.5316689472671126
121	0x3fb4176d6c466c97	0.07848247426447795
122	0xbfbee15f1871d967	-0.12062639567179688
123	0x3fdedf0552c7cadd	0.48236210903193727
124	0xbfe5df606a13956f	-0.6835176536375637
125	0x3fe2abcaad8df214	0.5834706678138581
126	0x3fc8c6dccd0555c1	0.19356880198271934
127	0xbfcdc6f6b4706568	-0.23263438997745856
128	0x3ff0e4195e7462e3	1.0556882562288414
129	0xbfe3f2460ff1fe73	-0.6233244239264891
130	0x3fe7a6da5c462ffa	0.7391177942495226
131	0xbfd91fd8fd55d7f0	-0.39256882419374417
132	0x3fd0a657de91712b	0.26015278563660854
133	0xbfe09fd91e331731	-0.5195127096019175
134	0x3fe6445853511b09	0.6958428981095902
135	0x3fd8dedae27e09de	0.38860199087517155
136	0x3fd96a39157213d8	0.39710833639429444
137	0x3fbe64e08ac7e3da	0.11872676265910745
138	0xbfd075402ac014a9	-0.25715641188464616
139	0x3fc693eb4bc3ec95	0.17638913344839993
140	0x3fc91617af20ba77	0.19598671008266752
141	0x3fe62cf86f99670b	0.6929895572349961
142	0xbfeb63f262b4de78	-0.8559505393850051
143	0x3fee67815ac141f4	0.950134923225106
144	0x3fa892dfaa2f9bf4	0.04799555733170982
145	0xbfd2dce327a60e26	-0.294731892318142
146	0x3fd0de6c8b84285d	0.26357568382866764
147	0xbfede17b0f969699	-0.9337745003183101
148	0x3f97a12c6638b5b8	0.023075765360933892
149	0x3ff27bb1f63fd7af	1.1551990145794482
150	0x3fd52b56da20affc	0.3307702188637902
151	0xbfa598aabc361ea8	-0.042180381274247225
152	0x3fd1cc76a069e791	0.27810445466422445
153	0x3fc82ac6b98cdec5	0.1888054281241606
154	0xbfdef135064a300e	-0.48347211469877116
155	0x3fe6d131eaf73439	0.7130364979908627
156	0xbfb38b3f3e74bb0d	-0.07634349131397418
157	0x3f6ba1da027419fc	0.003373075294464954
158	0x3fe0dace946bf667	0.5267098330366026
159	0x3fda896afa2c6e92	0.4146373217679208
160	0xbfb912ab5c4134d3	-0.09794112207710563
161	0x3fd69e8fcfe50a4f	0.3534278421613281
162	0xbf77109cc6ea3efe	-0.005631077203943622
163	0x3fc3b86463ef31d8	0.15406470183951515
164	0xbfcab9ed0c33ec5b	-0.20879901023713185
165	0x3fe594acb1270c1a	0.6743987522135086
166	0xbfc864432c5c8122	-0.1905597654922611
167	0x3fcc8e7e56724894	0.2230985567189846
168	0xbfefc3ccd5ab0ea0	-0.9926513837057946
169	0x3f9d3f4369b49f60	0.028561642958407574
170	0x3ff30a206d180802	1.1899723302344687
171	0x3fd4ed6478a06a18	0.3269892862314534
172	0x3fcde727b12d2d79	0.23361679221339296
173	0xbfb00e8b43844e6b	-0.0627219238124838
174	0x3fd1adce4004c609	0.27623325588055586
175	0xbfdac296ebeff79a	-0.41812680283316583
176	0x3fe529f941f8a880	0.6613737381460538
177	0xbfc298e92f7dc907	-0.1452914697543479
178	0x3feabb7f8bc64eab	0.835387967107143
179	0x3faf87b9266e50ff	0.06158236116530879
180	0xbfceb9b9291bdbb5	-0.2400428248144785
181	0x3fcf5ffeafe22304	0.24511703098348658
182	0xbff22d3cc290849d	-1.1360442733933163
183	0x3f9fcd18fe3acff0	0.031055822865440008
184	0x3ff5999a1ec8bb30	1.350000496149459
185	0x3fda2de552fd874c	0.4090512571766467
186	0x3fe09e4585392b2d	0.5193202592866776
187	0xbfec267715349145	-0.8796954549948529
188	0x3fe69a1b661a5ecd	0.706311892909946
189	0x3fb21fadba767ffe	0.07079587747875846
190	0xbfa90c0ac461a381	-0.04891999861940289
191	0x3fdedfcd29253a20	0.4824097539721226
192	0x3ff23a590a324718	1.1392450712487001
193	0xbfe11e349a774909	-0.5349371926224943
194	0xbfd2f925a511fad5	-0.29645672912731175
195	0x3fc80be6e40195ab	0.18786321766962763
196	0x3fc984ac6337455b	0.1993613705113074
197	0x3fe84d310e6933e9	0.759422805925735
198	0x3f8f4b3957300cf6	0.015280197118050936
199	0xbfd98ecafb5f678d	-0.3993403868495243
200	0xbfe504c87fabe68e	-0.6568338864883161
201	0x3fea1dbb04b80e30	0.816129216400844
202	0x3fd105d3d81f8d62	0.26598068338190306
203	0xbfde4cc1dcc2aee2	-0.47343489225998614
204	0x3fe822e26c44c538	0.7542583574888004
205	0xbfd5dd3f62a6d1c4	-0.34162888177823114
206	0x3fb2616dd25a3029	0.07179914842180381
207	0x3ff1dcf7c0bfd901	1.1164472131036407
208	0xbfd5974b78a2a6c7	-0.3373593023376142
209	0x3fcade9acfd959e1	0.20991835736158662
210	0x3fb524d46b256063	0.08259322753781499
211	0xbfafbae4425f18bf	-0.06197274503897309
212	0x3fd7102feb65eb97	0.3603629874048066
213	0x3fd7835c58aad1f4	0.3673926225558539
214	0x3fe9ef86aab562bd	0.8104890188361292
215	0xbfd9c57419ae5e6d	-0.40267660625384033
216	0xbfc3fdfc24953334	-0.15618850504179138
217	0xbfdb23bb5617dbdc	-0.4240558949235813
218	0x3fe1ae315a38b7f3	0.5525137674464972
219	0x3fdf399b056d95c0	0.4878909638412914
220	0xbfd7fec434ab6480	-0.37492470878130035
221	0x3f9f4fc8b6d0a5fa	0.030577789457458572
222	0x3fe9d6eb6d641481	0.8074853073636775
223	0xbfb459465543e2ad	-0.07948722440404295
224	0xbfe347650d222df3	-0.602465177203554
225	0x3fec15ae372474ba	0.8776465489387626
226	0xbfc7f86d86503fef	-0.18726891573214696
227	0x3fbce6573f0ee0cf	0.11288972177033262
228	0x3fe14e76dd8a4a01	0.5408281638104314
229	0xbfa1b20d7bbe45e3	-0.034561559062364265
230	0x3fd2bf6293c30ef0	0.29293121747853856
231	0x3f564f1379f2334f	0.0013616266440152518
232	0xbf9b841ea5555d16	-0.026871184197571805
233	0x3feb8ac34021f7d9	0.86068880582729
234	0x3fb54011bbb5da2e	0.08300886948368522
235	0xbfd60eb1f91acecd	-0.3446469242728483
236	0x3fd014ffcac99fa6	0.25128168872333345
237	0x3fc66c342bf65912	0.17517711779209627
238	0x3fc8c40786ad7a82	0.193482342491695
239	0xbfdf9c9c59c74d62	-0.49393376128610644
240	0xbfca3a674c1fbc58	-0.2049073335360585
241	0x3ff748d2c7c3e9bb	1.4552791407901242
242	0x3f8d6e2a852b029b	0.014370281399693588
243	0xbfcc8877ca01fad1	-0.22291467059763773
244	0x3fd08d4bae486cb4	0.25862400073828984
245	0x3fd25ee77009cf6f	0.28704248372309044
246	0x3ff34918e38c8613	1.2053460014943809
247	0xbfeb13f548c7a871	-0.8461862966044135
248	0xbf7347a65cfcb937	-0.004707002502796257
249	0xbfc44fc5adb1bc88	-0.15868445378461993
250	0x3fd3bc800f16141a	0.3083801410032848
251	0x3fcaba41e9144c6e	0.2088091266710736
252	0xbfe12a77d91ca5c1	-0.5364341011492614
253	0x3fe71db34816cd57	0.7223755271901763
254	0x3fdc4bb365988136	0.4421204082627982
255	0x3fe5abb62aed9199	0.6772108877599293
