trotterization/Order_n6/Cycle_q12/q12_parameters_b.npy (npy, 57008 bytes, 1 tensors)

array f8 [1185, 6]
-0.022662682227784177 0.3803338867730661 0.6235412996567373 0.059910626136304906 -0.2575912498996895 0.21646811956136533 0.4404941474247977 -0.12517536846290805
0.0917419403453059 -0.010030831503355533 0.35855259926750227 0.2444175129286577 0.5278291066266418 -0.006593492542920543 0.0900889800522969 -0.13446160920264272
0.2955837625176985 0.227553252548926 -0.026286540852291235 0.8519190078257658 0.08177499848484886 -0.3360478969477692 0.2533798411762185 0.17526059031322727
0.3550311394318729 0.8248157383418797 -1.2861640413495188 0.03484471491370203 0.822328668457111 0.24914378020495317 0.3353374557488044 0.8822789977071075
0.05743126235831412 -1.6313000592332505 1.094157219616902 0.26209512380212224 -0.43542421734140624 0.6788376677204898 0.43437551860090995 -0.15019143372062463
0.045074058514770116 0.427328406225861 0.5960258458368534 -0.0320042693015264 0.5029708052388904 -0.8522931721692397 0.02825281180669909 0.7570479785883232
0.6333035020039222 0.0791728288778422 -0.13352597099233887 0.5121931047384104 -0.7290512266435182 0.6379077620156823 0.1402847991830255 -0.15844092762330134
0.4656998991295487 0.4845089100796138 -0.13964924859792707 0.20759656782904046 0.10757965661923205 -0.12431243265783938 0.39823117272245256 0.3604258318886402
0.3271794827399005 -0.06910371131238592 0.38570785004233404 0.0018596766252701982 0.8984755932444489 -1.0689353335156198 0.47517724161993646 0.30771497198363007
-0.6592115578931691 0.9631828584273717 -0.22762994539094947 0.11831022459328942 0.5911610904519589 0.21418732981149854 0.5987824684172215 -0.006255093683045783
-1.6348879592490448 1.5056717658521832 0.2847072449737886 0.2519815736888973 -0.020299555044628784 0.40492645163698926 0.3506542828835089 -0.2021510946366925
0.04743300036483067 0.41943691479599243 -0.027794305351656164 0.810687511025835 -0.0014893741090359414 0.1355321896837593 -0.23778662565413633 0.32085060440523405
-0.3594272564791299 0.6728630017567139 0.40735098169872236 0.0038592029144827824 -0.058971604235995644 0.33432567434520655 1.2055106658184436 -1.8194935602173936
0.04944093654717565 1.2059571767533428 -0.08412478938207281 0.44270957048050447 -0.03811606636810391 0.755809262926132 0.14959123069149896 -0.2212044104418023
-0.035172706062087736 0.3890926892543629 -0.05295512558717231 0.3120735841029855 0.46411094338306974 0.31011161330757764 0.19961027981167664 -0.23295129501813727
0.22455767011773523 -0.24742585091814948 0.8351188996798933 -0.2806900651676787 0.2716615478764386 0.19677779841176107 -0.6255403570670416 0.3302322218238067
1.209088254695536 -0.24944203964865028 0.046014340202816376 0.2896475799935329 -0.6449428876170161 0.007175044495419963 0.9574437887154398 0.4117577477702217
-0.07565182140914117 0.3442181280450759 -0.0676276035718364 0.2842241462429234 0.42963072738001196 0.7434665039650197 0.03822881421718987 -0.4279225882333085
0.5829852340544128 -0.026728276625102947 -0.3172607335135039 0.7062125328839499 -0.6377732085916049 0.692564451791849 -0.12212343536236263 1.104065913132675
0.23928975310481837 -0.6480125169998296 0.1283232239365337 0.2984570621881651 -0.033449684996815464 0.7419251827932055 -1.4964371715772968 1.2884802971012852
0.3008473123930513 0.19863406428657032 -0.1482271572820787 1.115005524435199 -0.40764727917425647 0.7070864245378621 -0.5642336709999825 0.2980161584832564
-0.029518252466716313 0.8396194305971976 0.11503636874532384 -0.27883244410915503 0.5373212561984435 -0.1836263589650936 -0.5606968203669309 0.8936110237459368
0.39965361322306736 -0.17457331639972606 0.0021045565960034706 0.43990094320164935 -0.03965559327121438 0.3822492494391461 0.4352065103748237 0.24294641518241525
-1.638934543077409 1.6181879613522383 0.13319003810052388 -0.21458244463434858 1.1251488237964993 0.18636511174296125 -0.5277612488177446 0.2976397198121087
-0.10573469771540456 -0.023902031998582825 1.0705918592899966 0.09066230051009486 -0.3397593993659426 0.3081419692798385 0.14239901385763357 -0.7117558464570446
0.1879006445921126 1.3590251920819056 -0.26699082172780225 0.2894218176531951 -0.3558187982125428 0.33509412642949643 0.9655159532835422 0.09112718198767719
-0.3535782143120904 0.31765975082391734 0.01893603170864904 -0.060830207858259634 1.0799816230455008 0.10080099619555156 -0.44580614471885543 0.3069177016274135
-0.5892213995494449 0.9339589330950294 -0.025309153677201938 0.009253081977401207 0.4439577164330938 0.22736082172112237 -0.05351779840923219 -0.03039760133743117
1.0375935803069483 0.10008083863952136 -0.3636876820825008 0.30992866288269455 -0.3172078539486726 -0.13272662541100938 1.3595831564626537 0.02900877858058431
-0.23674278879735605 0.29808533311380003 1.0568941597340298 -1.135746229836696 0.9967592512507 0.041186374523701004 -0.2683649110054801 0.3092713553337456
-0.45932333296129196 0.8047841860218521 0.0014191838217082649 0.4080579345820223 -0.09899344672799344 0.3440554752637028 -0.03748191289376831 0.4309050170804893
0.44269599177388164 -1.4748924149046039 1.4227843360632104 0.2159889828807908 0.8906878272634094 -0.5048507968082656 -0.42885749199942924 0.7258933551997186
00000000: 322a 08dc e234 97bf 840e 50f1 6357 d83f
00000010: 8a64 37e2 0cf4 e33f 7c6a e007 9bac ae3f
00000020: f883 8302 607c d0bf 6743 1233 3ab5 cb3f
00000030: cd35 515d 0e31 dc3f 6a0e e818 bf05 c0bf
00000040: 5f65 7459 667c b73f 1b9c 116a 0b8b 84bf
00000050: 58fb ef99 86f2 d63f 3293 4cb4 1249 cf3f
00000060: 8cd3 dadd f9e3 e03f 1a87 692d c701 7bbf
00000070: 06fb 0d47 1210 b73f 98e3 0bbb 0936 c1bf
00000080: 517f 4f28 d8ea d23f 7ce5 e508 7720 cd3f
00000090: 8869 24e5 dbea 9abf 537a aea6 eb42 eb3f
000000a0: c374 1fd0 34ef b43f 91ef d109 cf81 d5bf
000000b0: 7452 d414 6037 d03f bc23 d663 f06e c63f
000000c0: 06fa 3a87 d4b8 d63f 64f1 acf9 e364 ea3f
000000d0: b032 eebe 2094 f4bf 744f fc9d 2ad7 a13f
000000e0: c2c4 3236 8450 ea3f ffb4 fd81 f1e3 cf3f
000000f0: 5728 643b 2b76 d53f a030 232a a13b ec3f
00000100: 15a4 3163 a167 ad3f 2fea 4517 ce19 fabf
00000110: 7afd 2e00 ab81 f13f b7f4 4aa0 2ac6 d03f
00000120: fc88 5789 fddd dbbf 9de0 c4c5 09b9 e53f
00000130: 90bb a4f9 cecc db3f 6d16 fc0f 7939 c3bf
00000140: 5417 706e f213 a73f 7e14 593e 5959 db3f
00000150: ab14 6ecb a412 e33f 6a01 f713 dd62 a0bf
00000160: 9200 eb3a 5618 e03f 7c45 a254 fc45 ebbf
00000170: b154 eb1a 4eee 9c3f af45 b1ae bc39 e83f
00000180: 5c92 b1b4 0544 e43f 631b c3a6 ab44 b43f
00000190: 2814 4a07 6117 c1bf 55d2 42cb e263 e03f
000001a0: ef5c f13c 6354 e7bf dc19 f789 bd69 e43f
000001b0: 94fa 4e30 daf4 c13f bdb7 3ed5 ca47 c4bf
000001c0: 24c3 20f3 06ce dd3f 2767 daa8 3102 df3f
000001d0: 11cd d1cd 06e0 c1bf a435 cb3a 8692 ca3f
000001e0: b6fe e422 578a bb3f 556a c088 f0d2 bfbf
000001f0: 64cd c599 9e7c d93f 7419 2682 3711 d73f
00000200: 7e90 9236 82f0 d43f b971 1ee4 c7b0 b1bf
00000210: cb81 6ffa 6faf d83f f2d1 5892 0c78 5e3f
00000220: c3a6 27e3 4fc0 ec3f a6d0 afef 5b1a f1bf
00000230: 58e9 23ce 4d69 de3f 1c31 4a23 9ab1 d33f
00000240: e17b 49d6 4218 e5bf 716d a0db 64d2 ee3f
00000250: b3ae 8561 fa22 cdbf 9f1c 6931 9449 be3f
00000260: 6415 c5a9 caea e23f 9304 618c 7d6a cb3f
00000270: d1a4 e8d9 3929 e33f 8864 d5ec f09e 79bf
00000280: cd94 d946 8028 fabf f987 0d47 3b17 f83f
00000290: 0b30 86bc a438 d23f 340f 8c52 7720 d03f
000002a0: 44fe 2814 68c9 94bf 883c c4a2 50ea d93f
000002b0: ddf7 4ba9 1e71 d63f 5258 284a 16e0 c9bf
000002c0: 80de a262 2349 a83f d82b f2ed 0dd8 da3f
000002d0: 1f69 0042 1c76 9cbf 1336 64ef 26f1 e93f
000002e0: 1f96 bf45 e366 58bf 2e9e 1f69 1e59 c13f
000002f0: c02b 4eca ca6f cebf caa0 34f9 d088 d43f
00000300: 849b f72d db00 d7bf a478 67fd 1788 e53f
00000310: afed 18da 0912 da3f 9577 cdc9 559d 6f3f
00000320: cb29 2caf 8631 aebf d8a6 6183 9765 d53f
00000330: ddb5 4a8d c549 f33f 37a9 8647 a51c fdbf
00000340: 9382 1b8b 5250 a93f 7a83 a8c0 994b f33f
00000350: c9cb 2dc3 3389 b5bf 21c2 b585 5a55 dc3f
00000360: bc9f 01f5 f283 a3bf e302 49e8 962f e83f
00000370: 0550 cb31 ce25 c33f 590c 4a16 6d50 ccbf
00000380: ca39 7f2c 2802 a2bf 9473 dd05 e5e6 d83f
00000390: 61de 1a29 ef1c abbf b3bd 6a7b 03f9 d33f
000003a0: 89f1 e262 feb3 dd3f 9803 5161 ded8 d33f
000003b0: 9b47 de63 d48c c93f acf5 d418 59d1 cdbf
000003c0: 595e 9c44 4ebe cc3f 2f70 f078 a6ab cfbf
000003d0: 54b1 4c45 4bb9 ea3f 3844 8d76 d3f6 d1bf
000003e0: 5471 ed1d e762 d13f 4ef2 60d0 0330 c93f
000003f0: 9fcb fd35 6d04 e4bf 0b65 3454 8622 d53f
00000400: 1b52 feec 6c58 f33f 2fed 447d b7ed cfbf
00000410: e2df a20c 318f a73f 6304 dc00 9689 d23f
00000420: db4a 4344 5fa3 e4bf 1364 4857 9463 7d3f
00000430: 1551 0928 61a3 ee3f d50d 232b 3d5a da3f
00000440: b8c8 d5f2 ea5d b3bf 5636 a978 ab07 d63f
00000450: 21dc a5e9 0a50 b1bf 3d33 3679 ba30 d23f
00000460: c40b dde0 117f db3f 5870 0644 7aca e73f
00000470: 07c7 a725 ba92 a33f 89a1 6b6c 1563 dbbf
00000480: 4611 4aa6 d0a7 e23f 4bdb ee47 a85e 9bbf
00000490: cab5 aff6 ff4d d4bf 6661 9806 4b99 e63f
000004a0: 4b4f 255c a368 e4bf 5e2e daec 7c29 e63f
000004b0: 53de f440 7b43 bfbf 0e88 d804 41aa f13f
000004c0: b032 edef 0ba1 ce3f 9436 fdbe 84bc e4bf
000004d0: 0ff6 0f39 e56c c03f 25f0 56a6 eb19 d33f
000004e0: d3e2 3e2e 5120 a1bf d79e 85e1 d9bd e73f
000004f0: 7917 871a 68f1 f7bf 3672 1984 9d9d f43f
00000500: 6454 f415 1541 d33f aabe fd4c d76c c93f
00000510: ece9 7384 1bf9 c2bf a7ef 6408 10d7 f13f
00000520: 08d6 169d e416 dabf f8bd 9ab5 73a0 e63f
00000530: 00e7 87c5 330e e2bf 715e 975d b212 d33f
00000540: f420 eb63 083a 9ebf 0e09 7091 29de ea3f
00000550: 779c 9c01 0673 bd3f edcd 2009 64d8 d1bf
00000560: aa2c da58 bc31 e13f 2425 388b 1181 c7bf
00000570: 184f 4e75 3af1 e1bf 21af 4a25 7698 ec3f
00000580: 1a5d a1bf ec93 d93f 7075 581e 6b58 c6bf
00000590: b3ca 1338 933d 613f f7f5 2149 5627 dc3f
000005a0: a11c 68e8 bc4d a4bf 59bf 508e c576 d83f
000005b0: d83b 4468 6cda db3f d9c7 f13d de18 cf3f
000005c0: b5d5 6c6d 1339 fabf d39e 4c0f 19e4 f93f
000005d0: 2cba e504 5f0c c13f 7308 0003 7077 cbbf
000005e0: da6b 950d 9c00 f23f 6994 06de cfda c73f
000005f0: 2c96 f88e 6be3 e0bf de59 a577 870c d33f
00000600: c077 bddc 6d11 bbbf d2a9 f736 c679 98bf
00000610: db3a f0ed 2421 f13f 72c5 abff a435 b73f
00000620: cb42 3235 9ebe d5bf 8e3e 2518 99b8 d33f
00000630: e526 c081 213a c23f 3ca2 6832 b4c6 e6bf
00000640: 12d1 b5d9 200d c83f 13e9 2633 91be f53f
00000650: 03cc e9ab 6016 d1bf 3470 6416 e385 d23f
00000660: 46fe 6735 bcc5 d6bf 082b 86a2 2e72 d53f
00000670: 7ccf 63b6 81e5 ee3f 26e9 696a 1c54 b73f
00000680: bf1a c384 06a1 d6bf bbd4 4290 8954 d43f
00000690: ee60 9e93 f763 933f fd5f b812 2325 afbf
000006a0: cd2e 74cf 9a47 f13f cd69 1016 18ce b93f
000006b0: cb17 fb7e 1688 dcbf 1268 c324 8aa4 d33f
000006c0: 0462 25d6 e6da e2bf 1168 2ed8 fde2 ed3f
000006d0: 5103 558d a4ea 99bf 5d56 d7a3 47f3 823f
000006e0: 46c4 38a0 cd69 dc3f 448a d7ce 281a cd3f
000006f0: 6dd8 d753 af66 abbf fa04 7c7e 8c20 9fbf
00000700: 8753 dfb9 fb99 f03f 32ba e9d8 e59e b93f
00000710: 1827 20b3 a846 d7bf cd25 cb07 dfd5 d33f
00000720: f39b af2b 224d d4bf ea6f b9a1 2ffd c0bf
00000730: 5a31 9344 dac0 f53f 2eba 332d 7ab4 9d3f
00000740: c667 b973 964d cebf c006 4981 d413 d33f
00000750: c641 b6d9 09e9 f03f 3643 1b3d 042c f2bf
00000760: 366e 43a8 73e5 ef3f 317e 3d67 6116 a53f
00000770: 3266 0a05 e42c d1bf c4df 2f15 1acb d33f
00000780: 23f1 56b1 8d65 ddbf a2a8 e9c3 cac0 e93f
00000790: 50de 7a06 7d40 573f 47cc f906 9f1d da3f
000007a0: 850d 3770 a257 b9bf 1b1c 9141 0105 d63f
000007b0: 8bf8 234c d430 a3bf e3c0 02a3 f293 db3f
000007c0: 864d af91 2155 dc3f c923 f2c9 2899 f7bf
000007d0: e570 0a82 b9c3 f63f 6f78 e2e8 86a5 cb3f
000007e0: 1f55 21c2 8380 ec3f 56d5 b4db bc27 e0bf
000007f0: 6c0e b2b1 6672 dbbf 98ed 9eb3 843a e73f
