trotterization/Order_n6/Cycle_q12/q12_parameters_c.npy (npy, 113888 bytes, 1 tensors)

array f8 [1185, 12]
0.04033380205046665 0.16448619235756792 0.34536955833373506 0.21615341924705925 0.08094487654165791 0.2501865365918709 -0.26151787770576296 0.10922206684487516
0.09561723058130943 -0.3154142452655826 -0.29328181730741265 0.06790025773021605 0.043632184877192115 0.06970254923730176 0.3413759411872517 -0.3854148161982364
-0.40397587709929533 0.10100906925216657 0.11923800446023228 0.34138819286784133 0.4312857863708894 -0.3463913569389295 0.10957375039644937 0.07857657158713674
0.040972049100353895 0.06673596839179466 0.3433626667014487 0.4416555048537129 -0.32929898917174616 0.14611627005032704 0.11779828326299396 0.32600224290028595
-0.3966110148275644 -0.41059347130276996 0.0810559128670547 0.0728045771741092 0.03538192024006033 0.05426555600976504 0.18883746633047424 0.40601192848221446
0.2665005849752123 0.28044478367727504 -0.29358805410342065 0.1594589189376706 -0.36512442923979005 -0.35686141480435885 0.0724243645783442 0.052248374916553306
0.04845770958571402 0.10007113013957679 -0.4000464545453318 -0.35022486091747257 0.2889951013515355 0.0665857566193635 0.11092981309657296 0.12341276781940433
-0.2928571597572868 0.4174688120021828 0.31109320408897867 0.07611418051676255 0.05158774479796219 0.13661896180528801 -0.4133712157669717 0.4497297268450274
0.35598505197417823 0.06656473790227245 0.10110398997212995 0.08515444687937569 -0.4210140956658701 -0.4022788138496533 0.4104596480031632 0.07945981710309913
0.044874065838149776 -0.33279617271037 -0.2855686682731008 0.1085890261949732 0.12370819003893903 -0.23776497036430913 0.020052861693605983 0.21571064382130584
0.10859873310548174 0.21047295141278843 0.355333201967755 0.16879013727478068 0.08772274686959287 -0.469586749598975 -0.3530712435830701 0.06036987413975996
0.29169952924269027 0.15103976251532966 0.14697316040309724 -0.30770166389345327 0.19111552847968544 -0.07307534250154951 0.48371315550232474 0.2908012424245689
0.09229258612629775 -0.2575764943515716 0.09233890701569787 0.38246791214884646 0.4969464272741161 0.17939325037989795 0.13725850062206307 -0.45736001283519506
-0.44923089764501595 0.16375764535350726 -0.10694911897018755 0.22666129488154335 0.03997656189263699 0.11267485497593105 0.16070804032782354 0.08989847470309782
0.49942025589660716 0.591174585249813 -0.5210321856583001 -0.5786407197082577 0.14295147486167664 0.08154641471198347 -0.1824994792748945 0.06382172202188335
0.10515588835953574 0.09736998372704128 0.08725232967136451 0.07940000451473428 0.4767093132243515 0.5536088372718182 -0.4998190089622022 -0.5388655295532712
0.119715581846492 0.09296058627295559 0.06621975764290897 -0.1397077440157287 0.06024945581965147 0.08593560849874518 -0.23438029212800748 0.29814989346940646
-0.5779937406465859 0.03677717643305712 0.15607674858810996 0.5789235789592212 0.15108790315281806 -0.30008737462980234 0.1516530123112231 0.09360803017216363
0.0377016857013503 0.09074492185822844 -0.38104213069962234 -0.4002067655510991 0.16855447456895006 -0.32572315715264744 -0.0038826217939371254 0.3130369546447358
0.2863917928556243 0.440197242996267 0.20483562336775096 0.06939197920439895 0.041328326078204594 0.08234207150158769 0.18414613887263903 -0.5673842005925965
-0.3078640027769308 0.18041397429217104 0.11897725991643975 0.304736455935408 -0.25005977903192583 0.5686897440534526 0.060011550985306646 0.0846624607662441
0.03646972472771178 -0.31364671054102683 -0.2596223342495049 0.07805325295881974 0.08750501666836924 0.30146843200853496 -0.31161820953084934 0.11495820915012539
0.09727388848293472 0.15854678693115865 0.33736321072344216 0.17324873267028443 0.052700702450580277 0.3402766993416517 0.5001665535798362 -0.3992933215246957
0.22189071941296248 0.33964333865966917 -0.35354049133549703 0.1834530360999553 0.39854863447017796 -0.43240045873795635 -0.4591700121687196 0.10772459975203702
0.040088083702019287 -0.252638529175583 -0.5058594477174787 0.08687215578355854 0.14407224542534577 -0.22257913337240467 0.04286550513283983 0.19235925545301125
0.1168033350658027 0.5077890491747202 0.22315272705758527 0.12707475347058406 0.05912076906367495 -0.20989886884756584 0.15240934241890955 -0.5535100490618655
-0.4986604895302679 0.40655023960738457 0.19620509330183716 -0.41108629057842894 0.5782305173354533 0.4505692459577618 0.1678364741565294 0.16223401617657726
0.05748725653798432 -0.21928450298451807 0.3588125585223318 0.4980631342824853 0.19746862137490254 0.27042743180671847 -0.2894854649907705 0.1804360100881634
-0.42326751893673586 -0.469414763743233 0.20169814995347413 0.1370590880891971 0.25449937457521477 0.37883989362847553 0.08342277047382432 0.10902251039147359
0.08349696715088345 0.1855882306694517 -0.2120657934630378 0.07253982490060938 0.12303296130006135 0.07163303617996457 -0.27903475372263714 -0.37097502208428335
0.037440603905450016 0.06374371275837651 0.1252915491515708 0.25386728173542744 0.48027661226041246 0.6126441826125588 -0.5003653475536912 -0.6039895377194873
0.16369216810451917 -0.2656365817354102 0.07208706117984273 0.06094829530043046 0.051514542778716865 0.33799785680964156 0.18932356442538228 0.25926464618877904
00000000: 9ece 75d1 a1a6 a43f 75df 6830 e20d c53f
00000010: 68f3 84eb 881a d63f 55d7 4a4d eaaa cb3f
00000020: 1672 86ad cdb8 b43f 23f1 2364 0e03 d03f
00000030: 7432 047b b5bc d0bf f3aa 1935 faf5 bb3f
00000040: 7fe3 47ee 5e7a b83f c0ec 063b bf2f d4bf
00000050: b631 7619 21c5 d2bf 1a5c 574a e961 b13f
00000060: 607d 332e f556 a63f de0a 6cb9 06d8 b13f
00000070: fc96 c279 1ad9 d53f 17c7 bde7 a2aa d8bf
00000080: bfeb 20a3 bdda d9bf a096 09f9 badb b93f
00000090: fad4 98c1 6186 be3f 25e8 e6dc 4dd9 d53f
000000a0: c353 ecb2 2f9a db3f 6ddd 6aa7 462b d6bf
000000b0: d2eb 737a 060d bc3f 82d4 321d 981d b43f
000000c0: ef4b dfd5 49fa a43f 7aab b5c1 9b15 b13f
000000d0: c19a 0968 a7f9 d53f f77b 5c73 1544 dc3f
000000e0: f44d 4611 3c13 d5bf ddcb a31c f0b3 c23f
000000f0: 7cb6 233e 0728 be3f e77a eb82 38dd d43f
00000100: 95bc 7a2a 1362 d9bf a593 ccd6 2947 dabf
00000110: 2f53 e98e 14c0 b43f 8b3f f61d 52a3 b23f
00000120: 8afa 993c 941d a23f d4ee b8e8 b1c8 ab3f
00000130: c30e 137b d32b c83f f67c a774 19fc d93f
00000140: 8556 3578 580e d13f 7d92 8ead cef2 d13f
00000150: c9b5 b78c 25ca d2bf 9c47 f25c 2669 c43f
00000160: 5e8e a3da 325e d7bf 2a7f 7242 d1d6 d6bf
00000170: 7e2d 4c35 678a b23f ee4c 128b 4cc0 aa3f
00000180: 2cc5 d1eb 72cf a83f 6726 39f7 429e b93f
00000190: f1c9 c971 5c9a d9bf 95bf f888 156a d6bf
000001a0: 4894 404f e57e d23f c040 0f9f c30b b13f
000001b0: 4cb3 666f e565 bc3f 6e74 b1a9 fa97 bf3f
000001c0: cba5 e3f4 2bbe d2bf e88e a91b cfb7 da3f
000001d0: 287b 6478 f3e8 d33f 68d2 140c 387c b33f
000001e0: 5833 9079 b569 aa3f b9cc 7bea ba7c c13f
000001f0: fbeb 348b ac74 dabf 71a8 3531 5fc8 dc3f
00000200: 5f03 0687 75c8 d63f 0f69 5bfc 620a b13f
00000210: ade7 6c7a f3e1 b93f 11b5 748c aecc b53f
00000220: 2c8e 021b e5f1 dabf 5fe8 56a3 efbe d9bf
00000230: 9b14 208b f844 da3f d0cf cd83 7a57 b43f
00000240: 4e43 6dca bbf9 a63f b699 8151 884c d5bf
00000250: 06b2 bfce c146 d2bf e53e 368c 7dcc bb3f
00000260: c5ef 7606 57ab bf3f ddaf ec21 156f cebf
00000270: 0037 a9c4 bc88 943f 5649 4e08 689c cb3f
00000280: 3838 1367 20cd bb3f d458 8115 c7f0 ca3f
00000290: 2a9b 6878 c7bd d63f a9c3 bd4b ea9a c53f
000002a0: 6d91 eb78 ff74 b63f 0967 0a95 b50d debf
000002b0: c13a 1621 b898 d6bf 5614 30d6 cce8 ae3f
000002c0: e4c7 9680 34ab d23f b710 335c 4555 c33f
000002d0: a718 a93a 04d0 c23f f737 d651 62b1 d3bf
000002e0: 16fc 4940 7976 c83f dc2a 30ce 10b5 b2bf
000002f0: b2c1 e105 28f5 de3f 5761 76d0 7c9c d23f
00000300: df61 13a7 7ca0 b73f 4255 dd1e 227c d0bf
00000310: fde2 c7c9 85a3 b73f 72b7 9cb1 5a7a d83f
00000320: 6268 4063 f8cd df3f 549d c0a7 5bf6 c63f
00000330: 6287 a2c1 af91 c13f f704 68ee 6245 ddbf
00000340: 7d3c 6ff3 32c0 dcbf 29b3 a1b1 02f6 c43f
00000350: b81e 5078 0461 bbbf c682 64c0 3c03 cd3f
00000360: 31ec ded3 ce77 a43f bc02 3461 42d8 bc3f
00000370: a6c4 b4c0 1492 c43f f561 cf20 9603 b73f
00000380: d74b 8260 80f6 df3f 5bfa bbf6 e6ea e23f
00000390: 071b b2b0 4bac e0bf e2fc e88a 3984 e2bf
000003a0: 2e12 b9e2 3b4c c23f 0b45 4bd0 39e0 b43f
000003b0: e3e7 8297 245c c7bf 94bf dbd0 9e56 b03f
000003c0: aa6c 7c0d 7feb ba3f e63d b83f 3ded b83f
000003d0: ce35 702e 2b56 b63f d06a b106 8f53 b43f
000003e0: 4ad2 7fc7 6782 de3f 4c7d 5be1 29b7 e13f
000003f0: c25a 5ade 08fd dfbf caef 4bec 623e e1bf
00000400: f82f da2c aea5 be3f 1afd dbd5 43cc b73f
00000410: 16e3 6c2d c7f3 b03f c3d2 c57f f1e1 c1bf
00000420: 31c4 b144 04d9 ae3f 5a60 1044 e0ff b53f
00000430: d423 c264 2c00 cebf 7072 704a e314 d33f
00000440: 57d5 abba ec7e e2bf e1d4 0944 75d4 a23f
00000450: 950c 6da9 52fa c33f 8d6b d0bd 8a86 e23f
00000460: a868 6e31 d956 c33f 618f feac a134 d3bf
00000470: 2db9 1bac 5d69 c33f 2480 3b24 b2f6 b73f
00000480: 19c8 2ea6 a24d a33f 26bf a827 0f3b b73f
00000490: bc31 7088 fe62 d8bf a583 6bd6 fc9c d9bf
000004a0: 0a1e ef69 3193 c53f b24f e1f0 a5d8 d4bf
000004b0: 9c17 16b4 72ce 6fbf 6cde a826 cc08 d43f
000004c0: f817 0a3e 3e54 d23f 4f55 9d0e 312c dc3f
000004d0: 34cb b5bf 0d38 ca3f 85a0 4939 acc3 b13f
000004e0: 1202 cf81 fc28 a53f 9128 2fb8 5e14 b53f
000004f0: a642 12c6 1992 c73f 69fe 39e9 0228 e2bf
00000500: 7cb9 e237 0bb4 d3bf dec2 a91b ce17 c73f
00000510: 8b0d 4f30 4b75 be3f b40e 0956 cd80 d33f
00000520: c72c 3fbb fa00 d0bf 50f7 88d5 b432 e23f
00000530: 116f ba81 d5b9 ae3f 639d 3064 70ac b53f
00000540: 6bd1 ffe5 28ac a23f 5963 11a7 c912 d4bf
00000550: 636b bafe a69d d0bf baf6 cd48 4cfb b33f
00000560: cc9a d390 ba66 b63f 1732 1040 424b d33f
00000570: 097a b180 8df1 d3bf 44de b4b4 e66d bd3f
00000580: 00f9 c909 f1e6 b83f 9caa 60d8 424b c43f
00000590: 4191 3bdd 5b97 d53f 7d37 72b4 032d c63f
000005a0: 97c0 0023 96fb aa3f 94d8 d0eb 17c7 d53f
000005b0: afb5 c549 5d01 e03f 0d6d 5d93 058e d9bf
000005c0: 2911 9543 ea66 cc3f f53d f669 b7bc d53f
000005d0: 3a41 064c 68a0 d6bf 075b 339b 637b c73f
000005e0: 468d ba21 d281 d93f cf83 43f9 72ac dbbf
000005f0: 7f63 649e 0a63 ddbf 5ce1 e8e0 d693 bb3f
00000600: 6a41 ebe0 6c86 a43f e731 21cb 3a2b d0bf
00000610: d436 0a27 0030 e0bf 9ffd 05ec 403d b63f
00000620: 8f7b 2e97 f570 c23f cda1 4d19 797d ccbf
00000630: 3119 58ad 77f2 a53f bc75 a063 3a9f c83f
00000640: c4dd 2bc8 d2e6 bd3f 911d efd1 ce3f e03f
00000650: 98de 5cc0 4490 cc3f 80d6 264b fc43 c03f
00000660: f523 49d3 1345 ae3f d176 9554 f7dd cabf
00000670: 7ba4 a53a 2682 c33f 554c d7b4 5ab6 e1bf
00000680: 1fc0 95af 0dea dfbf 0cdc d24b eb04 da3f
00000690: 5a1f 859d 3f1d c93f 5092 77df 3c4f dabf
000006a0: 6928 3049 dd80 e23f b634 fe63 20d6 dc3f
000006b0: de03 ca63 aa7b c53f 2379 e390 15c4 c43f
000006c0: 49e9 883d f86e ad3f 8047 6bbc 8311 ccbf
000006d0: 0fd7 0ff3 c8f6 d63f b889 4532 44e0 df3f
000006e0: 054d 65db a646 c93f a645 e3db ae4e d13f
000006f0: a35f 330b ee86 d2bf beb8 2cf5 8618 c73f
00000700: b8b5 d2a5 d016 dbbf 265a a238 e40a debf
00000710: 4460 dbb6 3ed1 c93f 4039 7bf6 268b c13f
00000720: c6ca a9be b749 d03f a37b 63ae e93e d83f
00000730: 1a42 edd6 315b b53f 48c1 a834 e6e8 bb3f
00000740: 546d 3aa7 0e60 b53f e3b7 9fea 5ac1 c73f
00000750: ad13 c3cf f824 cbbf 170e 9b4f f891 b23f
00000760: cf21 1d91 167f bf3f 1bc5 b4eb 8a56 b23f
00000770: bbe9 6b95 b4db d1bf 3008 df04 0ebe d7bf
00000780: e1fe a132 6a2b a33f c672 9f09 8251 b03f
00000790: 341c 09b1 8d09 c03f 3fff 248e 5c3f d03f
000007a0: 174c ac1d dabc de3f 9cfa 0cf9 c79a e33f
000007b0: d16e 7930 fe02 e0bf 1234 f4dd e153 e3bf
000007c0: 2964 4f6e ddf3 c43f 3730 cb93 3000 d1bf
000007d0: de6f 3b32 4c74 b23f b2e5 1f6e 9d34 af3f
000007e0: d886 0139 1d60 aa3f 6064 47c3 c1a1 d53f
000007f0: 6eda c82a c13b c83f c3f2 18be ca97 d03f
