trotterization/Order_n6/Cycle_q12/q12_parameters_a.npy (npy, 66488 bytes, 1 tensors)

array f8 [1185, 7]
00000000: 7432 047b b5bc e0bf df5b 6af1 8c00 e73f
00000010: ca2a e74d 9699 d63f 5704 8651 2869 c9bf
00000020: 8d0d 7690 3eab ba3f 818d 94d5 d6be dd3f
00000030: 9ece 75d1 a1a6 b43f fad4 98c1 6186 ce3f
00000040: cd4d 299b 3c50 ec3f 3880 b6fc 20f7 ab3f
00000050: 4252 94c7 f46a f7bf f191 5f18 5cdc ec3f
00000060: b06f 4f6b cffa d23f 607d 332e f556 b63f
00000070: 79b6 233e 0728 ce3f d460 3d91 3037 ee3f
00000080: 4585 e09d a73a f7bf 0385 fec8 b9ce af3f
00000090: 8bef c38b ac29 eb3f 7ff5 d5ef 76dc d13f
000000a0: ef4b dfd5 49fa b43f c9b5 b78c 25ca e2bf
000000b0: 4bb6 07dc 6127 ec3f 65df b889 693f c9bf
000000c0: 63ee a791 412a b93f c192 dc8a 83b8 e03f
000000d0: e19d e539 7f44 cb3f 8afa 993c 941d b23f
000000e0: 4cb3 666f e565 cc3f 975a 6024 df51 d83f
000000f0: 4cc1 88d1 52a3 7fbf 4d3d c34a e636 c13f
00000100: 233b 95e5 a3c5 c6bf 68fc a681 3d8d d63f
00000110: 2cc5 d1eb 72cf b83f a6e7 6c7a f3e1 c93f
00000120: 090f 68c4 886b d33f 422b f24f bea5 c0bf
00000130: 7300 f66e 7c4b b83f e2b1 6b0a 00da 77bf
00000140: 9ab4 622c 78a8 db3f 5833 9079 b569 ba3f
00000150: 0537 a9c4 bc88 a43f 2e34 f3cc 6895 a6bf
00000160: 0014 c5b6 3bbc dd3f 243c ceed 826b e43f
00000170: 94a4 a3a6 16dc c13f c16f 4557 26fe d4bf
00000180: 4e43 6dca bbf9 b63f a318 a93a 04d0 d23f
00000190: 3e5f 7947 7f0d d4bf ebc5 bb20 71e6 ee3f
000001a0: 0106 c118 5305 9abf db0d 97c9 dfb8 d03f
000001b0: 6b0b 2889 71e2 d6bf 6d91 eb78 ff74 c63f
000001c0: 6387 a2c1 af91 d13f 4cb6 871a 35ca e1bf
000001d0: 315f 897e 2b6e b83f 84c8 3605 ae7a f13f
000001e0: b3dd 4174 f5eb 9dbf df3d b1ea 3ba8 afbf
000001f0: df61 13a7 7ca0 c73f 081b b2b0 4bac f0bf
00000200: ef5d bff4 5aab 993f 766a ef28 4f8e f43f
00000210: 7c53 8df8 e7f1 d53f 091a 71b6 7e50 a6bf
00000220: 24e1 0799 7097 d63f 31ec ded3 ce77 b43f
00000230: c25a 5ade 08fd efbf 8360 e343 bd31 9e3f
00000240: 242f 5ba9 e915 f33f f5b3 466e e90f d63f
00000250: 728c ee2d f9a4 d33f 40cf a67f 4bad b5bf
00000260: aa6c 7c0d 7feb ca3f 940c 6da9 52fa d33f
00000270: da08 1112 d2b3 f33f 5c76 a0dc 6c52 ebbf
00000280: 0cf2 1c8e 62be 6fbf 52d5 4c71 9d2d c5bf
00000290: 3df0 2534 49fb d63f 31c4 b144 04d9 be3f
000002a0: 8217 16b4 72ce 7fbf be28 0e47 39fb 99bf
000002b0: fda6 01f3 d61d ed3f 548d 8ec1 a179 b43f
000002c0: 4298 2a51 ef8d d6bf d62f 79b0 5d7f d43f
000002d0: 19c8 2ea6 a24d b33f 890d 4f30 4b75 ce3f
000002e0: 22f0 dd63 b40c ef3f 22f3 90f9 82da f1bf
000002f0: 62cd f19d d863 653f 68de 8026 8f40 df3f
00000300: f8e2 2f8e 6760 d53f 1202 cf81 fc28 b53f
00000310: 097a b180 8df1 e3bf a869 3ded bba6 ea3f
00000320: e6c9 4ecd d5a6 d73f f9a5 c7fc e848 de3f
00000330: 7a97 047a d3e6 c33f 358f b099 8ff8 d1bf
00000340: 6bd1 ffe5 28ac b23f 3c41 064c 68a0 e6bf
00000350: baf5 c79b 34bd f03f eb8a c2a1 a3da f33f
00000360: 7078 5046 3c9d fabf d83e 38a9 7ffd b43f
00000370: e610 0ba4 0dac ec3f 97c0 0023 96fb ba3f
00000380: 2b19 58ad 77f2 b53f a060 69ad f5f1 aebf
00000390: 3735 a27d 2fb2 e03f 44dd 6fef 7607 f33f
000003a0: 5efe e5ed dd17 e2bf 518d 1b4b 7912 d0bf
000003b0: 6a41 ebe0 6c86 b43f 5b1f 859d 3f1d d93f
000003c0: c490 2de9 6494 82bf cf42 2a8b b35e c43f
000003d0: cb8f c116 545a cabf 2dd4 374f e87e e43f
000003e0: b6f6 c70e 8767 b8bf f523 49d3 1345 be3f
000003f0: a25f 330b ee86 e2bf 06a2 7956 f2da ec3f
00000400: 681e 4070 fae6 dcbf 2ff9 329a ff55 ad3f
00000410: 99c3 3e27 b4ef f13f 7c1c e08b b90c c5bf
00000420: 49e9 883d f86e bd3f ae13 c3cf f824 dbbf
00000430: 769f 3689 2b85 e03f 8fc7 2b9c 926f da3f
00000440: 2fc3 2e90 b81f d73f 6b32 613f d009 d9bf
00000450: 3a6e 8e30 751b 903f c6ca a9be b749 e03f
00000460: d16e 7930 fe02 f0bf ada2 31c6 86b9 913f
00000470: 16ff 696a 649b f43f ea1e c6b4 801a 98bf
00000480: 25d4 26ca b343 d93f a365 afc0 d0eb cf3f
00000490: e1fe a132 6a2b b33f 4bb0 b042 534e e03f
000004a0: 22a0 a057 d9ee 983f cf73 b6f5 93bf c1bf
000004b0: fcad e5b4 1d0c bcbf 5792 313a dc15 d0bf
000004c0: b735 951c 899a eb3f d886 0139 1d60 ba3f
000004d0: 84e8 ee9e 68ea aa3f 7316 5407 f860 d93f
000004e0: 1ff6 8ea8 0f1d dcbf fa26 94a3 9a0e e13f
000004f0: 7320 698c d599 de3f 6e7e c042 4ff6 b9bf
00000500: 41cf ee29 4e95 b43f 5363 276b 69bc d9bf
00000510: e22f c216 926c db3f bb99 db30 7885 db3f
00000520: 7cde c1ba eeac d73f 816b 89e6 cba1 bfbf
00000530: 4524 7f1e 8a2c b83f 129a 94b5 81f5 c93f
00000540: 25ca 74fa 7dc8 d13f fe41 e7d9 6244 d6bf
00000550: 8f0d 1c1e b611 f13f 2ce9 e1d2 09c4 c03f
00000560: a095 feda 7a8a 82bf 080f 1090 c404 d1bf
00000570: 77a1 f2c8 3fd8 c23f 2e6a 331e 45cd df3f
00000580: 8a14 8b5b 3ae7 c0bf de55 671a 8dc1 c8bf
00000590: 2cc4 4f11 e37d a53f ddf9 11a3 68fc babf
000005a0: 6d54 366a 0917 e93f 79a0 ce3b a6a1 bb3f
000005b0: e4e3 4d96 2540 e3bf ccb2 89bc abbc eb3f
000005c0: 0ffc 4447 5e45 b2bf 1e71 4ccb ce34 7d3f
000005d0: d7b4 2123 bb8f dc3f 4553 2e79 e007 d23f
000005e0: 4e9d 71b7 712f b23f 2888 8ee3 f9b3 de3f
000005f0: 3d6c b791 51f2 bcbf 5b45 ffdc 4f67 c3bf
00000600: f2d9 a27f 1dc0 b0bf e98c 4fc8 b446 963f
00000610: 8e7a 8284 870f e73f 99f8 f6e6 3da3 bb3f
00000620: e349 c3ee 3ebc e5bf 5182 08ba 8402 f03f
00000630: 3b80 423d 1bce d2bf 8ce1 e2c4 8764 b83f
00000640: 37e0 be8b 857c e73f b385 3f07 dde4 8ebf
00000650: 301c 5524 0043 c43f 3c05 7776 5258 ae3f
00000660: d7b1 e494 4c92 aabf 2574 6308 32d8 e13f
00000670: 5e2a ea92 c129 d93f ab2b 4bb3 db8a fbbf
00000680: 756d c3c5 f5d1 fa3f 0b6f ee58 c542 b63f
00000690: 001c 562b 9c1f e3bf 0775 3e8c 10c3 e93f
000006a0: fd96 afba c090 d63f 5e4f 9552 20ed d53f
000006b0: 9203 5e95 ae4c d3bf 067c e90b bd3c 613f
000006c0: 3198 304c 6b65 d93f c87d 5d32 6aab cabf
000006d0: cb88 1628 43a6 e53f b203 9399 3350 b2bf
000006e0: 8d5f 29ec 98d7 c0bf 96f1 973a 965d a73f
000006f0: 1fd6 707f 4684 e23f 3cce 197d 2153 bc3f
00000700: b0a6 db3d fcae e03f d889 5947 d5db e5bf
00000710: 463b ef93 d57c e03f de2d 268c 71da d1bf
00000720: 9f21 9f27 810d c13f 04a8 1476 a3c5 e53f
00000730: 2a73 2add c3a1 bc3f 152e 5aba 6244 c8bf
00000740: 1596 e2db 50bd e53f 31ff 4b66 10cd a43f
00000750: 9f2c 1ec7 b773 b8bf 04dc 10c9 6cad a4bf
00000760: d5a4 8ece 9de1 df3f 36b3 e553 ad7b bb3f
00000770: a791 6b5f 2bb8 ecbf b31d 60d8 bdbb 81bf
00000780: ee1c 5c68 3fe6 f33f beb4 8d74 1934 d2bf
00000790: 76f1 9820 28c1 c13f 7952 300a b11b e63f
000007a0: 4e1e 2970 6905 be3f 6f01 ef08 d88b ee3f
000007b0: f0cb 8080 93d5 fbbf b52c eb01 5b54 f23f
000007c0: 037e affb fe04 c9bf e91d 7e65 9135 ba3f
000007d0: 3a05 c378 71e0 e33f 8f9c aa6d a885 bc3f
000007e0: ba14 0789 99ef b23f 8690 3f33 9fa5 abbf
000007f0: f830 2069 3945 ee3f 4b08 dcbb ac4a fbbf
-0.5230357554115259 0.718817206873492 0.35312421424593465 -0.19852165203704672 0.10417548205264478 0.4647729001755679 0.0806676041009333 0.23847600892046456
0.8847945242400158 0.05461981854318804 -1.4636123462743318 0.9018993831674021 0.296558241648877 0.08726436975438423 0.23559656652598784 0.9442370259012258
-1.4518200079986212 0.06212406710188569 0.8488371591370066 0.2790810911318075 0.08194409820070779 -0.5871761082068413 0.8798074052298913 -0.19724768852915556
0.09830102735571127 0.5225236618176369 0.2130278618526367 0.07076384048012066 0.22185962619314592 0.37999704887753566 -0.007724116811502601 0.13448790216942044
-0.17790650091270618 0.3523706213126787 0.09691541917142804 0.2022079799442597 0.3034383695632959 -0.13005808738338415 0.09490182599074774 -0.0058231355276174585
0.4321575578167739 0.10317548959592437 0.040105723387212 -0.04410865308600652 0.4646138462888416 0.6381239552155233 0.13952906738930848 -0.3280120708711785
0.08974813167629955 0.29394632080619426 -0.3133238027562476 0.965630115444751 -0.025410936723579528 0.26128382383850884 -0.3575710143488126 0.17544549373918575
0.2745170012441262 -0.5559335249105941 0.0954310592582004 1.0924511150047076 -0.02922042390897923 -0.06183039894005637 0.1845851722525955 -1.0420643713166005
0.025067731083110386 1.2847434615165674 0.34288977883016236 -0.04358287789414212 0.3529931539956286 0.07995312378527399 -0.9996380179244044 0.029486615437094087
1.192849790141687 0.34472118157537973 0.30694417462854695 -0.08467552057737482 0.21031177671907147 0.3121534971762199 1.2314015107845564 -0.853811674987536
-0.00387496232079188 -0.16545455963356887 0.3590872773418175 0.12049891163930294 -0.007765243587874228 -0.025372405015823267 0.9098925348491488 0.07998095489033591
-0.35241301466374264 0.3202738021252548 0.0754033714027006 0.23795451983287944 0.970300860455158 -1.1158475636177134 0.0026110869217121227 0.48831537971589123
0.3340090645356635 0.08265665215640919 -0.6232364190616987 0.8328532823173207 0.3695578103026079 0.47320007977995676 0.15548175294787453 -0.2807959557414848
0.07293944945542356 -0.7070809826709943 1.0461927495192485 1.2408787077662804 -1.6633875605253046 0.08199308282223272 0.8960025981873769 0.10540140490116055
0.08573101026567957 -0.060439755838787024 0.5217511609822968 1.1893224099165574 -0.5654134413197871 -0.25112755140999804 0.08017616740403857 0.3924101866036744
-0.009072101942088635 0.15914005561037078 -0.20588160620820725 0.640491633150878 -0.09532970534197713 0.1182415381273499 -0.5789709299815409 0.9017268837897638
-0.4515977951236665 0.05729674107850468 1.121021416951612 -0.16445082979064185 0.11497451307596863 -0.42413158692607567 0.516256111140122 0.41305985690188946
0.3613110931428762 -0.39122396649762575 0.015729743088384242 0.5089987491504295 -1.0007306951073824 0.017309289786143257 1.2879375607298633 -0.023538599999965472
0.3947572206628272 0.24938401611761404 0.07488120781090003 0.5095611860792898 0.02434863660178633 -0.1386589956063333 -0.10955987612185675 -0.25133424456570225
0.8626142080553824 0.10302908555743373 0.05256964626410457 0.39654350963278445 -0.43927375279221964 0.5330327219864721 0.478139292831208 -0.10141463641820689
0.08040321849585742 -0.4021247431206138 0.4285016271830938 0.43002133151312777 0.36992996442811665 -0.12356256845798265 0.094429619260283 0.20280476919397522
0.27786206682790954 -0.34792395858406155 1.0668240715175192 0.1309826163959057 -0.009053191955738893 -0.2659160048353759 0.14722440063384187 0.49690368603993107
-0.13205651731383156 -0.19340671338311116 0.04197606645892224 -0.10541395169455066 0.7840621065576109 0.10793532333502921 -0.6015804229383517 0.8667811090832287
-0.07137097587563822 0.007130439557638616 0.4462726443369553 0.28173076471403063 0.07103644112213667 0.4797348711236986 -0.1130724888566172 -0.15159033099056782
-0.06543144575230267 0.0217540976772285 0.7206456745223748 0.10795962227618573 -0.6792292273842658 1.000614859287584 -0.29382973654174166 0.09528397137444794
0.7339503983885213 -0.015084959777541629 0.15829469465299573 0.059267594300318 -0.0518974239115299 0.5576410449826922 0.3931735930170016 -1.7214009288461323
1.6762597775585537 0.08695634289909664 -0.5976086470044493 0.8050616015567876 0.35258501273197834 0.3425980383374191 -0.30155529581684803 0.0021041576685969536
0.3968151325265153 -0.2083561654971915 0.6765456946343645 -0.07153627871868087 -0.13157950908020802 0.04563588586094906 0.5786468972280011 0.1106434755727656
0.5213605125583936 -0.6830850976514808 0.5152385606141727 -0.27895773588599393 0.13322462496422546 0.6803757959617092 0.11184333943897387 -0.1895869645999119
0.6793598456030759 0.04062701462498664 -0.09551571475292285 -0.04038562731187059 0.4981455342445547 0.10735591219208804 -0.8974816192317591 -0.00865886990142326
1.2437128140025453 -0.2844298971384197 0.1387071761290703 0.6908803175925434 0.11727007854744295 0.9545707869038277 -1.7396426219609076 1.1455946040103246
-0.19546496667224753 0.10237988212440254 0.6211478575352551 0.11141445805934523 0.07396850200082641 -0.053997969633003115 0.9459502270924807 -1.7057311380636004
