trotterization/Order_n6/Cycle_q12/q12_parameters_d.npy (npy, 113888 bytes, 1 tensors)

array f8 [1185, 12]
000000 18 5c 57 4a e9 61 b1 3f b6 31 76 19 21 c5 d2 bf
       0.06790025773021602 -0.29328181730741265
000010 c0 ec 06 3b bf 2f d4 bf 7e e3 47 ee 5e 7a b8 3f
       -0.3154142452655826 0.09561723058130941
000020 f2 aa 19 35 fa f5 bb 3f 74 32 04 7b b5 bc d0 bf
       0.10922206684487515 -0.26151787770576296
000030 22 f1 23 64 0e 03 d0 3f 15 72 86 ad cd b8 b4 3f
       0.25018653659187085 0.0809448765416579
000040 54 d7 4a 4d ea aa cb 3f 68 f3 84 eb 88 1a d6 3f
       0.21615341924705922 0.34536955833373506
000050 74 df 68 30 e2 0d c5 3f 9b ce 75 d1 a1 a6 a4 3f
       0.1644861923575679 0.040333802050466626
000060 82 d4 32 1d 98 1d b4 3f d2 eb 73 7a 06 0d bc 3f
       0.07857657158713674 0.10957375039644937
000070 6d dd 6a a7 46 2b d6 bf c3 53 ec b2 2f 9a db 3f
       -0.3463913569389295 0.4312857863708894
000080 25 e8 e6 dc 4d d9 d5 3f fa d4 98 c1 61 86 be 3f
       0.34138819286784133 0.11923800446023228
000090 a0 96 09 f9 ba db b9 3f c0 eb 20 a3 bd da d9 bf
       0.10100906925216657 -0.4039758770992954
0000a0 17 c7 bd e7 a2 aa d8 bf fc 96 c2 79 1a d9 d5 3f
       -0.3854148161982364 0.3413759411872517
0000b0 de 0a 6c b9 06 d8 b1 3f 5f 7d 33 2e f5 56 a6 3f
       0.06970254923730176 0.04363218487719211
0000c0 84 3f f6 1d 52 a3 b2 3f 28 53 e9 8e 14 c0 b4 3f
       0.0728045771741091 0.0810559128670546
0000d0 a7 93 cc d6 29 47 da bf 96 bc 7a 2a 13 62 d9 bf
       -0.4105934713027701 -0.39661101482756445
0000e0 e5 7a eb 82 38 dd d4 3f 76 b6 23 3e 07 28 be 3f
       0.32600224290028584 0.11779828326299388
0000f0 da cb a3 1c f0 b3 c2 3f f5 4d 46 11 3c 13 d5 bf
       0.14611627005032696 -0.3292989891717462
000100 f6 7b 5c 73 15 44 dc 3f bf 9a 09 68 a7 f9 d5 3f
       0.44165550485371285 0.3433626667014486
000110 73 ab b5 c1 9b 15 b1 3f e3 4b df d5 49 fa a4 3f
       0.06673596839179456 0.04097204910035381
000120 ee 4c 12 8b 4c c0 aa 3f 7e 2d 4c 35 67 8a b2 3f
       0.052248374916553306 0.0724243645783442
000130 2a 7f 72 42 d1 d6 d6 bf 5e 8e a3 da 32 5e d7 bf
       -0.35686141480435885 -0.36512442923979005
000140 9c 47 f2 5c 26 69 c4 3f c9 b5 b7 8c 25 ca d2 bf
       0.1594589189376706 -0.29358805410342065
000150 7d 92 8e ad ce f2 d1 3f 85 56 35 78 58 0e d1 3f
       0.28044478367727504 0.2665005849752123
000160 f6 7c a7 74 19 fc d9 3f c3 0e 13 7b d3 2b c8 3f
       0.40601192848221446 0.18883746633047424
000170 d4 ee b8 e8 b1 c8 ab 3f 8a fa 99 3c 94 1d a2 3f
       0.05426555600976504 0.03538192024006033
000180 69 d2 14 0c 38 7c b3 3f 28 7b 64 78 f3 e8 d3 3f
       0.07611418051676257 0.31109320408897867
000190 e8 8e a9 1b cf b7 da 3f cb a5 e3 f4 2b be d2 bf
       0.4174688120021828 -0.2928571597572868
0001a0 6e 74 b1 a9 fa 97 bf 3f 4c b3 66 6f e5 65 bc 3f
       0.12341276781940433 0.11092981309657296
0001b0 c0 40 0f 9f c3 0b b1 3f 49 94 40 4f e5 7e d2 3f
       0.0665857566193635 0.28899510135153555
0001c0 95 bf f8 88 15 6a d6 bf f1 c9 c9 71 5c 9a d9 bf
       -0.35022486091747257 -0.4000464545453318
0001d0 68 26 39 f7 42 9e b9 3f 2e c5 d1 eb 72 cf a8 3f
       0.1000711301395768 0.048457709585714034
0001e0 c2 cf cd 83 7a 57 b4 3f 98 14 20 8b f8 44 da 3f
       0.07945981710309893 0.41045964800316304
0001f0 63 e8 56 a3 ef be d9 bf 30 8e 02 1b e5 f1 da bf
       -0.4022788138496535 -0.42101409566587034
000200 03 b5 74 8c ae cc b5 3f 9f e7 6c 7a f3 e1 b9 3f
       0.0851544468793755 0.10110398997212976
000210 01 69 5b fc 62 0a b1 3f 5c 03 06 87 75 c8 d6 3f
       0.06656473790227226 0.35598505197417807
000220 6e a8 35 31 5f c8 dc 3f ff eb 34 8b ac 74 da bf
       0.4497297268450272 -0.41337121576697194
000230 b2 cc 7b ea ba 7c c1 3f 3b 33 90 79 b5 69 aa 3f
       0.13661896180528782 0.051587744797961986
000240 aa c3 bd 4b ea 9a c5 3f 2b 9b 68 78 c7 bd d6 3f
       0.1687901372747807 0.35533320196775503
000250 d6 58 81 15 c7 f0 ca 3f 3b 38 13 67 20 cd bb 3f
       0.2104729514127885 0.10859873310548178
000260 58 49 4e 08 68 9c cb 3f 0a 37 a9 c4 bc 88 94 3f
       0.2157106438213059 0.020052861693606018
000270 dc af ec 21 15 6f ce bf c8 ef 76 06 57 ab bf 3f
       -0.2377649703643091 0.12370819003893907
000280 e8 3e 36 8c 7d cc bb 3f 05 b2 bf ce c1 46 d2 bf
       0.10858902619497324 -0.28556866827310073
000290 b5 99 81 51 88 4c d5 bf 53 43 6d ca bb f9 a6 3f
       -0.33279617271036993 0.04487406583814981
0002a0 54 61 76 d0 7c 9c d2 3f af c1 e1 05 28 f5 de 3f
       0.29080124242456873 0.4837131555023246
0002b0 eb 2a 30 ce 10 b5 b2 bf 0f fc 49 40 79 76 c8 3f
       -0.07307534250154972 0.19111552847968524
0002c0 fa 37 d6 51 62 b1 d3 bf 9f 18 a9 3a 04 d0 c2 3f
       -0.30770166389345344 0.14697316040309702
0002d0 af 10 33 5c 45 55 c3 3f e0 c7 96 80 34 ab d2 3f
       0.15103976251532944 0.29169952924269005
0002e0 38 14 30 d6 cc e8 ae 3f c5 3a 16 21 b8 98 d6 bf
       0.06036987413975975 -0.35307124358307035
0002f0 0d 67 0a 95 b5 0d de bf 5e 91 eb 78 ff 74 b6 3f
       -0.46958674959897523 0.08772274686959267
000300 c8 82 64 c0 3c 03 cd 3f b3 1e 50 78 04 61 bb bf
       0.2266612948815434 -0.10694911897018748
000310 2c b3 a1 b1 02 f6 c4 3f 7c 3c 6f f3 32 c0 dc bf
       0.16375764535350734 -0.4492308976450159
000320 f6 04 68 ee 62 45 dd bf 64 87 a2 c1 af 91 c1 3f
       -0.457360012835195 0.13725850062206313
000330 56 9d c0 a7 5b f6 c6 3f 63 68 40 63 f8 cd df 3f
       0.179393250379898 0.49694642727411614
000340 73 b7 9c b1 5a 7a d8 3f 01 e3 c7 c9 85 a3 b7 3f
       0.3824679121488465 0.09233890701569793
000350 41 55 dd 1e 22 7c d0 bf e3 61 13 a7 7c a0 b7 3f
       -0.25757649435157154 0.0922925861262978
000360 8c bf db d0 9e 56 b0 3f e7 e7 82 97 24 5c c7 bf
       0.06382172202188324 -0.1824994792748946
000370 03 45 4b d0 39 e0 b4 3f 29 12 b9 e2 3b 4c c2 3f
       0.08154641471198336 0.1429514748616765
000380 e3 fc e8 8a 39 84 e2 bf 09 1b b2 b0 4b ac e0 bf
       -0.5786407197082578 -0.5210321856583003
000390 5a fa bb f6 e6 ea e2 3f d5 4b 82 60 80 f6 df 3f
       0.5911745852498129 0.49942025589660705
0003a0 ed 61 cf 20 96 03 b7 3f a2 c4 b4 c0 14 92 c4 3f
       0.08989847470309771 0.16070804032782343
0003b0 b4 02 34 61 42 d8 bc 3f 20 ec de d3 ce 77 a4 3f
       0.11267485497593094 0.039976561892636875
0003c0 c3 d2 c5 7f f1 e1 c1 bf 16 e3 6c 2d c7 f3 b0 3f
       -0.1397077440157287 0.06621975764290897
0003d0 1a fd db d5 43 cc b7 3f f8 2f da 2c ae a5 be 3f
       0.09296058627295559 0.119715581846492
0003e0 ca ef 4b ec 62 3e e1 bf c2 5a 5a de 08 fd df bf
       -0.5388655295532712 -0.4998190089622022
0003f0 4c 7d 5b e1 29 b7 e1 3f 4a d2 7f c7 67 82 de 3f
       0.5536088372718182 0.4767093132243515
000400 d0 6a b1 06 8f 53 b4 3f ce 35 70 2e 2b 56 b6 3f
       0.07940000451473428 0.08725232967136451
000410 e6 3d b8 3f 3d ed b8 3f a9 6c 7c 0d 7f eb ba 3f
       0.09736998372704128 0.10515588835953572
000420 20 80 3b 24 b2 f6 b7 3f 2b b9 1b ac 5d 69 c3 3f
       0.09360803017216357 0.15165301231122305
000430 62 8f fe ac a1 34 d3 bf a6 68 6e 31 d9 56 c3 3f
       -0.3000873746298024 0.151087903152818
000440 8c 6b d0 bd 8a 86 e2 3f 93 0c 6d a9 52 fa c3 3f
       0.5789235789592211 0.1560767485881099
000450 d7 d4 09 44 75 d4 a2 3f 58 d5 ab ba ec 7e e2 bf
       0.03677717643305705 -0.577993740646586
000460 6f 72 70 4a e3 14 d3 3f d6 23 c2 64 2c 00 ce bf
       0.2981498934694064 -0.23438029212800754
000470 56 60 10 44 e0 ff b5 3f 27 c4 b1 44 04 d9 ae 3f
       0.08593560849874513 0.0602494558196514
000480 86 a0 49 39 ac c3 b1 3f 35 cb b5 bf 0d 38 ca 3f
       0.06939197920439896 0.204835623367751
000490 50 55 9d 0e 31 2c dc 3f f8 17 0a 3e 3e 54 d2 3f
       0.44019724299626706 0.2863917928556243
0004a0 6c de a8 26 cc 08 d4 3f 68 17 16 b4 72 ce 6f bf
       0.3130369546447358 -0.003882621793937103
0004b0 b2 4f e1 f0 a5 d8 d4 bf 0a 1e ef 69 31 93 c5 3f
       -0.32572315715264744 0.16855447456895006
0004c0 a5 83 6b d6 fc 9c d9 bf bb 31 70 88 fe 62 d8 bf
       -0.4002067655510991 -0.3810421306996223
0004d0 27 bf a8 27 0f 3b b7 3f 1c c8 2e a6 a2 4d a3 3f
       0.09074492185822845 0.037701685701350324
0004e0 5f 9d 30 64 70 ac b5 3f 0a 6f ba 81 d5 b9 ae 3f
       0.08466246076624405 0.0600115509853066
0004f0 50 f7 88 d5 b4 32 e2 3f c8 2c 3f bb fa 00 d0 bf
       0.5686897440534526 -0.2500597790319259
000500 b3 0e 09 56 cd 80 d3 3f 87 0d 4f 30 4b 75 be 3f
       0.30473645593540793 0.11897725991643969
000510 dd c2 a9 1b ce 17 c7 3f 7d b9 e2 37 0b b4 d3 bf
       0.18041397429217101 -0.3078640027769309
000520 69 fe 39 e9 02 28 e2 bf a4 42 12 c6 19 92 c7 3f
       -0.5673842005925965 0.18414613887263898
000530 8d 28 2f b8 5e 14 b5 3f 0b 02 cf 81 fc 28 a5 3f
       0.08234207150158764 0.041328326078204546
000540 7d 37 72 b4 03 2d c6 3f 41 91 3b dd 5b 97 d5 3f
       0.17324873267028443 0.33736321072344216
000550 9c aa 60 d8 42 4b c4 3f 00 f9 c9 09 f1 e6 b8 3f
       0.15854678693115865 0.09727388848293472
000560 44 de b4 b4 e6 6d bd 3f 09 7a b1 80 8d f1 d3 bf
       0.11495820915012539 -0.31161820953084934
000570 17 32 10 40 42 4b d3 3f cc 9a d3 90 ba 66 b6 3f
       0.30146843200853496 0.08750501666836924
000580 ba f6 cd 48 4c fb b3 3f 63 6b ba fe a6 9d d0 bf
       0.07805325295881974 -0.2596223342495049
000590 59 63 11 a7 c9 12 d4 bf 6b d1 ff e5 28 ac a2 3f
       -0.31364671054102683 0.03646972472771178
0005a0 48 e1 e8 e0 d6 93 bb 3f 84 63 64 9e 0a 63 dd bf
       0.10772459975203674 -0.4591700121687199
0005b0 d3 83 43 f9 72 ac db bf 42 8d ba 21 d2 81 d9 3f
       -0.4324004587379566 0.39854863447017774
0005c0 fd 5a 33 9b 63 7b c7 3f 3e 41 06 4c 68 a0 d6 bf
       0.18345303609995503 -0.35354049133549725
0005d0 f1 3d f6 69 b7 bc d5 3f 1f 11 95 43 ea 66 cc 3f
       0.33964333865966895 0.2218907194129622
0005e0 11 6d 5d 93 05 8e d9 bf ad b5 c5 49 5d 01 e0 3f
       -0.39929332152469593 0.500166553579836
0005f0 8f d8 d0 eb 17 c7 d5 3f 71 c0 00 23 96 fb aa 3f
       0.34027669934165145 0.05270070245058001
000600 7e d6 26 4b fc 43 c0 3f 95 de 5c c0 44 90 cc 3f
       0.127074753470584 0.22315272705758518
000610 90 1d ef d1 ce 3f e0 3f bf dd 2b c8 d2 e6 bd 3f
       0.5077890491747201 0.11680333506580264
000620 b9 75 a0 63 3a 9f c8 3f 25 19 58 ad 77 f2 a5 3f
       0.19235925545301116 0.042865505132839744
000630 d0 a1 4d 19 79 7d cc bf 8c 7b 2e 97 f5 70 c2 3f
       -0.22257913337240476 0.1440722454253457
000640 9a fd 05 ec 40 3d b6 3f d5 36 0a 27 00 30 e0 bf
       0.08687215578355847 -0.5058594477174788
000650 e9 31 21 cb 3a 2b d0 bf 5e 41 eb e0 6c 86 a4 3f
       -0.2526385291755831 0.0400880837020192
000660 24 79 e3 90 15 c4 c4 3f df 03 ca 63 aa 7b c5 3f
       0.1622340161765773 0.16783647415652944
000670 b6 34 fe 63 20 d6 dc 3f 69 28 30 49 dd 80 e2 3f
       0.4505692459577618 0.5782305173354533
000680 4f 92 77 df 3c 4f da bf 5c 1f 85 9d 3f 1d c9 3f
       -0.4110862905784289 0.19620509330183722
000690 0d dc d2 4b eb 04 da 3f 1e c0 95 af 0d ea df bf
       0.4065502396073846 -0.49866048953026787
0006a0 54 4c d7 b4 5a b6 e1 bf 7c a4 a5 3a 26 82 c3 3f
       -0.5535100490618654 0.15240934241890958
0006b0 d0 76 95 54 f7 dd ca bf f9 23 49 d3 13 45 ae 3f
       -0.2098988688475658 0.05912076906367498
0006c0 42 39 7b f6 26 8b c1 3f 46 60 db b6 3e d1 c9 3f
       0.13705908808919715 0.20169814995347418
0006d0 25 5a a2 38 e4 0a de bf b7 b5 d2 a5 d0 16 db bf
       -0.46941476374323293 -0.4232675189367358
0006e0 c1 b8 2c f5 86 18 c7 3f a1 5f 33 0b ee 86 d2 bf
       0.18043601008816348 -0.2894854649907704
0006f0 a7 45 e3 db ae 4e d1 3f 08 4d 65 db a6 46 c9 3f
       0.2704274318067185 0.19746862137490262
000700 b9 89 45 32 44 e0 df 3f 10 d7 0f f3 c8 f6 d6 3f
       0.49806313428248533 0.35881255852233185
000710 7e 47 6b bc 83 11 cc bf 52 e9 88 3d f8 6e ad 3f
       -0.21928450298451801 0.05748725653798438
000720 31 08 df 04 0e be d7 bf bc e9 6b 95 b4 db d1 bf
       -0.3709750220842834 -0.2790347537226372
000730 16 c5 b4 eb 8a 56 b2 3f ca 21 1d 91 16 7f bf 3f
       0.0716330361799645 0.12303296130006128
000740 12 0e 9b 4f f8 91 b2 3f af 13 c3 cf f8 24 cb bf
       0.07253982490060931 -0.21206579346303786
000750 e1 b7 9f ea 5a c1 c7 3f 4f 6d 3a a7 0e 60 b5 3f
       0.18558823066945165 0.08349696715088338
000760 43 c1 a8 34 e6 e8 bb 3f 15 42 ed d6 31 5b b5 3f
       0.10902251039147352 0.08342277047382425
000770 a2 7b 63 ae e9 3e d8 3f c5 ca a9 be b7 49 d0 3f
       0.3788398936284755 0.2544993745752147
000780 bb e5 1f 6e 9d 34 af 3f e2 6f 3b 32 4c 74 b2 3f
       0.06094829530043052 0.07208706117984279
000790 36 30 cb 93 30 00 d1 bf 2b 64 4f 6e dd f3 c4 3f
       -0.26563658173541016 0.16369216810451923
0007a0 11 34 f4 dd e1 53 e3 bf d1 6e 79 30 fe 02 e0 bf
       -0.6039895377194872 -0.5003653475536912
0007b0 9c fa 0c f9 c7 9a e3 3f 18 4c ac 1d da bc de 3f
       0.6126441826125588 0.4802766122604125
0007c0 40 ff 24 8e 5c 3f d0 3f 36 1c 09 b1 8d 09 c0 3f
       0.2538672817354275 0.12529154915157087
0007d0 ca 72 9f 09 82 51 b0 3f ea fe a1 32 6a 2b a3 3f
       0.06374371275837656 0.03744060390545008
0007e0 5a 45 37 65 1d e3 b7 3f 62 36 7d b2 ce 28 d4 bf
       0.09330924721804959 -0.3149906867082334
0007f0 83 a8 b5 74 4e 19 d4 bf 73 b1 e3 1b 0f 19 d6 3f
       -0.31404458424970744 0.34527948115898893
