trotterization/Order_n6/Cycle_q11/q11_parameters_b.npy (npy, 36224 bytes, 1 tensors)

array f8 [752, 6]
0	0xbfe107c14ea9167a	-0.5321966682756305
1	0x3fe6cee18ec1c6e7	0.7127540386411199
2	0x3fdd72506854a197	0.46010217846426243
3	0xbfd0b86aa73ce9ff	-0.26125589687185874
4	0x3fb78403390908e1	0.09185810224974801
5	0x3fe0eb6c783a52aa	0.5287382457923588
6	0xbfe45d19512bf9ac	-0.6363646111856744
7	0x3fee67a377c58070	0.9501511897360739
8	0xbfc9940000971c73	-0.19982910183736954
9	0x3fbb8468537ea34b	0.10748912847942653
10	0x3fe25abf556fe05d	0.5735775631610626
11	0x3fca3ca5e6b22e45	0.20497583164648084
12	0x3fcea313e07bd085	0.23935173474422214
13	0x3ff1a260e44c7308	1.1021431844630474
14	0xbffada8c6d32b3c2	-1.6783565774487532
15	0x3fb0a8a2486e9699	0.0650731493793394
16	0x3ff02d9f12e43043	1.011138032717114
17	0x3fd0ae7f55aeb3f1	0.2606504761450302
18	0x3fcea80e02c34fb7	0.23950362334164563
19	0x3fef7b474156f91e	0.9837986255804798
20	0x3fb72ad3014c82fd	0.09049719602309021
21	0xbffec3621a76c5ac	-1.922700980543918
22	0x3ff541a8f6ebb01b	1.3285302777612802
23	0x3fd1f19a49c99b6c	0.280371257837422
24	0x3f7c10a77fb8afd8	0.006851820271133811
25	0xbfa1641e088e7714	-0.033966959518904855
26	0x3ff051e82ca875fd	1.019996809430608
27	0x3fbbce6109205a4b	0.10861784432231862
28	0xbfda917c6a24731a	-0.41512976041285443
29	0x3fd41284984d70b6	0.31363024590769883
30	0xbff26d5f19f36013	-1.1517020238588926
31	0x3f9f0f02234ac467	0.030330689815574987
32	0x3ff67200aed56b6d	1.4028326825561763
33	0x3fda9dee1558f482	0.41588928303446704
34	0xbfade2ad88fd2a30	-0.05837003991344536
35	0x3fd71af12609d717	0.36101940836611973
36	0xbfe0c8579baccb8b	-0.5244558373000116
37	0x3f51fa11f697f6ce	0.001097219030611485
38	0x3fe77499134fc608	0.732983148305892
39	0x3fdc93e45e2726f1	0.44652661509154173
40	0xbfad303fb9f4fa8a	-0.05700873513204836
41	0x3fd9a7a697daeb6f	0.4008575900040147
42	0xbfe2fe5361bed684	-0.5935456189242392
43	0x3fe8ec3680e9837b	0.7788345830741571
44	0x3fdd47e742804238	0.4575136327194147
45	0x3fde4f19f526ebf0	0.4735779661238544
46	0x3fc10cfa7c3f735d	0.13320857111730336
47	0xbfcff2896838838b	-0.2495891341104904
48	0xbfe4b905c1b2077f	-0.6475857527841383
49	0x3feda6e9d4c35b3f	0.9266251712350381
50	0xbfb2d22f97a76160	-0.0735196824310882
51	0x3f7fa5a91343f096	0.0077263454916157905
52	0x3fe0208fca45f9a6	0.5039748144770797
53	0x3fd2190d86ee2dcc	0.2827791040114931
54	0xbff115b574c1df01	-1.06780000313114
55	0x3f925220cf95cc7b	0.017891419095985555
56	0x3ff5fb29d2f1e3fe	1.3738191833529068
57	0xbf98d68127bf1049	-0.024255769778179368
58	0x3fdcb999524128e2	0.44882805855435326
59	0x3fd018db3a815769	0.251517111906074
60	0x3fce100e3bdff6f8	0.23486497806145912
61	0x3ff29c19f2407a7f	1.163110681816448
62	0xbff4e95332d6c41c	-1.306964109983034
63	0x3f66efc832486da8	0.002799883850696811
64	0x3fe2f310ed2c15f3	0.5921711570996976
65	0x3fd418dc79ac6e35	0.31401740915473236
66	0x3fb4a858efbfa96a	0.08069377759207944
67	0xbfb00c019870154e	-0.0626832005655917
68	0x3fe16bdd1deb3ad6	0.5444169601776945
69	0x3fee8e3e4bdb1cce	0.9548636895714482
70	0x3fd1339f23a98f8b	0.26877573473597555
71	0xbfe92775e68511ed	-0.7860669615116059
72	0x3fb494012fde9153	0.08038337153135915
73	0x3fecf51263ea3871	0.9049159957373957
74	0xbfeeced092bd7014	-0.9627459398284395
75	0x3fe2cc2fead2aff1	0.5874251924883521
76	0x3fe04f562e8e6dd5	0.5096846494010899
77	0xbfbea240844dc268	-0.11966326932975735
78	0x3fbadce09d8a8fa3	0.10493282171461131
79	0xbfb11e95ca3117b8	-0.06687294184038606
80	0xbfed7101e3949c86	-0.9200448460513975
81	0x3ff82a344df6c5cf	1.5103037877528214
82	0x3fde7da60711ac87	0.4764189785989363
83	0xbfbad018b267a2c5	-0.10473780017458541
84	0x3fb88a684926e464	0.09586192880569083
85	0xbfb1758eb67b4ac7	-0.06820003466718126
86	0x3fe1ef82360ab2a5	0.5604868941787414
87	0x3ff651f3faedd1ce	1.3950080682671913
88	0xbfe1bd6f1102b6ab	-0.5543742496717717
89	0xbfdb712c9a722594	-0.42878260691267056
90	0x3fc670b66e5acb7a	0.17531471622859468
91	0x3fddd649d60ee9c6	0.4662041273510592
92	0xbf9f9522df7c0c8b	-0.030842347040572576
93	0x3fc18ce2584f694e	0.13711194335958016
94	0xbfc2dc6fc00754ba	-0.14735218883894224
95	0x3fd99273d49766fc	0.3995637489402808
96	0xbfe4db05ca34375d	-0.6517361592575345
97	0x3fec6b7a2aa0c977	0.8881197769717762
98	0x3fda1501e331c98a	0.40753218829117854
99	0xbfc55fa7dc713d1a	-0.16698168052469314
100	0x3f71e4f7f9b9e718	0.0043687521498385826
101	0x3fe0992ab5236499	0.5186971223694342
102	0x3fb67f6cb0b652a4	0.08788184465658816
103	0xbfaff1759175a283	-0.062389062887466394
104	0x3ff10c8de47a6697	1.0655650067259665
105	0xbfffe94cab44cb55	-1.9944578828987762
106	0x3ff9d20310e3b15c	1.6137724551909605
107	0x3fd289425d9bed30	0.2896276392127275
108	0x3fabb0230fa2f321	0.05407819333911435
109	0x3fe50886f6a250ab	0.6572909180709038
110	0xbfe69977839b4296	-0.7062337465705066
111	0x3ff3154767ad3d3c	1.1926950502273277
112	0xbfdffa074da9e9d4	-0.49963553032253327
113	0x3fd350c666f27a56	0.3018051152556941
114	0xbfeb68622266cdec	-0.8564921066194393
115	0x3ff30f75612fccf7	1.1912740513187694
116	0x3fe52eaeea33d543	0.6619486402766274
117	0x3fc45dad0c93c4d2	0.15910876382944267
118	0xbfd98e3ff270d896	-0.39930723834857795
119	0x3fcf29f4af9b6743	0.24346788954317775
120	0x3fc4fd5fca2bc8d4	0.16398236629135587
121	0x3fd9825057b2bed8	0.3985787254741644
122	0xbfc892708c299a78	-0.19196898311493604
123	0x3fb1b580c2708420	0.06917576548632143
124	0xbf5943e1a4d263fd	-0.0015420630982474475
125	0x3fe1fa0ddd2a6dab	0.5617741889613418
126	0x3fc8a4277f8c026b	0.19250959136845167
127	0xbfdd19bc17e5f05c	-0.45469572385605317
128	0x3ff9cf9d4d25d8b7	1.6131871236407684
129	0xbffc971b622c6370	-1.7868913493059289
130	0x3ff134044406e164	1.0751993806171294
131	0x3fd7158f9c1e9478	0.3606909775356324
132	0xbf9b80fb8db2ce35	-0.026859217189395507
133	0x3f81b79adc879367	0.008650979857472497
134	0xbf98ea2d29d2a954	-0.024330812146822936
135	0x3fe12c97b4904c7d	0.5366934324869274
136	0x3fe5a6e80e51dedf	0.6766243247684222
137	0xbfc5dc13a26077b6	-0.1707787077766036
138	0x3fcdde86452c825f	0.2333534086001405
139	0x3fde69353f5fe046	0.4751713866130597
140	0xbf95879cb29ea774	-0.021025131609043027
141	0xc0023b467700fe8a	-2.2789429948023257
142	0x4001cd14bc7b1953	2.2251372075144586
143	0x3fd7718f3d62f2b5	0.3663061236837096
144	0x3fe2739581af881b	0.5766093762324574
145	0x3fad4991c6ccb7c3	0.057201915280856074
146	0xbfc58c005868e584	-0.168335002106499
147	0xbfcfa3f7e5ea09a1	-0.24719141699104077
148	0xbfbda8fb179c6fad	-0.11585969282572135
149	0x3fecb8eed46bf628	0.8975748204099476
150	0x3fd81be81b3a04f9	0.3767032876858845
151	0xbfcddd8aab162d26	-0.2333234153160017
152	0x3fcc58d0da38d41d	0.22146044402475776
153	0xbfa056e2cf89c6b0	-0.031912887415172064
154	0x3fda33352c64ba95	0.40937547049808504
155	0x3fd07e1bfac125cc	0.25769710052244643
156	0x3fdbbf39a0a6eb4c	0.433546454321619
157	0xbfceac6c4503eca3	-0.23963693017853868
158	0xbf83de0b59aa9479	-0.00970085971250455
159	0x3fb63360b4b83a99	0.086721462365157
160	0x3fd995c6bf5ba99d	0.3997666233759903
161	0x3fd5134df01ea766	0.32930324982827697
162	0xbff0349639088d8a	-1.0128385761134688
163	0x3f933098246cc312	0.018740060065456872
164	0x3ff3f62fcdcfb1f4	1.2476041831497442
165	0x3fdf01d4676f3085	0.48448667622574987
166	0x3fd0e7d362a7c68d	0.2641495192939168
167	0xbf618bcfbd2a765d	-0.002141862621398967
168	0x3fe5d9ae0a03aed0	0.6828222461312752
169	0x3fb281f2b70bbae0	0.07229535073177429
170	0xbfd512458a0f4ff5	-0.32924021227267924
171	0x3fec441456383d36	0.8833104785898402
172	0xbff18e0250b1dd2e	-1.0971701767101183
173	0x3fe93726af4dfef5	0.7879823135299079
174	0xbfe0bf72725bcfb9	-0.5233700021330981
175	0x3fd2187ecfe26338	0.28274507809833294
176	0x3fe88e88ad9a6e98	0.7673991575897672
177	0xbfc10aca39638723	-0.1331417827814728
178	0x3fb39e89d4f9e6f8	0.07663785409559043
179	0x3fe0f38bb089d46e	0.5297296951308803
180	0xbfd0b364639daa8e	-0.26094922760118144
181	0xbfb3850833d3d75d	-0.07624865784950204
182	0x3ff1e819d92f37f8	1.1191652759330264
183	0x3fbb30f5f4055fb3	0.10621583182853449
184	0xbfd09a2dd6f60d94	-0.2594103430967263
185	0x3fd7c22f65ca762e	0.37122712078584896
186	0x3fdfe2d150f62a25	0.4982188501968799
187	0xbfb3ee1129875e86	-0.07785136474501017
188	0x3f94b5eef1f07f40	0.020225270764171244
189	0xbfe5f2f81f2ca1ee	-0.6859093293069785
190	0x3fdfac7f386ff4ef	0.49490337859590644
191	0x3fe80362881afa3a	0.750413194495031
192	0x3fc62c55208298f7	0.1732279213658285
193	0x3fd6f3f81e2f0012	0.35864069888703043
194	0x3fe14ec0ec369fe2	0.5408634770910761
195	0xc00481699db07be2	-2.563189727733957
196	0x3f7d1b7412c07741	0.0071062597380924806
197	0x4003dde752cb6a1c	2.4833513706519295
198	0x3fe576aa2018f261	0.6707354189780511
199	0xbfd0f2f97a13076b	-0.2648299877292774
200	0x3fec24152d1088f1	0.8794046287696614
201	0xbff4f88af0039ac0	-1.310679376177788
202	0x3fba50063f3eae53	0.1027835754782072
203	0x3fed85d287ff681a	0.9225857406811457
204	0x3fe0f2907c9d2b38	0.5296099122873335
205	0xbfb916575b2f036e	-0.09799715019381747
206	0xbfc98688688c1c43	-0.19941811661576211
207	0x3f779e1b516b7e5b	0.005766016684645682
208	0xbfd661b091c114f0	-0.34971250757037264
209	0x3ff1c9bc4d94b7e1	1.1117518454079731
210	0x3ff104159ed2777e	1.0634971813192062
211	0xbfb70286a412b34b	-0.08988229280175834
212	0xbfefb1ec1e802949	-0.9904690356936864
213	0x3fe57d95c4f85034	0.6715802046842385
214	0x3fddf3f2cf22f3e1	0.46801443317582253
215	0xbfbf6bebb961cb70	-0.12274049068382253
216	0x3fe0edd56cf8febf	0.5290324333545512
217	0xbfb82040c26f298d	-0.09424214121751202
218	0xbfd3568a8fc47100	-0.30215705909519386
219	0xbfafed32a91f65c5	-0.06235655130849297
220	0x3f8d62159a952e3d	0.014347237377157923
221	0x3fed4ac2c75ec095	0.9153760808894896
222	0xbff13b844792e552	-1.0770304485179918
223	0xbfc3e3a79fdf9c49	-0.15538497263261977
224	0x3fc4db62ca6eca60	0.1629451263848578
225	0x3ff5c229a6df6078	1.359903003545723
226	0x3fda5acdca2c9b7b	0.41179222816065647
227	0x3fd30ebf2359e0e0	0.2977750630593743
228	0x3fd4ec6bd198f881	0.3269300028658862
229	0xbfd12ec8c5c8571e	-0.2684804851027013
230	0xbfce59636fe2b4ea	-0.2371029182735705
231	0x3feaf88d3c4f9998	0.8428407838771816
232	0xbfbbbe9d99fe817b	-0.10837731370566488
233	0x3fdc6d9b9a012642	0.4441899303388689
234	0xbfedd96fa92f395c	-0.932792501867691
235	0x3ff59980899c7597	1.3499760985790539
236	0x3fe8554d83dfe77b	0.7604129386593138
237	0xbffad05f7adc1ee1	-1.6758723067486516
238	0x3faa581e3b4cbd58	0.05145353769182276
239	0x3ff7262f120cec4f	1.446822233686152
240	0x3fcfc4c2f62cb73a	0.24819218654868697
241	0x3fd9b93d55713699	0.4019311270138615
242	0x3fb2bf0868a34089	0.07322742991095955
243	0xbf8c5d9b16e04dd3	-0.013850413928628768
244	0xbfc16ae70e9518c0	-0.13607490741759953
245	0x3fdb4cff75512c76	0.42657457787272024
246	0x3fda0319ca7a4496	0.4064392545051957
247	0xbfb5fc3ff16500eb	-0.0858802761404182
248	0x3fc97251c1323964	0.19880124982268932
249	0xbfa689120727bf6d	-0.04401451432556667
250	0xbfeb4b56de3504a0	-0.8529466953260858
251	0x3ff60aa753a53808	1.3776009814641856
252	0x3fe7792425b0fe0f	0.7335377441558552
253	0x3fc60f267af4d5e0	0.17233735088090807
254	0xbfeb48f4961e69ba	-0.8526556903846576
255	0x3fdbe8380007445b	0.43604850771686693
