trotterization/Order_n6/Cycle_q11/q11_parameters_d.npy (npy, 66304 bytes, 1 tensors)

array f8 [752, 11]
00000000: 7fe0 180b 2f2d cb3f ce83 bc12 8d6a d73f
00000010: 6f01 875f 30c6 c83f f0be 1e2b b109 bb3f
00000020: 3b7a f931 1ed2 cf3f 7b16 a94e c107 d1bf
00000030: 1d27 14d7 4997 bb3f 3584 8aa5 efda bf3f
00000040: b9f5 6183 4dbf d4bf b562 9bab 0c7a d4bf
00000050: 4213 6f95 a7a6 aa3f 9824 799a 5c18 b13f
00000060: d1ec 730b fc3e c93f c704 3214 b8c8 dc3f
00000070: 3049 8a8f 5ca9 d33f 6507 4774 2574 d33f
00000080: aef9 2b51 195d d4bf 0ef2 fc06 fce6 c53f
00000090: 5110 b08f 5c0e dabf 6130 c209 2b58 d9bf
000000a0: c3a7 d73e 05ed b63f 3c13 7298 9248 a23f
000000b0: 6688 190d 100a b43f 7495 12ea 3645 d93f
000000c0: 5a37 b549 011e e03f b169 fc4b 07da d8bf
000000d0: 8e0d b248 d337 c53f 82d0 7be0 13a3 be3f
000000e0: 48df 3f24 d8a8 d83f d5fd 688e 11db dcbf
000000f0: e29b 5c4a ee26 debf 402c d7ee 1c58 bc3f
00000100: ecbe 873c dda5 aa3f 16f6 ea9d aa59 b53f
00000110: b051 cadf 5b58 e03f adca d67b 02ad dcbf
00000120: 5a41 eacd 8484 dcbf e4c7 6e3d 7dcb bc3f
00000130: b44f c302 0ea8 be3f 2447 fbf1 6748 d83f
00000140: b9d1 132e df69 df3f 5660 8bdc e06c e0bf
00000150: a979 855c 34a5 c33f 7881 50eb 1313 ad3f
00000160: de83 f51e a98b b93f 59b9 4c23 eebb dbbf
00000170: 5b07 cf50 458c dbbf 0379 8afa c601 c83f
00000180: 8a98 865f e3bc d5bf 60af b87f a710 6c3f
00000190: 16b1 fd7e a1a6 d43f 76af 0bdc eca2 d43f
000001a0: a212 f371 1106 df3f 95ff 74dc 5fe6 cc3f
000001b0: 0cbb 4a23 c032 ad3f 8d07 8ba4 40fd c03f
000001c0: ecb0 067a 2d14 c53f ac32 4b73 0d3b ba3f
000001d0: 88e9 ff45 fa9f e13f 9bb7 e144 bbb0 e43f
000001e0: 1360 f319 5f6d e2bf 888c 543c 7f34 e4bf
000001f0: 9707 56a3 1948 c33f 5db6 66b7 ce00 bb3f
00000200: 2f56 262b 83d0 c8bf 323e fb05 c276 a83f
00000210: 9dfa 9728 3245 c33f 2769 0a99 6a95 ce3f
00000220: 346f ca72 6f15 ba3f 56ae c222 4e19 cf3f
00000230: 72ab d9ea e0c9 e7bf 8acb ac9b 57c8 d0bf
00000240: 7151 576f 5fce e73f 7fbb b907 c89f bf3f
00000250: b9de 8349 5912 bf3f 3984 2448 b91d d1bf
00000260: 5cc3 0bbd d189 a93f dd90 b32e 7dbb d3bf
00000270: 901a c5a6 f776 d1bf 5cd7 d782 55d2 b63f
00000280: 7c95 30b1 454f ba3f 8008 4c99 a7fa d13f
00000290: 85d6 be61 53fe d2bf e6eb 759e 3bc6 bb3f
000002a0: 77f7 e769 4420 c03f 3f00 bb33 efe5 c23f
000002b0: 66f7 d445 36ba d53f f1df 4aa9 b57d c73f
000002c0: 680e 10f8 8f91 b63f d1dd 010a 2f94 c43f
000002d0: 711f 9756 2cf5 e0bf f471 8108 1a4e cf3f
000002e0: 1468 ddc8 4a96 d33f 7f07 b2c1 05b9 d4bf
000002f0: 58e6 cb17 3e21 c43f 25a5 35f7 5201 d2bf
00000300: 6263 aaff d114 e13f f82a 1415 e159 b73f
00000310: 659a 982b 1641 ab3f 0671 a9fa 54e6 b33f
00000320: 33ca dbe0 fd28 c13f 936c 489b 91d8 d13f
00000330: 0f5a 4315 6466 e03f 17bb 05e7 b516 e53f
00000340: 00df c174 b515 e1bf e363 c763 6dcd e4bf
00000350: c327 baf6 1653 c63f 1265 86a4 459f d2bf
00000360: 6bbd cae2 3621 b73f b27b b2f4 c296 a83f
00000370: 935d 7f45 b854 b73f 3e92 52ff e2ea c93f
00000380: 68a4 0ca2 7935 e4bf e4f4 affb 67f1 d7bf
00000390: 3234 d189 52d0 ca3f f0f6 df3b 0e10 be3f
000003a0: e15a 989f 0ad0 d73f 5893 fd69 3ee1 d1bf
000003b0: 9dc8 2586 f140 e43f 4133 0bb6 7df6 b73f
000003c0: c77e d9ad 00dd b03f c9b8 6752 443f e0bf
000003d0: 15bd 9bad 794e d8bf df60 4148 1613 be3f
000003e0: b813 d47d d331 c23f 83df 98a2 8603 d0bf
000003f0: 6da9 bfef 58a8 a43f b4b9 15df 0c04 cc3f
00000400: f661 02be e6a5 c03f 97c4 cab9 7809 d73f
00000410: 6e42 b89f 2474 e03f 987e 29f9 4a5c bd3f
00000420: 12b2 1951 6242 c8bf e13b ee59 7aff ba3f
00000430: 3686 ab43 cfc1 c43f df63 b35a 3449 e8bf
00000440: 8c57 5450 b9a7 d3bf 5091 de2f 0194 a43f
00000450: fe47 1fda 654e e83f aa57 a922 98c3 d13f
00000460: aad9 f991 90d6 c03f b8bd 2530 ef1e c33f
00000470: 7741 0630 d299 c03f 17b1 d9c8 6ae2 c7bf
00000480: da2b 5967 9575 b93f 5324 dc18 c5e6 e33f
00000490: 1b44 20ba 4b8e c43f a934 676d 04d6 d2bf
000004a0: a98f 8a9d e0dc aa3f b311 21b4 31b2 d03f
000004b0: 495f 52e0 13dc e3bf f185 6ad4 bc0d c13f
000004c0: 9d16 6553 dbc2 c13f 69c8 3f9c 642e c13f
000004d0: 2a8c 4525 37e1 d4bf 0b05 ffe5 16c3 e2bf
000004e0: e96d a1a8 2cf5 bb3f 1831 80ec a4f4 c23f
000004f0: f0fd 4669 1b1a cfbf 63e4 2649 688a a83f
00000500: 3e2b a8bb b7bc ca3f 3234 957f 5fea c03f
00000510: 11a4 d965 4ed3 e23f 6b53 fbba bec8 d33f
00000520: 80e5 3160 83a2 bc3f e3b4 cfef f938 c23f
00000530: 3dc2 c277 f042 e8bf 5da7 fc44 286d e6bf
00000540: 8959 c3a5 fea1 d03f fe89 39c7 44a8 b83f
00000550: 76cb 5a6e b670 b63f c324 7272 2782 c13f
00000560: ef39 bfbc a79e d1bf 8594 0690 c49e e83f
00000570: a5d7 c17f 62e7 e53f 54c8 1e93 e765 ad3f
00000580: c0f8 3911 5cb0 c93f 2dc9 1423 7a7d e2bf
00000590: c371 5b02 69bd c23f d78e e4c8 7293 b73f
000005a0: adc9 bcc3 a27d d33f 5d37 34ca 05db d4bf
000005b0: 94ff c7cd aedb c13f 3c04 7ffd 9096 bc3f
000005c0: 5110 94f0 3c6d cdbf 1483 0e1b 5f8f e23f
000005d0: c541 3364 e507 ae3f a633 b9d9 f00a b83f
000005e0: 3c51 5315 1b7e e43f bd52 bc63 4712 d7bf
000005f0: 24ad c867 7dd3 c73f 0613 08e5 b550 d7bf
00000600: a652 b6b0 6c7f a63f dfb8 f08b 9e51 d53f
00000610: 9d76 1015 5d2f d63f f6a1 66f9 2860 e4bf
00000620: 8080 41ee 9f4f c53f 764d fdc2 270f aa3f
00000630: 1b1d f160 000e b93f dfd1 d710 97dc d9bf
00000640: 5dc4 3415 5275 c93f b3e0 b3cf 3f37 e8bf
00000650: 6640 b2e4 7593 dbbf 24f3 a20f 23b0 9b3f
00000660: 8948 aa6d fe4d e83f d07e cc1b 08d5 d93f
00000670: 4a18 c0c4 e56f d93f ebb9 05d4 26bf c33f
00000680: 26af e7d9 1827 ab3f 97bb 8caa 0ed5 b13f
00000690: 9cdf 8d7b 8a35 d8bf 294c 4422 66c6 d5bf
000006a0: 6352 0868 a4d4 b83f 267a 75d7 99ae da3f
000006b0: eccd 6622 6268 dbbf 8f3f d4d5 a1e0 c63f
000006c0: 5381 63a0 0bf3 cd3f 5d3d 6965 d1dd da3f
000006d0: a1e6 aa04 d5dc c63f 5357 1d0a cca9 aa3f
000006e0: 8c6c 6648 2c6f cb3f ad2d 211f 5242 e8bf
000006f0: da18 5c84 b3d6 dd3f e2d0 ff13 7e56 d23f
00000700: 91c4 ca4b 8015 b53f d1c8 2bca 5ffd b43f
00000710: 19b9 9a63 20ef bd3f 8237 0a37 1a7b d8bf
00000720: 5708 0e6c 03a0 dbbf 13f9 b726 013c e83f
00000730: 8fdd dce3 de09 b13f 2cb4 bec5 ffb4 bb3f
00000740: f2ee 399f d0aa db3f 05d4 cba5 7531 e0bf
00000750: 6743 733b 6e6a d33f 6cd5 7612 40d2 c33f
00000760: 6602 8c7f 27a4 b83f e662 2e15 fe75 d8bf
00000770: 0237 6c2f 661a e03f d81e c178 4bcb d8bf
00000780: 504f 4fa3 dff4 ba3f ba74 7e72 1f76 b23f
00000790: 465f c703 a8c5 cbbf 3d51 2b27 e8d3 c23f
000007a0: c701 1df7 b01e c13f 4c60 de58 f15f e6bf
000007b0: db52 531b 19cf ec3f 1ece b28d fb80 8bbf
000007c0: b443 9ae5 a9ab ecbf a715 37a4 48fc e53f
000007d0: 3697 0372 7e3a c13f 846c 78f5 e779 c83f
000007e0: 6e23 9732 9ed7 c03f 1c2d bb09 5c61 c03f
000007f0: b6d4 e096 e753 ea3f 7438 5256 c24d d4bf
0.21231639901975893 0.36587836103177274 0.1935482469980445 0.10561663916336861 0.24859979095613646 -0.2660983341378153 0.10777722836442334 0.12443445006876248
-0.32417619543397397 -0.3199493099068989 0.05205272387642036 0.06677798053091732 0.19723463591785742 0.449750919076973 0.30721200959773665 0.303964007904247
-0.31818230559283733 0.17111158696378975 -0.40712656051642165 -0.39600635483725993 0.08955414566267365 0.035709935292322886 0.07827854461496173 0.3948495183816114
0.5036627235037756 -0.38830740376001943 0.16576615380845933 0.11967586737211103 0.3853054384230643 -0.4508708849643573 -0.47112614881410597 0.11071949797694547
0.05204669345755328 0.0833994517842814 0.5107859965233299 -0.44805967420249254 -0.44558830365078494 0.11247999906370826 0.11975181167082277 0.3794193137265316
0.49083690166233 -0.5132908160694665 0.1534791423573101 0.056786177134429516 0.09978730207286854 -0.4333453507159866 -0.4304364480159301 0.18755423768465826
-0.3396538193577575 0.0034259101355668536 0.32267033959830493 0.3224441670306456 0.4847453701770893 0.22578047050955932 0.05702782088098077 0.13272865328150055
0.16467827280337788 0.10246357025898573 0.5507785193615726 0.646573671850763 -0.5758510119294463 -0.6314083269429753 0.15063782191651562 0.10548107125824786
-0.19386329276010048 0.04778105090155939 0.15054919225800215 0.2389348265904314 0.10188957741268895 0.2429597539643164 -0.743393381778658 -0.2622279186500057
0.7439419912939639 0.12353182018862972 0.12137373013308207 -0.2674391941564554 0.04987960274400535 -0.30831842003523297 -0.2728861931431448 0.08914694256222105
0.10277209831163775 0.28092374773417106 -0.29677280946211965 0.1084935438029074 0.12598471804806952 0.14764204049970606 0.3394904787017964 0.18352385297998766
0.0881586056348681 0.16077220905911685 -0.529928368684507 0.24457097449602794 0.3060481034823408 -0.32379287639206916 0.1572644821351783 -0.281330815711572
0.5337915414303149 0.09121519817942303 0.053230946370878475 0.07773333663630319 0.1340634677831801 0.2788433090624462 0.5124988951964172 0.6590222847133614
-0.5339000015655699 -0.6500765751653684 0.17441069648003635 -0.2909711939515357 0.09035056149399671 0.048025219316733994 0.09113647171704135 0.20248067347451298
-0.631527725699141 -0.3741092641719901 0.20948249558787918 0.11743248903072945 0.3720728453203446 -0.27937279081952715 0.6329276676244892 0.0936049050753356
0.0658722328603246 -0.5077230081058356 -0.37978975252095043 0.11747874511764021 0.142145573081647 -0.25021520498875577 0.04034688879603974 0.21887360470595996
0.1300629070072003 0.3599530996680839 0.5141776198889383 0.11468952735003268 -0.18952588043193025 0.10546078391619985 0.16216460041236908 -0.7589360972880249
-0.3071120533435241 0.04019168576567955 0.7595700512122219 0.2775631273738052 0.13154799583180693 0.14938154078434507 0.12969424576705155 -0.18659720236917884
0.09945043347504115 0.6219201551003927 0.16059252346215733 -0.2943125790014372 0.0524664108573057 0.26087610808124423 -0.620614946487856 0.13323173877601804
0.13875905582442707 0.13422830228188623 -0.32624605789004824 -0.5863146297562322 0.10920981518704988 0.1480909495152296 -0.24298422470563663 0.04793096440284541
0.208884207372046 0.1321524975741411 0.5882942189465458 0.3091275049203463 0.11185475443371296 0.1423637791589619 -0.7581713046147979 -0.7008248660469963
0.25988737285424485 0.09631757606397426 0.08765735811429728 0.13678448761155523 -0.2753085463745312 0.7693808377267862 0.6844952101953267 0.05741809531117839
0.20069456902633043 -0.5778170285396179 0.14640534033868677 0.09209363369569289 0.3045432006357725 -0.32586807962876724 0.13951668785011562 0.11167246044989637
-0.22989618060103337 0.5800014046145372 0.05865399215838666 0.09391694369806078 0.6403937737000329 -0.3604906534176669 0.18614165847370956 -0.36430117956506114
0.043940922328294094 0.333106648121328 0.34664084488927377 -0.6367382880317212 0.1664924538954473 0.05089687590830298 0.09786989561790842 -0.4040887512667534
0.1988928416772379 -0.7567442948047954 -0.4308752759325273 0.027039096669557186 0.7595207349679792 0.4036274215195421 0.397454683436426 0.1542709861054868
0.053032662009938655 0.06965724624454449 -0.3782678801139754 -0.34023431154600076 0.09699466266494876 0.41690679589183544 -0.42824605330971965 0.17873022976754924
0.23397965747336488 0.41978869346072206 0.17861426093968638 0.05207669852704435 0.2143302300945361 -0.7580957992553771 0.46622932363278624 0.2865290828042487
0.0823593316115583 0.0819911831456779 0.11693003112552382 -0.38251357436171685 -0.4316414408896256 0.7573247677062532 0.06655686438613471 0.10823057725674862
0.4323007159180029 -0.5060375440795047 0.3033710079735585 0.15485382939884162 0.09625479568422576 -0.3822016913268683 0.5032225538468256 -0.3874081305734598
0.10529897439056168 0.07211491151106744 -0.21696949181090924 0.14709188377913476 0.13374912324981222 -0.6992117629733996 0.9002805265141335 -0.013429608594697714
-0.8959550365853972 0.6870463568999882 0.13459759299365154 0.1912202786050764 0.13158013792260753 0.1279711768641868 0.8227422663536774 -0.31724604062845363
