trotterization/Order_n6/Cycle_q11/q11_standard_parameters_b.npy (npy, 36224 bytes, 1 tensors)

array f8 [752, 6]
0.2643691228961794 0.045929051124874005 -0.13062794843592937 0.23005108923213122 0.35637701932055993 -0.5321966682756305 0.10248791582324042 0.2867887815805313
0.053744564239713265 -0.09991455091868477 0.47507559486803697 -0.6363646111856744 0.1303252380725151 0.505569016358557 0.0325365746896697 -0.8391782887243766
0.5510715922315237 0.23935173474422214 0.140185628918711 0.6642651388806401 -0.961350490271959 0.045248598011545106 0.4918993127902399 0.23950362334164563
0.15681512295384942 -0.20756488020642722 0.05430892216115931 0.509998404715304 -0.016983479759452427 0.006851820271133811 0.18050970418305987 -0.02918501995672268
0.20794464151723352 0.7014163412780882 0.015165344907787493 -1.1517020238588926 0.20042879500200736 -0.02850436756602418 0.22326330754577087 0.366491574152946
0.0005486095153057426 -0.5244558373000116 -0.1247945670552452 0.06660428555865168 0.2367889830619272 0.22875681635970735 0.38941729153707855 -0.5935456189242392
0.14138955200574654 0.25198740723853985 0.0038631727458078953 -0.0367598412155441 0.46331258561751903 -0.6475857527841383 0.125758555953037 0.22441402927717663
-0.012127884889089684 0.6869095916764534 0.008945709547992777 -1.06780000313114 0.15700870457736618 0.2960855785498488 0.0013999419253484056 -0.653482054991517
0.581555340908224 0.23486497806145912 -0.39303348075580297 0.13438786736798777 0.4774318447857241 0.27220848008884724 -0.03134160028279585 0.08069377759207944
-0.059831634664878675 0.25484232470054496 0.29371259624417606 -0.48137296991421974 0.45245799786869784 0.08038337153135915 -0.052368900087292704 0.23820948929946814
0.7551518938764107 -0.46002242302569873 -0.03343647092019303 0.10493282171461131 -0.21439130345633528 -0.27718712483588587 0.6975040341335956 0.2802434470893707
-0.03410001733359063 0.09586192880569083 0.1997818744701404 -0.07367609441947112 0.06855597167979008 -0.015421173520286288 0.2331020636755296 0.17531471622859468
0.2593485611847171 0.0021843760749192913 -0.08349084026234657 0.20376609414558927 0.4440598884858881 -0.6517361592575345 0.14481381960636375 0.8068862275954802
-0.9972289414493881 0.5327825033629833 -0.031194531443733197 0.08788184465658816 0.15090255762784704 -0.24981776516126664 0.5963475251136638 -0.3531168732852533
0.3286454590354519 0.05407819333911435 0.12173394477158887 -0.19965361917428898 0.07955438191472133 0.3309743201383137 0.5956370256593847 -0.8564921066194393
0.2808870944806709 -0.0007710315491237237 0.034587882743160714 -0.09598449155746802 0.1992893627370822 0.16398236629135587 0.1803454887678162 0.5375996903085647
-0.8934456746529644 0.8065935618203842 -0.22734786192802658 0.19250959136845167 -0.0853893538883018 0.3383121623842111 0.2683467162434637 -0.012165406073411468
0.004325489928736249 -0.026859217189395507 0.1831530618418548 1.1125686037572293 -1.1394714974011628 -0.010512565804521513 0.23758569330652984 0.2333534086001405
0.4487874102049738 -0.057929846412860676 -0.12359570849552039 -0.0841675010532495 0.028600957640428037 0.5766093762324574 0.12884855026122322 0.20468773524904252
-0.015956443707586032 0.11073022201237888 -0.11666170765800085 0.3767032876858845 0.16465162491413848 0.19988331168799514 0.0433607311825785 -0.004850429856252275
-0.11981846508926934 0.433546454321619 -0.0010709313106994835 0.1320747596469584 0.24224333811287493 0.6238020915748721 0.009370030032728436 -1.0128385761134688
0.39399115676495394 -0.5485850883550591 0.4416552392949201 -0.16462010613633962 0.036147675365887144 0.6828222461312752 0.26486484756544015 0.038318927047795215
-0.0665708913907364 0.3836995787948836 0.14137253904916647 -0.5233700021330981 0.18561356039292448 -0.12970517154836314 0.053107915914267244 0.5595826379665132
-0.03812432892475102 -0.26094922760118144 0.3752065972475155 0.24745168929795322 -0.3429546646534892 0.010112635382085622 -0.038925682372505085 0.4982188501968799
1.2416756853259647 0.0035531298690462403 -1.2815948638669785 0.27043173854553804 0.17932034944351521 0.1732279213658285 0.46129287034057287 0.0513917877391036
-0.655339688088894 0.4397023143848307 -0.1324149938646387 0.6707354189780511 0.5558759227039866 -0.17485625378518632 0.002883008342322841 -0.09970905830788106
-0.048998575096908734 0.5296099122873335 -0.06137024534191127 0.23400721658791127 0.33579010234211926 -0.4952345178468432 -0.04494114640087917 1.0634971813192062
0.4576880404447448 0.007173618688578962 -0.031178275654246485 -0.15107852954759693 -0.04712107060875601 0.5290324333545512 0.14888753152968714 0.20589611408032824
0.6799515017728615 0.0814725631924289 -0.07769248631630989 -1.0770304485179918 0.22209496516943444 -0.05418865685283244 0.4214203919385908 -0.11855145913678525
-0.13424024255135064 0.3269300028658862 0.723411116843076 0.02572676884591138 -0.8379361533743258 0.3802064693296569 0.6749880492895269 -0.932792501867691
0.21328728893636012 -0.06803745370879977 -0.006925206964314384 0.03661371495547978 0.20096556350693076 0.24819218654868697 0.6888004907320928 -0.4264733476630429
-0.022007257162783334 0.09940062491134466 -0.0429401380702091 0.4064392545051957 0.26712721246993965 -0.01176116865442591 0.21802425385843346 -0.4263278451923288
00000000: aa52 3a78 6ceb d03f e108 0939 0384 a73f
00000010: ffe9 3ca7 6ab8 c0bf 97a1 5468 5072 cd3f
00000020: e7c6 c18e e1ce d63f 7a16 a94e c107 e1bf
00000030: 452e b2e6 a53c ba3f 5de0 6f55 bf5a d23f
00000040: 4ba3 7e53 6884 ab3f 731c 9700 0094 b9bf
00000050: 7080 c577 a367 de3f acf9 2b51 195d e4bf
00000060: f1b3 ae55 7fae c03f 4330 e412 9f2d e03f
00000070: 9996 6e48 a2a8 a03f c2b3 326d 8cda eabf
00000080: 0873 4ce4 60a2 e13f 85d0 7be0 13a3 ce3f
00000090: 6c9b c949 9af1 c13f 1bb0 ebf6 a841 e53f
000000a0: acc5 761a 62c3 eebf fd82 4c01 d32a a73f
000000b0: 1ef9 5641 477b df3f b74f c302 0ea8 ce3f
000000c0: b670 4d98 8412 c43f 1a73 246a 7c91 cabf
000000d0: 4b5a 2009 61ce ab3f fd75 a82c e851 e03f
000000e0: 1477 8e08 1e64 91bf d8af b87f a710 7c3f
000000f0: 17d7 0926 f11a c73f 302a fd88 ade2 9dbf
00000100: 82f4 5815 ee9d ca3f 6d6b d5ae 0072 e63f
00000110: 67c4 4a23 020f 8f3f 1360 f319 5f6d f2bf
00000120: 6feb da97 a6a7 c93f 8afa f4b9 3f30 9dbf
00000130: f126 275e e493 cc3f 08c6 4f13 9974 d73f
00000140: cef6 97f6 11fa 413f 8bcb ac9b 57c8 e0bf
00000150: 8b83 3868 89f2 bfbf 5d73 3f7c fa0c b13f
00000160: f0eb 26f5 194f ce3f 3842 8042 e747 cd3f
00000170: 7b83 e980 36ec d83f 84d6 be61 53fe e2bf
00000180: cc2d ee86 0d19 c23f a6f9 45ca 8f20 d03f
00000190: 96f0 4313 a9a5 6f3f 6061 a797 2fd2 a2bf
000001a0: 3f5b c3d4 e9a6 dd3f 7f07 b2c1 05b9 e4bf
000001b0: 6957 813a db18 c03f e228 4152 99b9 cc3f
000001c0: 4910 bf27 81d6 88bf fee3 f1d2 29fb e53f
000001d0: 7bcc 95cf 2052 823f 01df c174 b515 f1bf
000001e0: 356e ac79 dc18 c43f f315 2ced 10f3 d23f
000001f0: a86d 4832 c8ef 563f 1cc4 d632 53e9 e4bf
00000200: 7f7a 40f2 199c e23f f8f6 df3b 0e10 ce3f
00000210: ed11 85e6 7527 d9bf 8b8f a923 9f33 c13f
00000220: ce1c db4b 3e8e de3f d63a eb1d dd6b d13f
00000230: 4e15 7098 010c a0bf 6aa9 bfef 58a8 b43f
00000240: 68c2 4d84 40a2 aebf d56d 8e2e 564f d03f
00000250: f1af d2ea 2fcc d23f 1470 bd92 d0ce debf
00000260: 7138 ea63 12f5 dc3f 5391 de2f 0194 b43f
00000270: c5a2 67b2 18d0 aabf 87ac 1107 a67d ce3f
00000280: cfc5 f64d 342a e83f 869c 94e3 0171 ddbf
00000290: b817 31ca 951e a1bf a38f 8a9d e0dc ba3f
000002a0: 9425 729a 2c71 cbbf abb6 0211 6fbd d1bf
000002b0: ced1 edfa f351 e63f a5b2 0a36 82ef d13f
000002c0: c74a 7bb6 8e75 a1bf 64e4 2649 688a b83f
000002d0: fc66 97d4 7392 c93f ba54 07c0 6fdc b2bf
000002e0: 4e69 4f58 e28c b13f 8b0c 7cdf 2295 8fbf
000002f0: c6e9 0ed6 49d6 cd3f 7acb 5a6e b670 c63f
00000300: 9964 23b5 2a99 d03f 18e7 b9f9 f7e4 613f
00000310: 1a3d 71dc a75f b5bf 8ac9 31e3 0115 ca3f
00000320: 77c9 a02a 7a6b dc3f 5d37 34ca 05db e4bf
00000330: 30ed 9b5d 4289 c23f 5cb1 e310 03d2 e93f
00000340: 55cb 44ab 4ce9 efbf 9766 7ae4 8d0c e13f
00000350: 83a2 7591 75f1 9fbf a452 b6b0 6c7f b63f
00000360: 567a f266 c650 c33f d4e9 a94d 07fa cfbf
00000370: 3c3d ad67 4715 e33f 9642 9b83 7799 d6bf
00000380: ab50 a2f6 8608 d53f 21f3 a20f 23b0 ab3f
00000390: 4367 9baf f429 bf3f 96d8 70f2 3f8e c9bf
000003a0: d2c4 930c ad5d b43f 43d5 33ea ae2e d53f
000003b0: f7cc 2f61 750f e33f eccd 6622 6268 ebbf
000003c0: ab6d 2add 0dfa d13f fd63 d2a4 e143 49bf
000003d0: 2084 70c2 80b5 a13f 789a 298c 7092 b8bf
000003e0: d8be b257 5082 c93f d4c8 2bca 5ffd c43f
000003f0: 7894 1e9c 8f15 c73f 64e1 0644 0434 e13f
00000400: 7063 2c62 1b97 ecbf b7d8 254d 9dcf e93f
00000410: 5cf0 e517 bc19 cdbf 6b02 8c7f 27a4 c83f
00000420: b677 60a2 13dc b5bf dfde 510e e8a6 d53f
00000430: 7d4c 90b4 972c d13f 54a9 d229 2dea 88bf
00000440: 6793 87dc 9ab7 713f 35ce b28d fb80 9bbf
00000450: b5f2 623d 8f71 c73f 5319 7bbc 14cd f13f
00000460: 8afe 0077 463b f2bf 74a7 9eb2 9c87 85bf
00000470: 46e0 5f3f 3569 ce3f 5f82 2c45 86de cd3f
00000480: 28f6 6bd4 eeb8 dc3f ad6f 9c17 fba8 adbf
00000490: a109 eae5 f7a3 bfbf 84e5 6858 008c b5bf
000004a0: c3b7 ccc6 9149 9d3f 1b88 af81 9573 e23f
000004b0: cc25 c1fa 1b7e c03f 95ba 642c 3533 ca3f
000004c0: b0c6 89cf e256 90bf 1dd4 38da d058 bc3f
000004d0: 262d 16ab 8add bdbf f904 3a1b e81b d83f
000004e0: 66a7 1ef0 4d13 c53f 9da9 5bbf c695 c93f
000004f0: 993a b8b4 6033 a63f 7994 aa59 0bde 73bf
00000500: a3ec 0345 6cac bebf 4ceb a6a0 39bf db3f
00000510: 5d76 2abd cf8b 51bf 8dc6 a762 d3e7 c03f
00000520: 8530 6f67 d401 cf3f f4b1 cfcd 2ff6 e33f
00000530: 12c3 6c24 9830 833f 8a8d 0839 9634 f0bf
00000540: f5fe 4daf 2637 d93f 2edd b150 028e e1bf
00000550: 363d 3856 1444 dc3f f54f 0f8a 4512 c5bf
00000560: e0ba 0bb7 f281 a23f d0ae 030a aed9 e53f
00000570: 6ed4 89b0 8bf3 d03f f8e6 f9d4 899e a33f
00000580: 2387 6339 ca0a b1bf 986e 9aad 888e d83f
00000590: 3863 e2cf 7e18 c23f b9cf 5b72 72bf e0bf
000005a0: 2e76 ca65 2fc2 c73f 940d f6d6 2d9a c0bf
000005b0: b35f 05f4 f530 ab3f f837 2fd9 19e8 e13f
000005c0: 5dd7 d333 0885 a3bf 8eaa 9d63 64b3 d0bf
000005d0: 3afa 1a88 6203 d83f eff4 6f38 7fac cf3f
000005e0: eea1 2c1f f8f2 d5bf 407f f0f1 eeb5 843f
000005f0: 865e 8729 11ee a3bf 252a f650 d1e2 df3f
00000600: 1c6a cb52 e7dd f33f 4177 c012 741b 6d3f
00000610: e27b b09d 6981 f4bf e29f 36ec c04e d13f
00000620: 1200 2f1e f8f3 c63f f798 8220 552c c63f
00000630: 1a68 ff87 d285 dd3f 53ae 3e3f 0650 aa3f
00000640: c09a 03f0 8af8 e4bf f188 102d 1524 dc3f
00000650: 6b07 137a f9f2 c0bf 61f2 1820 aa76 e53f
00000660: e1b7 944d bcc9 e13f f014 c191 b061 c6bf
00000670: 5b7e 6b51 1b9e 673f 431c 8c68 8886 b9bf
00000680: 6e03 2f5b 5716 a9bf 382b 9d7c 90f2 e03f
00000690: 70cb 61b9 eb6b afbf e1f3 22cf f2f3 cd3f
000006a0: 3450 f8c4 957d d53f 4929 801e ecb1 dfbf
000006b0: 4bb3 12a4 8602 a7bf 7e77 d29e 1504 f13f
000006c0: 95c0 5ec7 c24a dd3f 3d2e 959a 1562 7d3f
000006d0: c565 1fa9 32ed 9fbf 0071 c48f 8a56 c3bf
000006e0: 8d29 6fc2 4020 a8bf bffe f86c d5ed e03f
000006f0: e0e0 5923 bf0e c33f 7b9b 2cca cd5a ca3f
00000700: 7860 dfa6 29c2 e53f 60ca 6eca 62db b43f
00000710: 499c df9f a7e3 b3bf 52e5 9247 843b f1bf
00000720: 4226 019a 9b6d cc3f 7b81 fe99 9dbe abbf
00000730: 9899 4f3c 8df8 da3f eab4 e26f 6359 bebf
00000740: 1e57 c8c5 c82e c1bf 81f8 98d1 6bec d43f
00000750: 4fec 0c12 2f26 e73f 58bd 4c3b 1e58 9a3f
00000760: e11e dc7a 5fd0 eabf 7be7 df83 4d55 d83f
00000770: 9775 9c89 8099 e53f 5c39 2fa9 6fd9 edbf
00000780: 762c 5175 ff4c cb3f c018 950e e76a b1bf
00000790: d34d e016 9b5d 7cbf 8940 a368 08bf a23f
000007a0: 9936 7155 3db9 c93f 3ab7 2cf6 c2c4 cf3f
000007b0: 0838 a553 a70a e63f a004 35de 564b dbbf
000007c0: 6dbf 2707 1289 96bf 6439 32c1 5172 b93f
000007d0: eb00 65f1 3ffc a5bf 9644 7aca 1903 da3f
000007e0: ae85 5bbc 9c18 d13f 0b35 de55 3d16 88bf
000007f0: 5b44 0700 38e8 cb3f ba69 1e96 f448 dbbf
