trotterization/Order_n6/Cycle_q11/q11_parameters_a.npy (npy, 36224 bytes, 1 tensors)

array f8 [752, 6]
0	0xbfa1eb235ac595b7	-0.03499708636335746
1	0x3fdb507d8119730b	0.42678773505558415
2	0x3fe459d4192621c7	0.6359653941336142
3	0x3fb559fc7ad470bd	0.08340433119559783
4	0xbfcb8dd4983bc9cc	-0.21526582177427966
5	0x3fbaa6a7956f1355	0.10410544775284099
6	0xbf9d1e7b9c9e489f	-0.028436595377180237
7	0x3fee9cda9308c23b	0.9566471931230532
8	0x3fb5d2dc240fa3d0	0.08524871712110316
9	0xbfd9715a081073ea	-0.39754343783880464
10	0x3fd402b0eca86635	0.3126642523871824
11	0x3fb2489298721359	0.07141987058464618
12	0x3fe244ae9c77fae9	0.5708840423611409
13	0xbf789793de4533d0	-0.006003930673910099
14	0x3fbb0788280b8704	0.10558367707883681
15	0xbfc386dd812819b1	-0.1525532608649889
16	0x3fd831167df85a56	0.37799608518381456
17	0x3fbaa5dd3c87bef8	0.10409338691510672
18	0x3fddb9c5a0190bcf	0.4644636214690622
19	0xbfc0f0736fbbe8d6	-0.13233797984850665
20	0x3fb5e6e591e8386a	0.08555445491967509
21	0xbf7484fcc10ea584	-0.005009639092273036
22	0x3fde5209ab7af4b7	0.4737571882831832
23	0x3fbd1313eb508183	0.11357235426885919
24	0xbfe584c210872729	-0.6724558184443811
25	0x3ff053c27e2176cd	1.0204491545659267
26	0xbfcba561d30d5f8a	-0.21598456197056876
27	0x3fba511a7532ca57	0.10280003892220556
28	0x3fe4d61a35f7e0c4	0.6511355451648559
29	0x3fbd32c0234abb1b	0.11405564176196174
30	0x3fc21ae15772bc3a	0.14144531984263314
31	0xbfc4a427b2a51808	-0.16125961516280563
32	0x3fe032d02e7dd075	0.5062027843510025
33	0x3fe14a4a6add060c	0.5403186881232513
34	0xbfbf4d0a1a6d3a93	-0.12226927895720001
35	0x3fb876c205fb3e28	0.09556210180311864
36	0xc00017065c58089c	-2.0112426008573276
37	0x3fff94b2f807fd05	1.9738034905165602
38	0x3fdcda9bbd421554	0.45084279520263704
39	0x3fe70f4b9ee62c3f	0.7206171134470266
40	0xbfcdec80cf621bb6	-0.23378000379690683
41	0x3fb989d1bd0bc348	0.09975920548801043
42	0xbfa03abc872ce036	-0.031698123455896995
43	0x3fdb0ac0a7d340b4	0.4225312842290905
44	0x3fdb896f2b53e328	0.4302633212205813
45	0xbfd0080019cf34de	-0.25048830528687727
46	0x3fafeb91721668aa	0.06234411733312702
47	0x3fd77db5a94adff4	0.3670477059599755
48	0xbfa22baf8d49f6b9	-0.0354895458194568
49	0x3fe9b7ac1026ac25	0.8036709132624124
50	0xbff9f5d5d231f204	-1.622518368792158
51	0x3ff639ddc22adad6	1.3891275009788635
52	0x3fd6f5b886921caf	0.3587476076285822
53	0x3fbb41162b989a5f	0.10646189274175687
54	0x3fd00401c90f7053	0.2502445662955825
55	0xbfd19c253a102757	-0.2751553599379028
56	0x3fed021d16a58071	0.9065080110849647
57	0xbfd4158d6830fff7	-0.31381545233671154
58	0x3fd583c5eeba1732	0.33616779626059945
59	0x3fb896c2f4b27b97	0.09605043863346761
60	0x3fe4ec2cd3e097d9	0.6538299692372177
61	0xbf70aeae0bccff50	-0.004072837703290436
62	0xbffd2618d70b6e12	-1.8218010330373358
63	0x3ffabbaa45fa6d2e	1.6708166821980046
64	0x3fd7a59afdc54872	0.36948275358475435
65	0x3fc0dd00add97ed7	0.13174446572064966
66	0xbfdadcf70941d4ac	-0.41973663238543213
67	0x3fe71af02e74e6b5	0.7220383555752138
68	0x3fdfaf71e2231264	0.49508330424968094
69	0xbfa4500f3d0f87f5	-0.039673305705733165
70	0x3f8a7026a844d22e	0.012909223566205243
71	0x3fcd5c4af9297e95	0.22937905470006528
72	0xbfe115392a588561	-0.533840735155689
73	0x3f54c5fdaf907bfc	0.0012679078483939224
74	0x3fec247fc47f1ac6	0.8794554555723486
75	0x3fde564dbef0f79c	0.47401755949601365
76	0xbfb48dcc83cfd162	-0.08028867929517028
77	0x3fd099d230064178	0.25938849153410315
78	0xbfdef4d0b36bc56a	-0.48369233628826314
79	0x3feaf957913133bf	0.842937263086803
80	0x3f656271138a138b	0.0026104172250733296
81	0x3fddc88788171bdb	0.4653643445021182
82	0xbfb87e3dd5d269f4	-0.0956762930895037
83	0x3fd12e649c3fc866	0.2684566045637723
84	0xbfd8f78156fd44d7	-0.39010652060558243
85	0x3fe6d8ae54142e2b	0.7139503137745512
86	0x3fdee4f5d3e5eb27	0.482724625522382
87	0x3f70377fda9f05c2	0.00395917838062715
88	0xbfa18786a4a38bf1	-0.034237105939403885
89	0x3fcca2836031e581	0.22370950886742594
90	0x3fd78c7d9aca2abe	0.3679498683565433
91	0x3fe963125efc6bec	0.7933437209316003
92	0xbfff3c7c235c4453	-1.9522668248430548
93	0x3f96f50610f49238	0.022419066223976908
94	0x3ffa75a0fbb5c4df	1.6537179787085774
95	0x3fbd65e7931ec863	0.11483619062235699
96	0xbfa5d6306776db02	-0.04264975798598948
97	0x3fdda568323a4700	0.46322064309161703
98	0x3fe08458c08d79f1	0.5161556015771663
99	0xbff9d8c95f39cd41	-1.6154264182813025
100	0x3ff8fb761f5d0144	1.5613919472817352
101	0x3fbe07e5643341c8	0.11730798431677336
102	0xbfe480c84ef148b2	-0.6407205144735342
103	0x3ff09dae9fea87b8	1.038496613190075
104	0xbf9c5d49d57b842a	-0.027699617056786398
105	0x3f7df21becaf4605	0.007310971336623511
106	0x3fe0aa8c2d8f0d29	0.5208187951870161
107	0x3fba0f27c2fd4d73	0.10179375181660592
108	0xbfe9d873b3b81134	-0.8076723585259402
109	0x3f76be9df667d5c6	0.005552880326367532
110	0x3ff347d89333707f	1.20504052639356
111	0xbf8b2c5305ee657d	-0.013268135660654984
112	0x3fe02313823f243c	0.5042817634467904
113	0x3fbb2718d9e7af22	0.10606532401987726
114	0xbf9739095e2a78be	-0.02267851483576843
115	0x3fe1a57a04ec3461	0.5514497848649961
116	0xbfcb3381484a2dfc	-0.2125093081452717
117	0x3fb542374edaee0c	0.08304162669349341
118	0x3fdfc75c59f1446e	0.4965430143684618
119	0x3fbaa9cc0a1d5758	0.10415339705408877
120	0x3fd509700afb46b4	0.32870102951447255
121	0x3fe9d2462ce67f2a	0.8069182278595453
122	0x3fc56e6535478566	0.16743149854213896
123	0xc0030929ea9418ec	-2.379474480290005
124	0x3fff17cc38d19437	1.943309995601579
125	0x3fc109dee3dcdd95	0.1331137287722696
126	0x3fe01229e91e6b52	0.502217250166135
127	0xbfc42e3f66ec7df5	-0.15766136670661948
128	0xbf770f765f9d0165	-0.005629980465357985
129	0x3fb6fc2933c680dc	0.08978517068908637
130	0x3fdb54efb48701c3	0.4270591032946209
131	0x3fc2761f727e74c4	0.14422982302213516
132	0x3ffc61152d1c87a2	1.7737018358388714
133	0xc00985cd9f3c5200	-3.1903335991175936
134	0x3ffa43f4e1fe5618	1.6415909602996006
135	0x3fe207334c977438	0.5633789535455724
136	0xbfaa5e0072779626	-0.05149842641166584
137	0x3fd0d79e3297236b	0.2631602758452149
138	0x3fd9004d2fdd6982	0.3906434028082445
139	0x3fe933f286c8fde6	0.7875912315866429
140	0xbff200ee14d1e7cd	-1.1252270520476373
141	0x3f50ef501fcf6dfb	0.0010336191619363378
142	0x3feabd31c908526f	0.8355950285354775
143	0x3fbc40ccce9f1664	0.11036376995533598
144	0xbfe505e8b606c2c1	-0.6569713168338113
145	0x3fce0c8110983a85	0.23475659666333484
146	0x3ff6071a0613344c	1.3767338025384275
147	0xbfd1a3a934c72dd4	-0.2756140723620011
148	0x3fc33f9652d720c0	0.1503780273908486
149	0x3fc5da0dada06908	0.17071696260320146
150	0x3ffa43e7fe5416bc	1.6415786680894788
151	0x3f909abbbf0a428d	0.01621526101604558
152	0xc0007ca7e74e5ecc	-2.0608671255866735
153	0x3ff02f5e5e66df09	1.0115646064350037
154	0x3fd26ce089337791	0.28789533041514753
155	0x3fba8666098c0e3d	0.10361325963099773
156	0xbfd24ae56c3b6ed6	-0.28582130021616814
157	0x3ff9ac2d50109a87	1.6045354011090767
158	0xbfff17085dadc3d9	-1.943123212750143
159	0x3ff10a70257bd7a5	1.065048357411322
160	0x3fdc7c7dcaf9daf7	0.44509835073351617
161	0x3fbd404d071b6a52	0.1142624037123963
162	0x3fd0f208086e9094	0.26477242301394566
163	0xbfd2f1c96e663129	-0.29600749760790507
164	0x3fdfbe62c26474b7	0.4959952257502879
165	0x3fde8539b9e7e62d	0.4768814387785792
166	0x3feff78696dc299d	0.998965544365365
167	0xbfee1974220686c5	-0.9406071343002728
168	0xbfd5938d40dac2f5	-0.337130845388898
169	0x3fc6fb24383db075	0.17953922983304307
170	0x3ff024877cc73ab4	1.0089182733678799
171	0xbf965141c1f71ee8	-0.02179434534426053
172	0xbfb34faf5189b595	-0.07543464413330121
173	0x3fcf79ba4441be7b	0.24590233166553674
174	0xbfc9dd041e011ef5	-0.20205737557466077
175	0x3fd43c5bc8111af1	0.31618399179244167
176	0x3ff2ed5c072e4fea	1.1829490929130722
177	0x3fbaeb490cf748d9	0.10515266958762783
178	0xbfe1964a10060576	-0.5495958626708404
179	0x3fc2dcf00e08db33	0.14736748395235963
180	0x3fe31c560aac240b	0.5972089966245461
181	0xbfd5320b4c753a10	-0.3311794516238544
182	0xbfe1dfca83bdddb3	-0.5585682461814286
183	0x3fc8d8b24790549f	0.19411304945302718
184	0x3feeadd0a341e388	0.9587176502819696
185	0x3fc1e1f3a8997805	0.13970800144574028
186	0xbfe0cafe854cda32	-0.5247795680541627
187	0xbfd7472933632569	-0.363718319113636
188	0x3ffe099358763103	1.87733778529497
189	0x3f8b277816c3887b	0.013258875078865131
190	0xbfc67ca9fecb6b05	-0.17567944470541633
191	0x3fc637e435a75dfe	0.1735806714993799
192	0x3fd2675b75a10788	0.2875584267350111
193	0x3fe030c28f1605ce	0.5059521479271838
194	0xbfc599f1170173a2	-0.16876042960475696
195	0x3fccaeffc7700226	0.2240905498329237
196	0xbfcd21ccd2dc7534	-0.22759399696307414
197	0x3fd83d7e7d69e034	0.3787533020727125
198	0xbfae9db594d48006	-0.05979697648785991
199	0x3fefb14b4d51208d	0.9903923521133194
200	0xbf897c71e28909d3	-0.012444390989121345
201	0x3fc1f4d8f2fc06f4	0.14028465141750923
202	0xbfd1c4a1b8017bdc	-0.2776264473849872
203	0x3fcc0e71cb201f2f	0.2191908113311398
204	0xbfca89269a733e36	-0.207310510077592
205	0x3ff40c9964b76227	1.2530759748680198
206	0x3fe86d2908aec923	0.7633252305588808
207	0xbff0323e3e4ac317	-1.012266391113547
208	0x3f9e08b7e6f6755f	0.029330132934423655
209	0x3fc6409247745280	0.17384556282981478
210	0x3fc1a84dafcdd140	0.13794871410540033
211	0xbfc73cf619b16744	-0.18154789213695655
212	0x3fd842c7e82feac9	0.3790759818509
213	0x3fdf9b986d89814d	0.49387179085717464
214	0xbfc03e09ecf01b5a	-0.12689327306017156
215	0x3fd30af8d5b06c99	0.2975446783836531
216	0xbfcce0618f94ca72	-0.2255975676612994
217	0x3ff35c660d5a4253	1.2100582620224898
218	0xbfd741b6c2f84584	-0.3633858589174326
219	0x3feb675d20bdd646	0.8563676490291037
220	0xbfe4dd23ccd5a4c8	-0.6519946098971099
221	0x3fc657b95b127ce5	0.17455212542424828
222	0x3ff49ac1c958b0e6	1.2877824654670404
223	0xbf94221b78800648	-0.019661359052412203
224	0xbff4d667573300b7	-1.3023446470470341
225	0x3fe045084c730d52	0.5084268086579107
226	0x3fda7b2174af8ccf	0.4137653007039263
227	0x3fbcae17856e60d3	0.11203143127056885
228	0x3fe2a660c67c2cde	0.582809817949421
229	0xbfcbde985b910ba8	-0.21773056479477515
230	0x3fb24bfcb4c3a02d	0.07147197163760728
231	0xbfc93f8d94b74ce8	-0.1972519851829937
232	0x3fe2b7278b1c7e3e	0.5848577229516605
233	0x3fc682064f83dc09	0.17584303743908006
234	0xbf9b375ce8db4598	-0.026578380310473187
235	0x3feb0499ca147437	0.8443116137383474
236	0xbf9e62c1ff3082cd	-0.029673606110125306
237	0x3fc7c09daf602f9f	0.1855656725241461
238	0xbfcc808a3b933806	-0.22267272862376347
239	0x3fcfe0c940e2b097	0.24904742878186845
240	0x3fde67dcd2e82a98	0.4750892696035094
241	0x3ff03195ae68e1ab	1.0121056378248834
242	0xbff3fe70bee87f27	-1.2496192414618663
243	0x3ff164df5de641a2	1.0871270816752276
244	0xbfdd54793f8a9a4c	-0.45828086095062726
245	0x3fc119166e0fbe33	0.133578113308873
246	0x3fee13d3202d999f	0.9399200085143099
247	0xbfde61f65daf4f34	-0.47472914837748026
248	0xbfe584ec13028f01	-0.6724758502282101
249	0x3ff05e2bd6ab1934	1.0229910264475395
250	0x3f81356de6079c81	0.008402689535570442
251	0x3fc6839af2f93085	0.17589127410827046
252	0xbfd7fadd93747490	-0.3746866168965619
253	0x3fba83e59fe7e05c	0.10357508806180377
254	0xbf9fe97ed9c4eb1f	-0.031164152185037538
255	0x3ff8c13495a6b65c	1.5471692891836915
