trotterization/Order_n6/Cycle_q11/q11_standard_parameters_a.npy (npy, 36224 bytes, 1 tensors)

array f8 [752, 6]
0	0x3faaa6a7956f1355	0.052052723876420494
1	0xbfbb8dd4983bc9cc	-0.10763291088713983
2	0x3fa559fc7ad470bd	0.041702165597798914
3	0x3fd459d4192621c7	0.3179826970668071
4	0x3fcb507d8119730b	0.21339386752779207
5	0xbf91eb235ac595b7	-0.01749854318167873
6	0x3fa2489298721359	0.03570993529232309
7	0x3fc402b0eca86635	0.1563321261935912
8	0xbfc9715a081073ea	-0.19877171891940232
9	0x3fa5d2dc240fa3d0	0.04262435856055158
10	0x3fde9cda9308c23b	0.4783235965615266
11	0xbf8d1e7b9c9e489f	-0.014218297688590118
12	0x3faaa5dd3c87bef8	0.05204669345755336
13	0x3fc831167df85a56	0.18899804259190728
14	0xbfb386dd812819b1	-0.07627663043249445
15	0x3fab0788280b8704	0.052791838539418406
16	0xbf689793de4533d0	-0.0030019653369550495
17	0x3fd244ae9c77fae9	0.28544202118057044
18	0x3fad1313eb508183	0.05678617713442959
19	0x3fce5209ab7af4b7	0.2368785941415916
20	0xbf6484fcc10ea584	-0.002504819546136518
21	0x3fa5e6e591e8386a	0.042777227459837544
22	0xbfb0f0736fbbe8d6	-0.06616898992425332
23	0x3fcdb9c5a0190bcf	0.2322318107345311
24	0x3fad32c0234abb1b	0.05702782088098087
25	0x3fd4d61a35f7e0c4	0.32556777258242797
26	0x3faa511a7532ca57	0.05140001946110278
27	0xbfbba561d30d5f8a	-0.10799228098528438
28	0x3fe053c27e2176cd	0.5102245772829633
29	0xbfd584c210872729	-0.33622790922219054
30	0x3fa876c205fb3e28	0.04778105090155932
31	0xbfaf4d0a1a6d3a93	-0.061134639478600004
32	0x3fd14a4a6add060c	0.2701593440616257
33	0x3fd032d02e7dd075	0.25310139217550126
34	0xbfb4a427b2a51808	-0.08062980758140281
35	0x3fb21ae15772bc3a	0.07072265992131657
36	0x3fa989d1bd0bc348	0.049879602744005214
37	0xbfbdec80cf621bb6	-0.11689000189845342
38	0x3fd70f4b9ee62c3f	0.3603085567235133
39	0x3fccda9bbd421554	0.22542139760131852
40	0x3fef94b2f807fd05	0.9869017452582801
41	0xbff017065c58089c	-1.0056213004286638
42	0x3fc77db5a94adff4	0.18352385297998774
43	0x3f9feb91721668aa	0.03117205866656351
44	0xbfc0080019cf34de	-0.12524415264343863
45	0x3fcb896f2b53e328	0.21513166061029065
46	0x3fcb0ac0a7d340b4	0.21126564211454524
47	0xbf903abc872ce036	-0.015849061727948498
48	0x3fab41162b989a5f	0.05323094637087843
49	0x3fc6f5b886921caf	0.1793738038142911
50	0x3fe639ddc22adad6	0.6945637504894318
51	0xbfe9f5d5d231f204	-0.811259184396079
52	0x3fd9b7ac1026ac25	0.4018354566312062
53	0xbf922baf8d49f6b9	-0.0177447729097284
54	0x3fa896c2f4b27b97	0.04802521931673381
55	0x3fc583c5eeba1732	0.16808389813029972
56	0xbfc4158d6830fff7	-0.15690772616835577
57	0x3fdd021d16a58071	0.45325400554248235
58	0xbfc19c253a102757	-0.1375776799689514
59	0x3fc00401c90f7053	0.12512228314779125
60	0x3fb0dd00add97ed7	0.06587223286032483
61	0x3fc7a59afdc54872	0.18474137679237718
62	0x3feabbaa45fa6d2e	0.8354083410990023
63	0xbfed2618d70b6e12	-0.9109005165186679
64	0xbf60aeae0bccff50	-0.002036418851645218
65	0x3fd4ec2cd3e097d9	0.32691498461860885
66	0x3fbd5c4af9297e95	0.11468952735003264
67	0x3f7a7026a844d22e	0.006454611783102622
68	0xbf94500f3d0f87f5	-0.019836652852866583
69	0x3fcfaf71e2231264	0.24754165212484047
70	0x3fd71af02e74e6b5	0.3610191777876069
71	0xbfcadcf70941d4ac	-0.20986831619271606
72	0x3fc099d230064178	0.12969424576705157
73	0xbfa48dcc83cfd162	-0.04014433964758514
74	0x3fce564dbef0f79c	0.23700877974800683
75	0x3fdc247fc47f1ac6	0.4397277277861743
76	0x3f44c5fdaf907bfc	0.0006339539241969612
77	0xbfd115392a588561	-0.2669203675778445
78	0x3fc12e649c3fc866	0.13422830228188615
79	0xbfa87e3dd5d269f4	-0.04783814654475185
80	0x3fcdc88788171bdb	0.2326821722510591
81	0x3f556271138a138b	0.0013052086125366648
82	0x3fdaf957913133bf	0.4214686315434015
83	0xbfcef4d0b36bc56a	-0.24184616814413157
84	0x3fbca2836031e581	0.11185475443371297
85	0xbf918786a4a38bf1	-0.017118552969701942
86	0x3f60377fda9f05c2	0.001979589190313575
87	0x3fcee4f5d3e5eb27	0.241362312761191
88	0x3fd6d8ae54142e2b	0.3569751568872756
89	0xbfc8f78156fd44d7	-0.19505326030279121
90	0x3fad65e7931ec863	0.057418095311178495
91	0x3fea75a0fbb5c4df	0.8268589893542887
92	0x3f86f50610f49238	0.011209533111988454
93	0xbfef3c7c235c4453	-0.9761334124215274
94	0x3fd963125efc6bec	0.39667186046580016
95	0x3fc78c7d9aca2abe	0.18397493417827165
96	0x3fae07e5643341c8	0.05865399215838668
97	0x3fe8fb761f5d0144	0.7806959736408676
98	0xbfe9d8c95f39cd41	-0.8077132091406513
99	0x3fd08458c08d79f1	0.25807780078858317
100	0x3fcda568323a4700	0.23161032154580852
101	0xbf95d6306776db02	-0.02132487899299474
102	0x3faa0f27c2fd4d73	0.05089687590830296
103	0x3fd0aa8c2d8f0d29	0.26040939759350806
104	0x3f6df21becaf4605	0.0036554856683117553
105	0xbf8c5d49d57b842a	-0.013849808528393199
106	0x3fe09dae9fea87b8	0.5192483065950375
107	0xbfd480c84ef148b2	-0.3203602572367671
108	0x3fab2718d9e7af22	0.05303266200993863
109	0x3fd02313823f243c	0.2521408817233952
110	0xbf7b2c5305ee657d	-0.006634067830327492
111	0x3fe347d89333707f	0.60252026319678
112	0x3f66be9df667d5c6	0.002776440163183766
113	0xbfd9d873b3b81134	-0.4038361792629701
114	0x3faaa9cc0a1d5758	0.052076698527044385
115	0x3fcfc75c59f1446e	0.2482715071842309
116	0x3fa542374edaee0c	0.041520813346746704
117	0xbfbb3381484a2dfc	-0.10625465407263585
118	0x3fd1a57a04ec3461	0.27572489243249804
119	0xbf8739095e2a78be	-0.011339257417884215
120	0x3fb109dee3dcdd95	0.0665568643861348
121	0x3fef17cc38d19437	0.9716549978007895
122	0xbff30929ea9418ec	-1.1897372401450026
123	0x3fb56e6535478566	0.08371574927106948
124	0x3fd9d2462ce67f2a	0.40345911392977263
125	0x3fc509700afb46b4	0.16435051475723628
126	0x3fb2761f727e74c4	0.07211491151106758
127	0x3fcb54efb48701c3	0.21352955164731044
128	0x3fa6fc2933c680dc	0.044892585344543184
129	0xbf670f765f9d0165	-0.0028149902326789927
130	0xbfb42e3f66ec7df5	-0.07883068335330974
131	0x3fd01229e91e6b52	0.2511086250830675
132	0x3fc0d79e3297236b	0.13158013792260745
133	0xbf9a5e0072779626	-0.02574921320583292
134	0x3fd207334c977438	0.2816894767727862
135	0x3fea43f4e1fe5618	0.8207954801498003
136	0xbff985cd9f3c5200	-1.5951667995587968
137	0x3fec61152d1c87a2	0.8868509179194357
138	0x3fac40ccce9f1664	0.05518188497766799
139	0x3fdabd31c908526f	0.41779751426773876
140	0x3f40ef501fcf6dfb	0.0005168095809681689
141	0xbfe200ee14d1e7cd	-0.5626135260238186
142	0x3fd933f286c8fde6	0.39379561579332145
143	0x3fc9004d2fdd6982	0.19532170140412225
144	0x3fb5da0dada06908	0.08535848130160073
145	0x3fb33f9652d720c0	0.0751890136954243
146	0xbfc1a3a934c72dd4	-0.13780703618100054
147	0x3fe6071a0613344c	0.6883669012692137
148	0x3fbe0c8110983a85	0.11737829833166742
149	0xbfd505e8b606c2c1	-0.32848565841690563
150	0x3faa8666098c0e3d	0.05180662981549886
151	0x3fc26ce089337791	0.14394766520757377
152	0x3fe02f5e5e66df09	0.5057823032175018
153	0xbff07ca7e74e5ecc	-1.0304335627933368
154	0x3f809abbbf0a428d	0.00810763050802279
155	0x3fea43e7fe5416bc	0.8207893340447394
156	0x3fad404d071b6a52	0.05713120185619815
157	0x3fcc7c7dcaf9daf7	0.22254917536675808
158	0x3fe10a70257bd7a5	0.532524178705661
159	0xbfef17085dadc3d9	-0.9715616063750715
160	0x3fe9ac2d50109a87	0.8022677005545383
161	0xbfc24ae56c3b6ed6	-0.14291065010808407
162	0xbfde1974220686c5	-0.4703035671501364
163	0x3fdff78696dc299d	0.4994827721826825
164	0x3fce8539b9e7e62d	0.2384407193892896
165	0x3fcfbe62c26474b7	0.24799761287514396
166	0xbfc2f1c96e663129	-0.14800374880395253
167	0x3fc0f208086e9094	0.13238621150697283
168	0x3fbf79ba4441be7b	0.12295116583276837
169	0xbfa34faf5189b595	-0.037717322066650606
170	0xbf865141c1f71ee8	-0.010897172672130265
171	0x3fe024877cc73ab4	0.5044591366839399
172	0x3fb6fb24383db075	0.08976961491652154
173	0xbfc5938d40dac2f5	-0.168565422694449
174	0x3fb2dcf00e08db33	0.07368374197617981
175	0xbfd1964a10060576	-0.2747979313354202
176	0x3faaeb490cf748d9	0.05257633479381391
177	0x3fe2ed5c072e4fea	0.5914745464565361
178	0x3fc43c5bc8111af1	0.15809199589622083
179	0xbfb9dd041e011ef5	-0.10102868778733039
180	0x3fb1e1f3a8997805	0.06985400072287014
181	0x3fdeadd0a341e388	0.4793588251409848
182	0x3fb8d8b24790549f	0.09705652472651359
183	0xbfd1dfca83bdddb3	-0.2792841230907143
184	0xbfc5320b4c753a10	-0.1655897258119272
185	0x3fd31c560aac240b	0.29860449831227304
186	0x3fb637e435a75dfe	0.08679033574968995
187	0xbfb67ca9fecb6b05	-0.08783972235270816
188	0x3f7b277816c3887b	0.006629437539432566
189	0x3fee099358763103	0.938668892647485
190	0xbfc7472933632569	-0.181859159556818
191	0xbfd0cafe854cda32	-0.26238978402708135
192	0x3fc83d7e7d69e034	0.18937665103635626
193	0xbfbd21ccd2dc7534	-0.11379699848153707
194	0x3fbcaeffc7700226	0.11204527491646185
195	0xbfb599f1170173a2	-0.08438021480237848
196	0x3fd030c28f1605ce	0.2529760739635919
197	0x3fc2675b75a10788	0.14377921336750554
198	0x3fbc0e71cb201f2f	0.1095954056655699
199	0xbfc1c4a1b8017bdc	-0.1388132236924936
200	0x3fb1f4d8f2fc06f4	0.07014232570875462
201	0xbf797c71e28909d3	-0.006222195494560673
202	0x3fdfb14b4d51208d	0.4951961760566597
203	0xbf9e9db594d48006	-0.029898488243929953
204	0x3fb6409247745280	0.08692278141490739
205	0x3f8e08b7e6f6755f	0.014665066467211827
206	0xbfe0323e3e4ac317	-0.5061331955567735
207	0x3fd86d2908aec923	0.3816626152794404
208	0x3fe40c9964b76227	0.6265379874340099
209	0xbfba89269a733e36	-0.103655255038796
210	0x3fc30af8d5b06c99	0.14877233919182656
211	0xbfb03e09ecf01b5a	-0.06344663653008578
212	0x3fcf9b986d89814d	0.24693589542858732
213	0x3fc842c7e82feac9	0.18953799092545
214	0xbfb73cf619b16744	-0.09077394606847827
215	0x3fb1a84dafcdd140	0.06897435705270016
216	0x3fb657b95b127ce5	0.08727606271212414
217	0xbfd4dd23ccd5a4c8	-0.32599730494855494
218	0x3fdb675d20bdd646	0.42818382451455184
219	0xbfc741b6c2f84584	-0.1816929294587163
220	0x3fe35c660d5a4253	0.6050291310112449
221	0xbfbce0618f94ca72	-0.1127987838306497
222	0x3facae17856e60d3	0.05601571563528442
223	0x3fca7b2174af8ccf	0.20688265035196315
224	0x3fd045084c730d52	0.25421340432895534
225	0xbfe4d667573300b7	-0.6511723235235171
226	0xbf84221b78800648	-0.009830679526206101
227	0x3fe49ac1c958b0e6	0.6438912327335202
228	0x3fb682064f83dc09	0.08792151871954003
229	0x3fd2b7278b1c7e3e	0.29242886147583025
230	0xbfb93f8d94b74ce8	-0.09862599259149685
231	0x3fa24bfcb4c3a02d	0.03573598581880364
232	0xbfbbde985b910ba8	-0.10886528239738757
233	0x3fd2a660c67c2cde	0.2914049089747105
234	0x3fbfe0c940e2b097	0.12452371439093422
235	0xbfbc808a3b933806	-0.11133636431188174
236	0x3fb7c09daf602f9f	0.09278283626207305
237	0xbf8e62c1ff3082cd	-0.014836803055062653
238	0x3fdb0499ca147437	0.4221558068691737
239	0xbf8b375ce8db4598	-0.013289190155236594
240	0x3fb119166e0fbe33	0.0667890566544365
241	0xbfcd54793f8a9a4c	-0.22914043047531363
242	0x3fe164df5de641a2	0.5435635408376138
243	0xbfe3fe70bee87f27	-0.6248096207309332
244	0x3fe03195ae68e1ab	0.5060528189124417
245	0x3fce67dcd2e82a98	0.2375446348017547
246	0x3fb6839af2f93085	0.08794563705413523
247	0x3f71356de6079c81	0.004201344767785221
248	0x3fe05e2bd6ab1934	0.5114955132237697
249	0xbfd584ec13028f01	-0.33623792511410505
250	0xbfce61f65daf4f34	-0.23736457418874013
251	0x3fde13d3202d999f	0.46996000425715495
252	0x3fb5b4bab8e23526	0.08478896154175128
253	0xbfca86b399f528d7	-0.20723576562369914
254	0x3fe8c13495a6b65c	0.7735846445918457
255	0xbf8fe97ed9c4eb1f	-0.015582076092518769
