trotterization/Order_n6/Cycle_q11/q11_parameters_c.npy (npy, 66304 bytes, 1 tensors)

array f8 [752, 11]
0	0x3faaa6a7956f1355	0.052052723876420494
1	0xbfd47a0cab9b62b2	-0.31994930990689874
2	0xbfd4bf4d8361f5b7	-0.32417619543397386
3	0x3fbfdaefa58a843e	0.12443445006876261
4	0x3fbb9749d7142726	0.10777722836442347
5	0xbfd107c14ea91679	-0.2660983341378152
6	0x3fcfd21e31f97a40	0.2485997909561366
7	0x3fbb09b12b1ebef9	0.10561663916336873
8	0x3fc8c6305f870174	0.19354824699804463
9	0x3fd76a8d12bc83d1	0.3658783610317729
10	0x3fcb2d2f0b18e084	0.21231639901975907
11	0x3fa2489298721359	0.03570993529232309
12	0x3fb6ed053ed7a7d2	0.08955414566267386
13	0xbfd9582b09c2305e	-0.39600635483725977
14	0xbfda0e5c8fb0104d	-0.40712656051642143
15	0x3fc5e6fc06fcf216	0.17111158696378997
16	0xbfd45d19512bf9aa	-0.3181823055928371
17	0x3fd3742574470769	0.3039640079042472
18	0x3fd3a95c8f8a4934	0.30721200959773687
19	0x3fdcc8b8143204cb	0.44975091907697323
20	0x3fc93efc0b73ecd8	0.19723463591785761
21	0x3fb1185c9a7924a7	0.06677798053091753
22	0x3faaa5dd3c87bef8	0.05204669345755336
23	0x3fbc581ceed72c46	0.11071949797694555
24	0xbfde26ee4a5c9be1	-0.4711261488141059
25	0xbfdcdb118e68fdd3	-0.4508708849643572
26	0x3fd8a8d8243fdf49	0.38530543842306436
27	0x3fbea313e07bd088	0.11967586737211111
28	0x3fc537d348b20d91	0.1657661538084594
29	0xbfd8da074bfc69af	-0.3883074037600193
30	0x3fe01e0149b5375b	0.5036627235037757
31	0x3fd94536ea129576	0.39484951838161153
32	0x3fb40a100d19886c	0.07827854461496181
33	0x3fad1313eb508183	0.05678617713442959
34	0x3fc3a5345c8579ac	0.1534791423573102
35	0xbfe06ce0dc8b6056	-0.5132908160694665
36	0x3fdf69df2e13d1ba	0.49083690166233007
37	0x3fd84867f1fb4725	0.37941931372653165
38	0x3fbea80e02c34fba	0.11975181167082286
39	0x3fbccb7d3d6ec7ea	0.11247999906370834
40	0xbfdc8484cdea4159	-0.4455883036507849
41	0xbfdcad027bd6caab	-0.44805967420249243
42	0x3fe0585bdfca51b1	0.51078599652333
43	0x3fb559aa9deaf61c	0.08339945178428149
44	0x3fad32c0234abb1b	0.05702782088098087
45	0x3fcce65fdc74ff99	0.22578047050955943
46	0x3fdf061171f312a4	0.4847453701770894
47	0x3fd4a2ecdc0baf78	0.3224441670306457
48	0x3fd4a6a17efdb118	0.32267033959830504
49	0x3f6c10a77fb8b050	0.0034259101355669577
50	0xbfd5bce35f869888	-0.3396538193577574
51	0x3fc801c6fa8a7907	0.18755423768465837
52	0xbfdb8c4550cf0759	-0.43043644801593
53	0xbfdbbbee234cb958	-0.43334535071598657
54	0x3fb98ba91ef583e6	0.09978730207286865
55	0x3fa876c205fb3e28	0.04778105090155932
56	0xbfc8d0832b265632	-0.19386329276010056
57	0x3fbb00ceb766b658	0.1054810712582478
58	0x3fc34819a3560794	0.15063782191651554
59	0xbfe4347f3c548c89	-0.6314083269429754
60	0xbfe26d5f19f36013	-0.5758510119294463
61	0x3fe4b0bb44e1b79a	0.6465736718507629
62	0x3fe19ffa45ffe987	0.5507785193615725
63	0x3fba3b0d734b32a7	0.10246357025898566
64	0x3fc5142d7a06b0e9	0.1646782728033778
65	0x3fc0fd40a48b078b	0.1327286532815005
66	0x3fa989d1bd0bc348	0.049879602744005214
67	0xbfd11db94824843c	-0.26743919415645556
68	0x3fbf12594983deae	0.12137373013308192
69	0x3fbf9fc807b9bb74	0.12353182018862957
70	0x3fe7ce5f6f575170	0.7439419912939638
71	0xbfd0c8579baccb8c	-0.26222791865000583
72	0xbfe7c9e0ead9ab73	-0.7433933817786581
73	0x3fcf194e22c2ae51	0.24295975396431627
74	0x3fba156f72ca6f29	0.1018895774126888
75	0x3fce956a990a6922	0.23893482659043125
76	0x3fc345322897fa98	0.150549192258002
77	0x3fc77db5a94adff4	0.18352385297998774
78	0x3fd5ba3645d4f767	0.33949047870179644
79	0x3fc2e5ef33bb0042	0.14764204049970614
80	0x3fc0204469e7f77a	0.1259847180480696
81	0x3fbbc63b9e75ebec	0.10849354380290749
82	0xbfd2fe5361bed683	-0.29677280946211954
83	0x3fd1faa7994c0881	0.2809237477341711
84	0x3fba4f45b1309582	0.10277209831163783
85	0x3fb6d25582d7d762	0.08914694256222114
86	0xbfd176f7a6c51a8f	-0.2728861931431447
87	0xbfd3bb7d2eb390db	-0.30831842003523285
88	0x3fab41162b989a5f	0.05323094637087843
89	0x3fb759e115142af6	0.091215198179423
90	0x3fe114d1ffaa6362	0.5337915414303149
91	0xbfd20152f735a526	-0.28133081571157204
92	0x3fc4213e17cbe656	0.15726448213517824
93	0xbfd4b905c1b2077f	-0.32379287639206916
94	0x3fd3964ac8dd6813	0.30604810348234074
95	0x3fcf4e1a088171f2	0.24457097449602788
96	0xbfe0f52c56971f71	-0.529928368684507
97	0x3fc4942f0a01ddd0	0.16077220905911682
98	0x3fb6918ff8100e66	0.08815860563486808
99	0x3fa896c2f4b27b97	0.04802521931673381
100	0x3fb72136e2cabd5e	0.09035056149399653
101	0xbfd29f45a4866515	-0.29097119395153587
102	0x3fc65316f6ba27bc	0.17441069648003615
103	0xbfe4cd6d63c763e5	-0.6500765751653687
104	0xbfe115b574c1df02	-0.5339000015655702
105	0x3fe516b5e705bb15	0.6590222847133612
106	0x3fe0666415435a0d	0.512498895196417
107	0x3fd1d8919b486c8f	0.278843309062446
108	0x3fc128fde0dbca2c	0.1340634677831799
109	0x3fb3e654faa970f9	0.07773333663630301
110	0x3fb0dd00add97ed7	0.06587223286032483
111	0x3fb7f67db60b3351	0.09360490507533582
112	0x3fe440f18625c89f	0.6329276676244894
113	0xbfd1e13e69fd9354	-0.27937279081952693
114	0x3fd7d00a9f985ae5	0.37207284532034485
115	0x3fbe100e3bdff700	0.11743248903072967
116	0x3fcad05289d1343a	0.2094824955878794
117	0xbfd7f167fbaff4e0	-0.37410926417198986
118	0xbfe43579a20ca466	-0.6315277256991407
119	0x3fc9eae2ff529245	0.20248067347451318
120	0x3fb754b8457f5da3	0.09113647171704158
121	0x3fbd5c4af9297e95	0.11468952735003264
122	0x3fe074249fb8426d	0.5141776198889382
123	0x3fd70978b9cac496	0.35995309966808386
124	0x3fc0a5e6be0261f4	0.13006290700720025
125	0x3fcc040cdf15b9b2	0.2188736047059599
126	0x3fa4a858efbfa967	0.0403468887960397
127	0xbfd00386a298df84	-0.2502152049887558
128	0x3fc231d37dd413b6	0.14214557308164694
129	0x3fbe1316484160dd	0.11747874511764018
130	0xbfd84e79ad9bbd16	-0.3797897525209505
131	0xbfe03f445267b8c9	-0.5077230081058356
132	0x3fc099d230064178	0.12969424576705157
133	0x3fc31eef3025bdba	0.14938154078434512
134	0x3fc0d69091f9d9ac	0.13154799583180699
135	0x3fd1c39822a957ab	0.27756312737380523
136	0x3fe84e65da1f47fe	0.7595700512122219
137	0x3fa494012fde9156	0.040191685765679594
138	0xbfd3a7b95054578b	-0.30711205334352404
139	0xbfe849345ab363df	-0.7589360972880249
140	0x3fc4c1cf43ab8638	0.16216460041236913
141	0x3fbaff7a59ee3be4	0.1054607839161999
142	0xbfc842625119b211	-0.18952588043193022
143	0x3fc12e649c3fc866	0.13422830228188615
144	0x3fc1c2db5365169a	0.138759055824427
145	0x3fc10dbcd46a85ee	0.13323173877601796
146	0xbfe3dc13e0525f4a	-0.6206149464878561
147	0x3fd0b231b42111b2	0.2608761080812442
148	0x3faadce09d8a8f9d	0.05246641085730561
149	0xbfd2d6046d6734aa	-0.29431257900143726
150	0x3fc48e4bba204418	0.16059252346215724
151	0x3fe3e6c518dc2453	0.6219201551003927
152	0x3fb9759567592bd4	0.09945043347504107
153	0xbfc7e26ac8d9b11a	-0.18659720236917893
154	0x3fbca2836031e581	0.11185475443371297
155	0x3fd3c8bebafb536b	0.3091275049203463
156	0x3fe2d34e65d9a411	0.5882942189465458
157	0x3fc0ea5f7f953432	0.1321524975741411
158	0x3fcabcb7bba82b3e	0.208884207372046
159	0x3fa88a684926e465	0.04793096440284542
160	0xbfcf1a1b6946fdf0	-0.24298422470563663
161	0x3fc2f4a4ec803118	0.1480909495152296
162	0x3fbbf52ca8a16dea	0.10920981518704989
163	0xbfe2c316e5ff050b	-0.5863146297562322
164	0xbfd4e13725458c2a	-0.32624605789004824
165	0x3fad65e7931ec863	0.057418095311178495
166	0x3fe5e7627fc1d7a6	0.6844952101953268
167	0x3fe89ec490069486	0.7693808377267863
168	0xbfd19ea7bcbf39ed	-0.2753085463745311
169	0x3fc18227727224c7	0.13678448761155534
170	0x3fb670b66e5acb7e	0.0876573581142974
171	0x3fb8a844c7398a06	0.09631757606397437
172	0x3fd0a1fea5c3598a	0.2598873728542449
173	0xbfe66d2844fca75c	-0.7008248660469962
174	0xbfe842f077c2c23c	-0.7581713046147978
175	0x3fc238f9efcfb4e7	0.142363779158962
176	0x3fae07e5643341c8	0.05865399215838668
177	0x3fe28f5f1b0e8314	0.5800014046145372
178	0xbfcd6d3cf0941050	-0.22989618060103334
179	0x3fbc9690fd7f043d	0.11167246044989639
180	0x3fc1dbaecdc7ff95	0.13951668785011564
181	0xbfd4db05ca34375d	-0.32586807962876724
182	0x3fd37da2c3bcc9ad	0.3045432006357725
183	0x3fb79372c8e48ed8	0.0920936336956929
184	0x3fc2bd69025b71c4	0.1464053403386868
185	0xbfe27d7a2314c92d	-0.5778170285396179
186	0x3fc9b05c1139f8c1	0.20069456902633045
187	0x3faa0f27c2fd4d73	0.05089687590830296
188	0x3fc54f9fee41807f	0.16649245389544728
189	0xbfe46028f966a1f6	-0.6367382880317212
190	0x3fd62f5d1510769c	0.3466408448892737
191	0x3fd5519e8bf0b8de	0.33310664812132795
192	0x3fa67f6cb0b652a2	0.043940922328294066
193	0xbfd750b5e5081307	-0.3643011795650612
194	0x3fc7d37d67c8ad23	0.18614165847370953
195	0xbfd7124763bc52be	-0.36049065341766695
196	0x3fe47e1b1553513c	0.6403937737000329
197	0x3fb80af0d9b933a5	0.09391694369806076
198	0x3fab2718d9e7af22	0.05303266200993863
199	0x3fc3bf26d405b9ea	0.15427098610548678
200	0x3fd96fe5c4c01849	0.3974546834364259
201	0x3fd9d5081bcc7ecf	0.40362742151954206
202	0x3fe84dfe6daa4888	0.7595207349679791
203	0x3f9bb0230fa2f31e	0.027039096669557165
204	0xbfdb9375e4b24066	-0.4308752759325273
205	0xbfe8373fcfb3e0b3	-0.7567442948047954
206	0x3fc975521534c45d	0.1988928416772379
207	0xbfd9dc9710d7d1e0	-0.4040887512667535
208	0x3fb90e0060f11d19	0.09786989561790839
209	0x3faaa9cc0a1d5758	0.052076698527044385
210	0x3fc6dcd504aae6a2	0.1786142609396864
211	0x3fdaddd165693d5e	0.4197886934607221
212	0x3fcdf30ba0638154	0.2339796574733649
213	0x3fc6e0a1d5d43f90	0.17873022976754926
214	0xbfdb68622266cdec	-0.42824605330971965
215	0x3fdaae99d7757a26	0.41690679589183544
216	0x3fb8d4a468085266	0.0969946626649488
217	0xbfd5c66622444c29	-0.34023431154600076
218	0xbfd8358a7b8ddf9c	-0.3782678801139754
219	0x3fb1d50eaa8cbb9a	0.06965724624454453
220	0x3fb109dee3dcdd95	0.0665568643861348
221	0x3fe83c0126b7f914	0.7573247677062533
222	0xbfdba0036c0e0856	-0.4316414408896255
223	0xbfd87b1a370a3780	-0.38251357436171673
224	0x3fbdef20639ab91f	0.1169300311255239
225	0x3fb4fd5fca2bc8d7	0.08199118314567798
226	0x3fb515804bcac497	0.08235933161155838
227	0x3fd2567e13ffd0e4	0.2865290828042488
228	0x3fddd6b3845c18db	0.4662293236327863
229	0xbfe842521f212dac	-0.758095799255377
230	0x3fcb6f2c48666c8e	0.21433023009453617
231	0x3fb2761f727e74c4	0.07211491151106758
232	0x3fbaf4dfa34f4f5a	0.10529897439056182
233	0xbfd8cb4b78c11ed6	-0.3874081305734597
234	0x3fe01a662f6c3704	0.5032225538468258
235	0xbfd875fe152e62e4	-0.3822016913268682
236	0x3fb8a4277f8c0270	0.0962547956842259
237	0x3fc3d2401276d571	0.15485382939884176
238	0x3fd36a6e3b734369	0.3033710079735586
239	0xbfe03175a5cbd404	-0.5060375440795046
240	0x3fdbaad09f39eef4	0.432300715918003
241	0x3fbbb4ffc5beb436	0.10823057725674876
242	0x3fc0d79e3297236b	0.13158013792260745
243	0x3fc879e7f5786c81	0.19122027860507632
244	0x3fc13a7e72039733	0.13459759299365145
245	0x3fe5fc48a43715a6	0.687046356899988
246	0xbfecaba9e59a43b4	-0.8959550365853972
247	0xbf8b80fb8db2ce4c	-0.013429608594697794
248	0x3feccf191b5352da	0.9002805265141334
249	0xbfe65ff158de604c	-0.6992117629733996
250	0x3fc11eb0f71d01c4	0.13374912324981214
251	0x3fc2d3e8272b513a	0.14709188377913468
252	0xbfcbc5a803c75f49	-0.21696949181090933
253	0x3fac40ccce9f1664	0.05518188497766799
254	0x3fd28c83c42abbe1	0.28982633740355196
255	0xbfea4fabc2d8e0da	-0.8222254567727092
