trotterization/Order_n4/Cycle_q6/q6_parameters_c.npy (npy, 1664 bytes, 1 tensors)

array f8 [32, 6]
00000000: d55a dae8 6c98 b13f e217 b926 f0fd c03f
00000010: 94ef cf9d d700 dbbf 2bd4 c3bb e451 d93f
00000020: aa4e ffd6 ba86 ca3f b645 e5a3 081a be3f
00000030: 64f9 b750 13f7 b23f 8b8a 867b 6cd0 cd3f
00000040: c933 2daa 1bff d23f 2519 afca 1741 bf3f
00000050: 4066 dfc7 ea68 d6bf 3ea2 5464 38ce bf3f
00000060: f573 5dfb d6d8 b43f 50d7 e638 a0a6 c03f
00000070: aae0 6042 06b2 dc3f e5d8 6012 44b8 ddbf
00000080: a146 5509 4165 c53f 8c18 15e0 2e94 c13f
00000090: 7023 9c3d 4650 b53f 2ea6 c54c 47f5 d5bf
000000a0: cc17 a1b3 3df8 c03f 7d5d 9c39 1ed9 bd3f
000000b0: d854 c79a 7f68 cb3f a14f c387 8ffa d23f
000000c0: c755 3596 9247 ba3f 00fa d906 e25f e33f
000000d0: 4676 b837 67ff ebbf 3e6a 8fe2 6cb7 ee3f
000000e0: ab36 cd30 ca1a ebbf fb9d 552c f0b9 e13f
000000f0: 7ff9 4c73 15a6 bb3f 0274 8c1d d445 d13f
00000100: 284c 90da 19d3 c83f b375 078c 3a11 d7bf
00000110: 3f9f 03e3 493a 983f 4963 2f86 aff4 d03f
00000120: 4841 efde e16b d23f abbc c92f 3357 c33f
00000130: 5f1a 2f5a e7cd c33f d187 c16a b0dd bc3f
00000140: e6cb 4c1a a125 be3f bb41 2f85 43bf d4bf
00000150: 5bc8 f631 f474 d23f 74ee 5fd0 e226 f03f
00000160: 851a 415f d1d2 e83f 30b2 1f79 f96c d03f
00000170: 29fe cb22 321c eebf 8a36 c0b2 5b75 ecbf
00000180: 71af e7ff 951b c83f 41e1 3cfd 3f0f e2bf
00000190: a826 bc93 73cc e13f 969b bf3b a350 df3f
000001a0: a778 25d4 eeec e1bf 32f3 983f 0801 d93f
000001b0: 62cc ec04 a0df c83f 46ee b37a 8053 e93f
000001c0: dd9c 6812 85be e0bf 61f0 b50f b5e8 da3f
000001d0: b826 4ebc 2272 da3f 0f90 884f 4f7a e9bf
000001e0: d15f 251f 446e c53f 1ae9 6177 163a 00c0
000001f0: c5c2 c68f 9c9b 00c0 32a4 d1c2 56e4 0040
00000200: 7f95 f11e 16c7 ff3f 8337 5f97 67b7 d53f
00000210: 57a3 f6c4 ed51 cd3f 2c4b 66f8 90db dd3f
00000220: 8c61 a147 23fd e13f 8b7d e094 c4df e2bf
00000230: 8716 f90e bce3 d43f 607b 5c4f 01a3 dfbf
00000240: 6242 c6e8 dc5f c53f 1eb9 5e70 ca56 f8bf
00000250: 2aa7 a770 5cbe 0540 5741 44cf 86bc 05c0
00000260: c23e 7685 9d30 f83f a599 232c 18da d53f
00000270: 9bb9 8247 461b c53f 7017 a4d1 df52 e8bf
00000280: 1688 bd5d 1a44 e5bf 900f 3baa 1229 dd3f
00000290: b6c3 6909 3151 e03f a1a5 f93e 6e6a e93f
000002a0: ce88 d2f2 2183 c53f 0938 aa7a d2b1 e4bf
000002b0: 67a4 1f96 5191 f0bf 4f8d 5605 db93 dd3f
000002c0: e8a1 dfb9 c5c1 f03f 2b54 ca33 3426 e03f
000002d0: 5652 bdde 87c3 c53f 7d6a bc94 f4fa e2bf
000002e0: 66ea ef02 07c0 da3f 6c72 8638 4ee3 dcbf
000002f0: 6161 9aa7 8d7c e03f 14f1 7b20 513e dc3f
00000300: e4ea bfb9 aa04 c63f b6d7 b71c a8b6 e1bf
00000310: 91d5 2ba2 e804 e2bf 3e96 76d0 a6be df3f
00000320: 4a7c db76 bdd5 e03f 4cd6 b962 aa0a db3f
00000330: 3347 05e9 a328 d03f d0b6 97b4 0032 ea3f
00000340: 0434 187b 5ccf 0140 1c85 7a79 9f25 d13f
00000350: 5a27 1e40 48ce 01c0 a1cf bf51 73dd eabf
00000360: 4441 9451 8f2f e73f 8c57 2d33 fd3b f1bf
00000370: b0d8 d9ae ec07 f33f 78a1 8ef1 640a 70bf
00000380: dd04 aa35 2805 f1bf 72e3 49ec f662 e73f
00000390: 539f a897 dc34 d73f 95a7 5efb bdcf 9d3f
000003a0: 613e a636 cce1 e0bf 9d62 0ceb bcb2 85bf
000003b0: db66 078d 9608 c93f 9ea2 c296 0adb dc3f
000003c0: 032e 4462 5533 eb3f 3fd9 c595 ae59 d53f
000003d0: 21eb d461 a7f4 da3f 31cf f9ef ce9d d03f
000003e0: e72f 2bbe 209f e0bf e447 e317 470a ebbf
000003f0: 77f1 0db7 693c d43f afa5 3e62 14e1 b73f
00000400: 2a50 45b1 a66d e0bf 2754 6113 8b60 c2bf
00000410: 4d55 c145 ac89 d93f 385a dcd6 374d d63f
00000420: d65a c999 9d79 d73f f6c4 0f59 a663 f5bf
00000430: 5132 771e 1091 da3f b6ca 94e1 1e36 d03f
00000440: 5c2c bfda c73d e1bf 2c05 fa1f 5772 f53f
00000450: 645f ced7 960b d43f 1ae0 bd47 114f d93f
00000460: a34b 0605 223a df3f fb03 a8e0 c9f1 d03f
00000470: efad 1c97 9cbc e0bf 3d33 01d7 5a0d dcbf
00000480: 457e 4007 c8ea c53f f781 0adb 28c5 e83f
00000490: 59c3 e5a7 0e13 e0bf b5d6 db8e f49e e9bf
000004a0: 1f70 2a18 5909 e03f ce10 7983 9ed1 d63f
000004b0: 034b 8c9b 3876 e7bf c5b3 1721 a40f ad3f
000004c0: 50c3 316c 7db4 c13f 2d64 1a0f dfc0 c13f
000004d0: 190d 60f8 6e21 c63f a1c2 8f7c 8b3f e73f
000004e0: df2a 9c7b 5be3 fcbf 6702 faff ef89 f9bf
000004f0: 35d9 4ada 469d b73f 908f 301f 5456 db3f
00000500: a2a1 929a 894e fd3f 2eba 926b 58cf f83f
00000510: 3550 0dd5 a85d ef3f c670 a998 d32e f4bf
00000520: e0c1 34e7 2f94 f23f 897d dad0 0c13 eabf
00000530: d776 491d 55e4 d53f a17d 8e80 06c4 b73f
00000540: 479f 5600 3e45 f23f 401d bb47 7164 0b40
00000550: 0e48 64e9 5935 0740 bbd7 6fc5 72e4 e1bf
00000560: 33af a947 1632 0ac0 d00f 4538 3711 09c0
00000570: 0de5 e0ff 6fb2 e33f 2655 3663 99b4 fcbf
00000580: db1a e3d6 275e f6bf d0bd a885 6f87 773f
00000590: 7c9a c278 8ced fd3f 41ba e051 7534 f33f
000005a0: c77d 7477 6add e93f bd4b 6572 969b f73f
000005b0: 3b0f ed0d ba2e e2bf 45e3 4a45 cce5 b5bf
000005c0: 9c99 22da a3f9 d93f 35fb 5cd9 fa92 f8bf
000005d0: cfbd adc0 b663 e53f 8329 a690 2f91 f0bf
000005e0: 3482 89ae 611c e6bf 8fde 6f97 2def 9cbf
000005f0: f47d 754f 2fd2 e33f 6c18 6e2c 54f0 ee3f
0.06873207745443762 0.13274957552692884 -0.4219264069686173 0.39562338196202756 0.20723662851252317 0.11758474351270007 0.07408257218046327 0.2329230883743388
0.2968205606346684 0.12208698938693326 -0.35015363234342445 0.12424042176702074 0.08143371235696846 0.13008501795200766 0.44836575014370317 -0.46437169832951347
0.16715252834051333 0.1373346895363209 0.08325613979481061 -0.34309561249992526 0.1325757147880594 0.11659420877946576 0.21412653977919294 0.29654300935839656
0.10265461127467922 0.605454457647113 -0.8749271477024159 0.9598907876018712 -0.8470202401310493 0.5539475313098018 0.10800298752744729 0.2698869980393398
0.19394229099325 -0.3604265563461368 0.023659853440135988 0.2649344263459637 0.28783461352306405 0.15109863122368003 0.15472118285670697 0.11275770765635619
0.11776167766656406 -0.3241738129263713 0.28838829879089695 1.0094936504018763 0.7757346020160446 0.25665127590653736 -0.9409418754220883 -0.889325951693267
0.18834185595857947 -0.5643615671206491 0.556207455201009 0.4892967303734904 -0.5601724761470636 0.3906880017346338 0.194324495701582 0.7914430996456268
-0.5232568130058116 0.42045332464454616 0.41321628941714605 -0.7961803964030895 0.16742755432892278 -2.028363163638585 -2.0759822113544453 2.111493608496425
1.9861050804841793 0.3393191316835031 0.22906276814799284 0.4665262628342812 0.5621506117850443 -0.5898154170753726 0.326399817106314 -0.4943240427982598
0.1669880043596264 -1.5211891545728302 2.7179497529185896 -2.717054003973469 1.5118689740519788 0.3414364272161044 0.16489485255938238 -0.7601164907980387
-0.6645633536211359 0.4556318914803734 0.5099110778665963 0.7942420225128225 0.16806434971392153 -0.6467068095969363 -1.0354781974986282 0.4621493866090604
1.0473077068983176 0.5046635638742648 0.17002962470964417 -0.5931342034339903 0.4179704216655068 -0.4513736297610993 0.5152042649743117 0.44130352184562693
0.17201742238815776 -0.5535469590092734 -0.5630992095381534 0.49601145131814295 0.5260913201744952 0.422525974666631 0.25248048549575514 0.8186038520049923
2.2262506119500376 0.2679213224710837 -2.2257237443163094 -0.8395325276055595 0.7245556443540768 -1.0771457671266687 1.1894347028842667 -0.0039161627873130975
-1.063759050012144 0.7308306326877825 0.3626014214555557 0.02911278578509487 -0.5275631968851934 -0.01059482185660104 0.19557458769013789 0.450869223811006
0.8500163001312447 0.33359875322584637 0.4211824851405926 0.25963185725344134 -0.5194247926933685 -0.8450046030577565 0.31618731380856197 0.09327819250633838
-0.5133851492232726 -0.14357126661585193 0.3990278893664552 0.348463020157769 0.36679782884804746 -1.3368285635918347 0.4151039407268274 0.2533032610837539
-0.5387915871045936 1.3404151200377994 0.313207350490748 0.3954508972742602 0.48792314997370506 0.26475760401814313 -0.5230238868147675 -0.4383151149420888
0.1712274585161017 0.7740673330445692 -0.5023263243912012 -0.8006537237367498 0.5011411163318406 0.35654414023543957 -0.7331812894866235 0.056759957351324476
0.13832061560563114 0.13869846570449465 0.17289530875869089 0.7265069420664824 -1.8055071667210354 -1.5961761473737626 0.09224360303310138 0.4271440796458075
1.831674197959821 1.5506214334560684 0.980183044545362 -1.2614322627405712 1.1611784965026501 -0.8148254470033162 0.34206130847983957 0.09283486021603561
1.1419048321931358 3.424044189832472 2.901050399182174 -0.5591367584408923 -3.2744565580996094 -3.13340610466728 0.6155319211603981 -1.7940915942647933
-1.397987212565275 0.00574439585993454 1.8704952923959857 1.20030719741375 0.8082783063036282 1.4754852741796036 -0.5682039520256476 -0.08553768817627112
0.405861819288839 -1.535883759570152 0.668422104192297 -1.0354457521776517 -0.6909645470551085 -0.028256142013531046 0.6194073249752692 0.9668370120787251
