trotterization/Order_n4/Cycle_q6/q6_parameters_a.npy (npy, 1152 bytes, 1 tensors)

array f8 [32, 4]
0.7912467639240551 -0.4293795569121882 0.5006686380792579 0.13746415490887523 0.2441739787738665 -0.10666614341751213 0.7143270202827191 0.14816514436092654
-0.9287433966590269 1.231036556968433 0.5348394149766571 0.16286742471393692 0.23318841755893152 0.6934045091345047 -0.09310520628305743 0.16651227958962123
1.9197815752037424 -3.4438947756669305 2.3188039779138294 0.20530922254935843 -0.7208531126922736 0.435204288866772 1.069642848770607 0.21600597505489458
0.22551541531271238 0.5449657210465421 -0.3461503634053826 0.5756692270461281 0.5133025518130747 -0.3304145468120875 0.2403353974172189 0.5767765975817939
0.9785934607469808 -0.007930041892109248 -0.34734713077203055 0.37668371191715894 0.8409066492890923 -0.22008104717733099 -0.009474593514925363 0.388648991403164
4.22298721699285 -0.17975426174053205 -3.378088063910164 0.33485510865784557 -1.179630834150745 1.7771008577827165 -0.0555955599279572 0.4581255362959857
-5.434108007946938 8.459637453941138 -2.3595054547134517 0.3339760087192528 0.9112637829607468 -0.30930455150907915 0.0682510634295675 0.32978970511876476
0.9242987732181208 0.02365901879937912 -0.284086491445343 0.33612869942784307 -0.9027472595221986 1.866349373279637 -0.3036613631767267 0.34005924941928833
0.9920229026362859 -0.0740157787273165 -0.2620419686852849 0.3440348447763155 0.5358426449421674 0.0010537352674567298 -0.041857351201134416 0.5049609709915103
-0.007832325574626195 0.2513513057442448 -0.6926302688777723 1.4491112887081536 -0.02118964371320208 -0.663977218390111 0.9599640191922019 0.7252028429111114
0.5192637145068827 -0.19648461510555176 -1.0228116996638204 1.7000326002624895 -0.28714253323170386 -0.22871451971363482 0.8834824253282147 0.6323746276171239
0.5066065221675078 -0.24737529275553238 0.007173112891929631 0.7335956576960949 0.5295152080362863 -0.07020147368212494 -0.08572843533565729 0.626414700981496
-1.6013074474734996 -0.002370416118721263 2.2612229465600175 0.3424549170322034 0.2773969314089893 0.622431848728644 1.5665337988356138 -1.466362578973247
0.854288159291615 3.8478356019858446 -0.0911094278353887 -3.611014333442071 -1.6296508940066323 3.0064796099649795 -2.337194805049071 1.960366089090724
-1.1182735168817846 -0.7468123178348699 0.5812761703303829 2.2838096643862715 0.01148879171986908 0.9450161596614214 -1.1875687937020867 1.2310638423207962
-0.17107537635254225 -0.32468426547361706 -0.12079697078109705 1.6165566126072564 -0.05651228402706209 -0.14311444415967864 -0.13721748019785324 1.336844208384594
00000000: 2bd4 c3bb e451 e93f 7e90 a064 f47a dbbf
00000010: 5fdd 553c 7a05 e03f d55a dae8 6c98 c13f
00000020: 2519 afca 1741 cf3f b893 91ed 784e bbbf
00000030: d56d d856 c4db e63f 64f9 b750 13f7 c23f
00000040: e5d8 6012 44b8 edbf fdc1 8563 53b2 f33f
00000050: eef7 7d8c 671d e13f f573 5dfb d6d8 c43f
00000060: 7d5d 9c39 1ed9 cd3f 5236 34a7 5e30 e63f
00000070: 6ab4 1228 bed5 b7bf 7023 9c3d 4650 c53f
00000080: 3e6a 8fe2 6cb7 fe3f 79d6 42b4 188d 0bc0
00000090: fdcb 9719 e98c 0240 c755 3596 9247 ca3f
000000a0: b375 078c 3a11 e7bf 10c0 f016 63da db3f
000000b0: a5eb ddd1 411d f13f 7ff9 4c73 15a6 cb3f
000000c0: d187 c16a b0dd cc3f 29c0 aaf3 5b70 e13f
000000d0: cbc6 94da 5327 d6bf 4841 efde e16b e23f
000000e0: 30b2 1f79 f96c e03f 928e 2b0e 8325 d5bf
000000f0: f932 fd6f 4fc3 ce3f 5bc8 f631 f474 e23f
00000100: 969b bf3b a350 ef3f d1ff a834 a03d 80bf
00000110: 9f9e c175 ef3a d6bf 71af e7ff 951b d83f
00000120: 61f0 b50f b5e8 ea3f 034c 0ca2 9d2b ccbf
00000130: 64e4 506a 6a67 83bf 62cc ec04 a0df d83f
00000140: 32a4 d1c2 56e4 1040 b600 bf09 3002 c7bf
00000150: 5304 ec08 5306 0bc0 d15f 251f 446e d53f
00000160: 8b7d e094 c4df f2bf cfec 1d4f 016f fc3f
00000170: 4403 636f 0577 acbf 57a3 f6c4 ed51 dd3f
00000180: 5741 44cf 86bc 15c0 4663 b199 55eb 2040
00000190: b5d2 5565 44e0 02c0 6242 c6e8 dc5f d53f
000001a0: 900f 3baa 1229 ed3f 7d11 4f51 a5cb d3bf
000001b0: 04e3 58d5 e678 b13f 9bb9 8247 461b d53f
000001c0: 4f8d 5605 db93 ed3f d7c0 fedf 113a 983f
000001d0: 798f 7f1b 792e d2bf ce88 d2f2 2183 d53f
000001e0: 6c72 8638 4ee3 ecbf 9456 1229 91dc fd3f
000001f0: cdc7 f911 306f d3bf 5652 bdde 87c3 d53f
00000200: 3e96 76d0 a6be ef3f 7b94 05b5 b2f2 b2bf
00000210: 41b2 6bad 4bc5 d0bf e4ea bfb9 aa04 d63f
00000220: 1c85 7a79 9f25 e13f 1da5 caa0 af43 513f
00000230: 1e1a 03a5 536e a5bf 3347 05e9 a328 e03f
00000240: 78a1 8ef1 640a 80bf 929e 7ec9 2316 d03f
00000250: 4c97 21f4 062a e6bf 4441 9451 8f2f f73f
00000260: 9d62 0ceb bcb2 95bf 55c9 c826 4d3f e5bf
00000270: 188d 7876 06b8 ee3f 539f a897 dc34 e73f
00000280: 31cf f9ef ce9d e03f b2d2 056a 6826 c9bf
00000290: 455b 00cd 6f5d f0bf 032e 4462 5533 fb3f
000002a0: 2754 6113 8b60 d2bf 1e2c 2573 8446 cdbf
000002b0: a403 6cef 7c45 ec3f 77f1 0db7 693c e43f
000002c0: b6ca 94e1 1e36 e03f 9899 1c5c fea9 cfbf
000002d0: ca6c 80d4 8d61 7d3f d65a c999 9d79 e73f
000002e0: fb03 a8e0 c9f1 e03f d981 9849 b9f8 b1bf
000002f0: 1d99 1a7a 4cf2 b5bf 645f ced7 960b e43f
00000300: b5d6 db8e f49e f9bf 3274 a676 1f6b 63bf
00000310: 2f85 630e fc16 0240 457e 4007 c8ea d53f
00000320: 2d64 1a0f dfc0 d13f 34e8 4832 f6ea e33f
00000330: de3d a1be 8510 f93f 034b 8c9b 3876 f7bf
00000340: 908f 301f 5456 eb3f 354f 3708 5ec8 0e40
00000350: 3a07 e98c f252 b7bf df2a 9c7b 5be3 0cc0
00000360: 897d dad0 0c13 fabf 961f 872e 450d 0840
00000370: ec88 a030 93b2 02c0 3550 0dd5 a85d ff3f
00000380: bbd7 6fc5 72e4 f1bf 2139 2bf2 e2e5 e7bf
00000390: 7b6b b07b d099 e23f 479f 5600 3e45 0240
000003a0: d0bd a885 6f87 873f 85fe 7d87 923d ee3f
000003b0: cb35 ab22 4800 f3bf 0de5 e0ff 6fb2 f33f
000003c0: 45e3 4a45 cce5 c5bf b409 6f83 a0c7 d4bf
000003d0: 16ef f5de 8cec bebf c77d 7477 6add f93f
000003e0: 8fde 6f97 2def acbf 0322 a0f8 9251 c2bf
000003f0: d2d4 f1a6 5790 c1bf cfbd adc0 b663 f53f
