trotterization/Order_n4/Cycle_q6/q6_parameters_d.npy (npy, 1664 bytes, 1 tensors)

array f8 [32, 6]
0	0x3fbe1a08a3e545b6	0.11758474351270007
1	0x3fca86bad6ff4eaa	0.20723662851252317
2	0x3fd951e4bbc3d42b	0.39562338196202756
3	0xbfdb00d79dcfef94	-0.4219264069686173
4	0x3fc0fdf026b917e2	0.13274957552692884
5	0x3fb1986ce8da5ad5	0.06873207745443762
6	0x3fbfce386454a23e	0.12424042176702074
7	0xbfd668eac7df6640	-0.35015363234342445
8	0x3fbf4117caaf1925	0.12208698938693326
9	0x3fd2ff1baa2d33c9	0.2968205606346684
10	0x3fcdd06c7b868a8b	0.2329230883743388
11	0x3fb2f71350b7f964	0.07408257218046327
12	0x3fc1942ee015188c	0.1373346895363209
13	0x3fc56541095546a1	0.16715252834051333
14	0xbfddb8441260d8e5	-0.46437169832951347
15	0x3fdcb2064260e0aa	0.44836575014370317
16	0x3fc0a6a038e6d750	0.13008501795200766
17	0x3fb4d8d6fb5d73f5	0.08143371235696846
18	0x3fd2fa8f87c34fa1	0.29654300935839656
19	0x3fcb687f9ac754d8	0.21412653977919294
20	0x3fbdd91e399c5d7d	0.11659420877946576
21	0x3fc0f83db3a117cc	0.1325757147880594
22	0xbfd5f5474cc5a62e	-0.34309561249992526
23	0x3fb550463d9c2370	0.08325613979481061
24	0x3fe1b9f02c559dfb	0.5539475313098018
25	0xbfeb1aca30cd36ab	-0.8470202401310493
26	0x3feeb76ce28f6a3e	0.9598907876018712
27	0xbfebff6737b87646	-0.8749271477024159
28	0x3fe35fe206d9fa00	0.605454457647113
29	0x3fba4792963555c7	0.10265461127467922
30	0x3fd0f4af862f6349	0.2649344263459637
31	0x3f983a49e3039f3f	0.023659853440135988
32	0xbfd7113a8c0775b3	-0.3604265563461368
33	0x3fc8d319da904c28	0.19394229099325
34	0x3fd145d41d8c7402	0.2698869980393398
35	0x3fbba615734cf97f	0.10800298752744729
36	0xbfd4bf43852f41bb	-0.3241738129263713
37	0x3fbe25a11a4ccbe6	0.11776167766656406
38	0x3fbcddb06ac187d1	0.11275770765635619
39	0x3fc3cde75a2f1a5f	0.15472118285670697
40	0x3fc357332fc9bcab	0.15109863122368003
41	0x3fd26be1deef4148	0.28783461352306405
42	0xbfec755bb2c0368a	-0.889325951693267
43	0xbfee1c3222cbfe29	-0.9409418754220883
44	0x3fd06cf9791fb230	0.25665127590653736
45	0x3fe8d2d15f411a85	0.7757346020160446
46	0x3ff026e2d05fee74	1.0094936504018763
47	0x3fd274f431f6c85b	0.28838829879089695
48	0x3fd901083f98f332	0.3906880017346338
49	0xbfe1eceed42578a7	-0.5601724761470636
50	0x3fdf50a33bbf9b96	0.4892967303734904
51	0x3fe1cc7393bc26a8	0.556207455201009
52	0xbfe20f3ffd3ce141	-0.5643615671206491
53	0x3fc81b95ffe7af71	0.18834185595857947
54	0xbfe97a4f4f88900f	-0.7961803964030895
55	0x3fda7222bc4e26b8	0.41321628941714605
56	0x3fdae8b50fb5f061	0.42045332464454616
57	0xbfe0be8512689cdc	-0.5232568130058115
58	0x3fe953807ab3ee46	0.7914430996456268
59	0x3fc8dfa004eccc62	0.194324495701582
60	0x3fd5b767975f3783	0.3393191316835031
61	0x3fffc7161ef1957f	1.9861050804841793
62	0x4000e456c2d1a432	2.111493608496425
63	0xc0009b9c8fc6c2c5	-2.0759822113544453
64	0xc0003a167761e91a	-2.028363163638585
65	0x3fc56e441f255fd1	0.16742755432892278
66	0xbfdfa3014f5c7b60	-0.4943240427982598
67	0x3fd4e3bc0ef91687	0.326399817106314
68	0xbfe2dfc494e07d8b	-0.5898154170753726
69	0x3fe1fd2347a1618c	0.5621506117850443
70	0x3fdddb90f8664b2c	0.4665262628342812
71	0x3fcd51edc4f6a357	0.22906276814799284
72	0x3fd5da182c2399a5	0.3414364272161044
73	0x3ff8309d85763ec2	1.5118689740519788
74	0xc005bc86cf444157	-2.717054003973469
75	0x4005be5c70a7a72a	2.7179497529185896
76	0xbff856ca705eb91e	-1.5211891545728302
77	0x3fc55fdce8c64262	0.1669880043596264
78	0x3fe96a6e3ef9a5a1	0.7942420225128225
79	0x3fe051310969c3b6	0.5099110778665963
80	0x3fdd2912aa3b0f90	0.4556318914803734
81	0xbfe5441a5dbd8816	-0.6645633536211359
82	0xbfe852dfd1a41770	-0.7601164907980387
83	0x3fc51b464782b99b	0.16489485255938238
84	0x3fe0263433ca542b	0.5046635638742648
85	0x3ff0c1c5b9dfa1e8	1.0473077068983176
86	0x3fdd93db05568d4f	0.4621493866090604
87	0xbff09151961fa467	-1.0354781974986282
88	0xbfe4b1d27aaa3809	-0.6467068095969363
89	0x3fc58321f2d288ce	0.16806434971392153
90	0x3fdc3e51207bf114	0.44130352184562693
91	0x3fe07c8da79a6161	0.5152042649743117
92	0xbfdce34e3886726c	-0.4513736297610993
93	0x3fdac00702efea66	0.4179704216655068
94	0xbfe2faf494bc6a7d	-0.5931342034339903
95	0x3fc5c387debd5256	0.17002962470964417
96	0x3fdb0aaa62b9d64c	0.422525974666631
97	0x3fe0d5bd76db7c4a	0.5260913201744952
98	0x3fdfbea6d076963e	0.49601145131814295
99	0xbfe204e8a22bd591	-0.5630992095381534
100	0xbfe1b6a81cb7d7b6	-0.5535469590092734
101	0x3fc604aab9bfeae4	0.17201742238815776
102	0xbfeadd7351bfcfa1	-0.8395325276055595
103	0xc001ce48401e275a	-2.2257237443163094
104	0x3fd1259f797a851c	0.2679213224710837
105	0x4001cf5c7b183404	2.2262506119500376
106	0x3fea3200b497b6d0	0.8186038520049923
107	0x3fd028a3e9054733	0.25248048549575514
108	0x3fe762f6ec49e372	0.7308306326877825
109	0xbff1052835aa04dd	-1.063759050012144
110	0xbf700a64f18ea178	-0.0039161627873130975
111	0x3ff307ecaed9d8b0	1.1894347028842667
112	0xbff13bfd332d578c	-1.0771457671266687
113	0x3fe72f8f51944144	0.7245556443540768
114	0x3fdcdb0a96c2a29e	0.450869223811006
115	0x3fc908968d0766db	0.19557458769013789
116	0xbf85b2bceb0c629d	-0.01059482185660104
117	0xbfe0e1cc36a63e61	-0.5275631968851934
118	0x3f9dcfbdfb5ea795	0.02911278578509487
119	0x3fd734dc97a89f53	0.3626014214555557
120	0xbfeb0a4717e347e4	-0.8450046030577565
121	0xbfe09f20be2b2fe7	-0.5194247926933685
122	0x3fd09dceeff9cf31	0.25963185725344134
123	0x3fdaf4a761d4eb21	0.4211824851405926
124	0x3fd559ae95c5d93f	0.33359875322584637
125	0x3feb335562442e03	0.8500163001312447
126	0x3fd64d37d6dc5a38	0.348463020157769
127	0x3fd989ac45c1554d	0.3990278893664552
128	0xbfc2608b13615427	-0.14357126661585193
129	0xbfe06da6b145502a	-0.5133851492232726
130	0x3fb7e114623ea5af	0.09327819250633838
131	0x3fd43c69b70df177	0.31618731380856197
132	0x3ff572571ffa052c	1.3404151200377994
133	0xbfe13dc7dabf2c5c	-0.5387915871045936
134	0x3fd0361ee194cab6	0.2533032610837539
135	0x3fda91101e773251	0.4151039407268274
136	0xbff563a6590fc4f6	-1.3368285635918347
137	0x3fd7799d99c95ad6	0.36679782884804746
138	0xbfdc0d5ad701333d	-0.4383151149420888
139	0xbfe0bc9c971cadef	-0.5230238868147675
140	0x3fd0f1c9e0a803fb	0.26475760401814313
141	0x3fdf3a2205064ba3	0.48792314997370506
142	0x3fd94f1147bde01a	0.3954508972742602
143	0x3fd40b96d7ce5f64	0.313207350490748
144	0x3fd6d19e837910ce	0.35654414023543957
145	0x3fe00959182a701f	0.5011411163318406
146	0xbfe99ef48edbd6b5	-0.8006537237367498
147	0xbfe0130ea7e5c359	-0.5023263243912012
148	0x3fe8c528db0a81f7	0.7740673330445692
149	0x3fc5eac807407e45	0.1712274585161017
150	0x3fe73f8b7c8fc2a1	0.7265069420664824
151	0x3fc6216ef8600d19	0.17289530875869089
152	0x3fc1c0df0f1a642d	0.13869846570449465
153	0x3fc1b47d6c31c350	0.13832061560563114
154	0x3fad0fa42117b3c5	0.056759957351324476
155	0xbfe776389b8c4b03	-0.7331812894866235
156	0x3ff8cf586b92ba2e	1.5506214334560684
157	0x3ffd4e899a92a1a2	1.831674197959821
158	0x3fdb56541f308f90	0.4271440796458075
159	0x3fb79d46da4ad935	0.09224360303310138
160	0xbff989effffa0267	-1.5961761473737626
161	0xbffce35b7b9c2adf	-1.8055071667210354
162	0x3fb7c406808e7da1	0.09283486021603561
163	0x3fd5e4551d4976d7	0.34206130847983957
164	0xbfea130cd0da7d89	-0.8148254470033162
165	0x3ff2942fe734c1e0	1.1611784965026501
166	0xbff42ed398a970c6	-1.2614322627405712
167	0x3fef5da8d50d5035	0.980183044545362
168	0xc009113738450fd0	-3.13340610466728
169	0xc00a321647a9af33	-3.2744565580996094
170	0xbfe1e472c56fd7bb	-0.5591367584408923
171	0x40073559e964480e	2.901050399182174
172	0x400b647147bb1d40	3.424044189832472
173	0x3ff2453e00569f47	1.1419048321931358
174	0x3ff3347551e0ba41	1.20030719741375
175	0x3ffded8c78c29a7c	1.8704952923959857
176	0x3f77876f85a8bdd0	0.00574439585993454
177	0xbff65e27d6e31adb	-1.397987212565275
178	0xbffcb49963365526	-1.7940915942647933
179	0x3fe3b26fffe0e50d	0.6155319211603981
180	0xbff892fad95cfb35	-1.535883759570152
181	0x3fd9f9a3da22999c	0.405861819288839
182	0xbfb5e5cc454ae345	-0.08553768817627112
183	0xbfe22eba0ded0f3b	-0.5682039520256476
184	0x3ff79b9672654bbd	1.4754852741796036
185	0x3fe9dd6a77747dc7	0.8082783063036282
186	0x3feef0542c6e186c	0.9668370120787251
187	0x3fe3d22f4f757df4	0.6194073249752692
188	0xbf9cef2d976fde8f	-0.028256142013531046
189	0xbfe61c61ae898234	-0.6909645470551085
190	0xbff0912f90a62983	-1.0354457521776517
191	0x3fe563b6c0adbdcf	0.668422104192297
