trotterization/Order_n6/Cycle_q10/q10_standard_parameters_b.npy (npy, 9728 bytes, 1 tensors)

array f8 [240, 5]
0	0x3fc47785e937a025	0.1598975552326475
1	0xbfc6e123354db4d6	-0.1787456522246546
2	0x3fab3c3012856900	0.05319357133949332
3	0x3fdecd2b83e68b69	0.4812725818721249
4	0xbf8ffc5c0585c620	-0.015618056219611154
5	0xbfb34c9f831d5b10	-0.07538792563478247
6	0x3fd3553d8e792efa	0.3020776645032438
7	0x3fd24316b12c9ebb	0.2853447656839127
8	0xbfb4da81bf943202	-0.08145914962023684
9	0x3fb1c5d0441a563c	0.06942464506786278
10	0x3fc5c4df562781d4	0.1700705691028036
11	0xbfbc4780044409f4	-0.11046600441117232
12	0x3fdd0bf89f3f9251	0.4538556628379285
13	0xbfc107e3dbf1428e	-0.1330532859742743
14	0x3fbe9da692d94227	0.11959305844471456
15	0xbfd3bfa8f75ad5e4	-0.30857299953217265
16	0x3f936c2621f20218	0.018967243024691965
17	0x3fe262e9c0360fae	0.5745743517040773
18	0x3fcfcd29fe0f8975	0.2484486094027251
19	0xbfa11c0f51c17299	-0.03341720459932169
20	0x3fcba2bf347eb1c4	0.2159041410753969
21	0xbfb5c2450e494b0f	-0.08499557112490329
22	0x3fb2e3cea8916c77	0.07378856292182144
23	0xbf84fa27705a0e81	-0.010242756000713673
24	0x3fd38e0f3ab16f38	0.3055456231283986
25	0x3fc73d7632af019a	0.18156316256319088
26	0x3febda06c9751b61	0.8703645643916894
27	0xbfeee7dee8ef1ac7	-0.9658045339100106
28	0x3fdbdb558f8b7ef0	0.43526209848458475
29	0xbf95e6069ef00f23	-0.021385291529454464
30	0xbfcb09cdde492386	-0.21123669961732733
31	0x3fdf32d955eea561	0.487478574674773
32	0x3fd0472a6c497b83	0.254343610524238
33	0x3ff192c0b8926444	1.098328324302444
34	0xbff21007ed57480c	-1.1289138098841276
35	0xbfb610b85ac5aa10	-0.08619262901417124
36	0x3fb292efa2359ecb	0.07255456648055796
37	0x3fd053652af57f51	0.2550900382539015
38	0x3fd2106613f49202	0.282250899779939
39	0xbf9845910c60e823	-0.023702875500227216
40	0x3fd1f580672403fb	0.280609226916624
41	0x3f54e4e60f660928	0.0012752768212470154
42	0xbf93623bbfffbc84	-0.018929418176352644
43	0x3fe29affd07cebc5	0.5814208099394526
44	0xbfd60a41322d45c6	-0.3443758955009709
45	0x3fd4d640591bc8cd	0.3255768652153506
46	0x3f9a15a4f1fbf0e6	0.02547319151834495
47	0xbfb270501e1ba544	-0.07202625975664484
48	0x3fe19a02309b2294	0.5500498723350398
49	0xbfd50f8b01eae3b2	-0.3290736693120905
50	0x3fd1661943e2aeb3	0.2718566096252559
51	0x3fa508a3056e8689	0.041081518567136995
52	0xbfbe5a086be9a7f8	-0.11856129297817108
53	0x3fd45bc53b259863	0.31810122276363567
54	0xbf898e189775bd1e	-0.012478057977857445
55	0x3fd1eb301dcedf84	0.2799797335715015
56	0xbf92b4ce1b982e29	-0.018267841753227074
57	0x3fe4025c16e9196e	0.6252880523177688
58	0x3f53a928dc79ff04	0.0011999987636101559
59	0xbfd8d84492c4097c	-0.3881999428996534
60	0x3fd317c68e2914d1	0.29832614786967065
61	0xbf55f7651863ec17	-0.0013407218225995937
62	0x3fa70b33d0e9e509	0.04500734257903544
63	0xbfb8e03ae402aeff	-0.09717147890722443
64	0x3fd054d915d2be39	0.2551787102811179
65	0x3fc3f72c151a2b86	0.15598059683210524
66	0x3fe2028da73c296c	0.5628116861637813
67	0xbff2feb8c50ca600	-1.1871879288904665
68	0x3f811117203d4272	0.008333378478398521
69	0x3feeb8d48115a2a8	0.9600622674161814
70	0x3fcca399323edb6e	0.22374262765307712
71	0x3fe422f99af2237f	0.6292694116865362
72	0xbff194c3d0a2bb97	-1.0988195562201548
73	0x3feddecb494d9ddd	0.9334465438559466
74	0xbfc8048e3e280429	-0.18763902697540516
75	0x3ff6f8ea74c168c2	1.4357704697381881
76	0x3f73cabb69e43c13	0.0048320122571246125
77	0xbff7aded99685f23	-1.479962920426211
78	0x3fd3315d34a1dd6c	0.2998879446017415
79	0x3fcea708e0a4d64d	0.23947249382915672
80	0x3fcc58c4c26c2737	0.22145900243077118
81	0x3fd32a577c5f01c2	0.29945933480851405
82	0xbfe7fb6dd55649a9	-0.7494420210589868
83	0xbf8a493dee45f1bc	-0.012835010370275117
84	0x3fe7b935de44d6c2	0.7413586941899768
85	0x3fd11089bc7b02dc	0.26663440138149297
86	0x3fd8052bd7a5cce1	0.3753156286176829
87	0x3fe262ff5ac7e55e	0.5745846531928398
88	0xbfc19411205e0656	-0.13733114319261358
89	0xbfe288d5dcc0cba7	-0.5792035399994021
90	0xbfbb866687cf25c5	-0.10751953902867857
91	0x3f9b905a67a2cc28	0.026917851043162383
92	0x3fd6f162a8222676	0.35848299426343233
93	0x3fe3417ee027c48b	0.6017450693162955
94	0xbfd84bcc6cf812dd	-0.3796263755942116
95	0xbfcd7ad3b058acf7	-0.23031087980903184
96	0x3fa9066d53165956	0.048877159492962605
97	0x3fe123a605a8380e	0.5356016264429415
98	0x3fd0f409a005da17	0.264894872925113
99	0xbfbe7ae5f632fb8a	-0.11906277905198528
100	0xbfe4f190e379a371	-0.6544880335687663
101	0x3fed40fa6121684d	0.9141818902092013
102	0x3fd7d654731bf3c0	0.37245665780192994
103	0x3fd8fe4d0b580820	0.39052129848289674
104	0xbfe0b9ba3ce1c2cc	-0.5226718129252617
105	0x3fd0d868d73aefd9	0.2632085897309913
106	0x3fbae1e2283eb56c	0.1050092075590407
107	0xbfcc0b83c0d0f5e8	-0.21910139956337038
108	0x3fd9c1f86696bd43	0.4024640085071562
109	0xbfaa68bf3bc6fc18	-0.05158040623381782
110	0x3fce2e73c6ec6a97	0.2357926102930221
111	0x3fd2608a347067e8	0.2871423256016201
112	0xbff7cb3db65cc350	-1.4871194003610135
113	0x3fd25cefabf8af4e	0.2869223765762755
114	0x3ff2d610c564f030	1.177262087890096
115	0x3fb6ee5c9d455d15	0.08957461204169122
116	0xbfbe392a3a50858b	-0.11805976794905441
117	0x3fd48ed121c8199f	0.32121685313213705
118	0x3fd01900b41e1925	0.2515260466538101
119	0xbfa6a8f3751b4535	-0.04425774387858398
120	0x3fcd5484ad807571	0.22914179298178852
121	0xbfb52d05185b00fc	-0.08271819920173934
122	0xbf7674a81f3fd53a	-0.00548234627421112
123	0x3fab889d8136b5b6	0.053776666663320524
124	0x3fd389bddfacae25	0.30528208583084143
125	0x3fd734f87116ca2d	0.36260806125497674
126	0x3fd1b3109e9c863f	0.27655425538441486
127	0x3fea95273fe7d226	0.8307071922450333
128	0x3f59413dc1e47f57	0.0015414336299457065
129	0xbfef15cc66a26c9c	-0.9714109425143707
130	0x3ff7cd39360bff8a	1.487603388901308
131	0x3f628c0442001a43	0.0022640307579451526
132	0xbff44688408cb129	-1.2672197839229489
133	0x3fd360b8cafc992e	0.30277843306466223
134	0xbf9a094a97dd2e90	-0.025426068800966706
135	0x3fcfb33c3bae9a46	0.24765732683336433
136	0x3fea375e726bdacd	0.8192589030066643
137	0x3fc2d98d0ca7646d	0.1472641288553719
138	0xbfc1d12cc4342fbd	-0.1391960104014042
139	0xbfe2664593744e8b	-0.5749843482939964
140	0xbfd0dcbef6fae6bc	-0.2634732639231563
141	0x3fe3c8000725f720	0.6181640758147502
142	0x3fcff54f66a6d795	0.24967377197543486
143	0x3fed3cc549a353e5	0.9136682928316274
144	0xbff049dcd77ac6c6	-1.0180328766986562
145	0x3fce4919508b6bf9	0.23660580094187347
146	0x3f915eb4116f9c64	0.01696282726689126
147	0xbf8203e06ff55256	-0.008796456734367169
148	0x3fe47d1195bc5e05	0.6402671741988689
149	0xbfd8a47c1155c139	-0.3850393456732664
150	0x3fdcf77f3579e89f	0.45260601255689353
151	0x3fd71e4b81c31e57	0.36122405693138177
152	0x3fcdafe727488bf9	0.23193063181051324
153	0xbfe2ce3058e1c444	-0.5876695381140356
154	0x3fa575133711dca5	0.041908836815246965
155	0x3f4b98dbab2d40ac	0.0008421967125773664
156	0x3fd5fe491f7f4cbe	0.3436453635778881
157	0xbfe1dc9b90f19d7a	-0.5581796484884045
158	0x3fdbd186f7c70676	0.43466352650657514
159	0x3fd1db9a9cc75120	0.2790285616913639
160	0x3fd928c126e73ea4	0.3931124572672877
161	0x3fd9344687df7ca3	0.39381564396712515
162	0x3fe04e24efdf7b7b	0.509539097310934
163	0xbfcd8869bd952142	-0.23072549588165187
164	0xbfe21a8e57dd90ce	-0.5657417026636951
165	0xbf6ed1ffb6e14c1f	-0.0037622446462051286
166	0x3fcc206c5ba1ee6a	0.21973947977299996
167	0x3fe052da8353de82	0.5101139607422314
168	0xbfcd9bbc59d9ab6f	-0.23131517779560393
169	0x3f7565bdf87905a5	0.005223981926577724
170	0x3fcd66d9c05c790f	0.22970125095975688
171	0x3fe051f3ec557df3	0.5100040069482347
172	0xbfd19c567efabaa9	-0.27516710663159444
173	0x3fc6c42ecba50ab2	0.1778620237692699
174	0xbfc23a2b3f620639	-0.14240017504566696
175	0x3fd44c3c7b210874	0.3171530916625962
176	0x3fe2bbf244f2e387	0.5854426714569038
177	0xbfd41b2779578215	-0.3141573605517192
178	0x3f9240d2cdf21947	0.017825406856468076
179	0xbfbb341ae239bc03	-0.10626380942424878
180	0x3feb3dfe106c1f95	0.851317436289707
181	0xbfecb0050c76a690	-0.8964867824008298
182	0x3fd9f57424822f4a	0.40560630383764773
183	0x3fd1e839a97fb085	0.2797989039670557
184	0xbfc1f33fabd9a3b1	-0.14023586169358063
185	0x3fd20c743a4bf9c0	0.2820101327232827
186	0x3fe0505775c778d7	0.5098073292135962
187	0x3f9df23a0ed4cc3c	0.02924433436892236
188	0xbfab6653741c6dc8	-0.05351506035205095
189	0xbfd11f7c5844aa79	-0.2675467359537503
190	0x3fbea9575c9880ee	0.11977144251477842
191	0xbfc0728f559bf693	-0.12849609069956056
192	0x3fc5cfae8bc80998	0.17040044617904182
193	0x3fd6faf230bc91c0	0.3590665317481374
194	0xbf953d7a2f8bb7e3	-0.020742329742397102
195	0x3fd64cb0bddcb81b	0.3484308103678601
196	0xbfb5dc8909d0e676	-0.08539635171555368
197	0x3ff152fffb3aad73	1.082763654102419
198	0xbffe3420ca3b12dd	-1.8877265834464005
199	0x3ff0abbd302645ca	1.041928470691675
200	0xbfbc594eb9f1e3bd	-0.11073772468252137
201	0x3fdedc8cb7a67ee0	0.48221128401381286
202	0x3fd1ada48ba41cb6	0.27622331272909706
203	0xbfc8c06a5e0055e5	-0.1933720549574637
204	0x3fa762bcd190425b	0.04567518289707514
205	0xbfba359aced6f123	-0.10238044309420906
206	0x3fb8b8b7b8e6fce2	0.09656856788841453
207	0x3fcdfdb4e5ff2ce7	0.23430501203834028
208	0x3fe0088828538f8e	0.5010414874673061
209	0xbfcd6163fc5570fd	-0.22953462429985186
210	0xbfd96cf70835fa75	-0.39727569391099077
211	0x3fe94c8c40c8a1ee	0.7905942216212318
212	0x3fd766258046a2d0	0.36560952689118853
213	0x3fd0b20a9a07827d	0.2608667854492877
214	0xbfe0a228c9d4b75a	-0.5197948400507173
215	0x3fd2221da3cdcd4d	0.28333226200557676
216	0x3fe0384d054897c3	0.5068726638025897
217	0xbfa10419627a38d9	-0.03323439910046639
218	0x3f6d6d94de99accd	0.0035922916038565234
219	0xbfd0ad0fabcce913	-0.26056281831155664
220	0x3fd24718940826a2	0.2855893560050423
221	0x3fdeac3e33008326	0.47926287632621933
222	0xbfa77d06540b257e	-0.04587573791429643
223	0xbfced568ab1d2ab9	-0.24088772158787267
224	0x3f966fe59075043c	0.02191122717090742
225	0x3fd26f11f3fa743c	0.28802918268212685
226	0x3fde74cf44fae561	0.47587949501356347
227	0xbfa95f8c69a5a9fc	-0.049557102104547085
228	0xbfce6cb69d2735db	-0.2376926677083436
229	0x3f97e6ba2d2f68f9	0.023341092117200344
230	0x3fd7d3b02c28d3b8	0.372295420765393
231	0x3ff0f9c3cee2fc8b	1.060977752829589
232	0xbffa843f210cc06a	-1.657286767102074
233	0x3feb5d4d70f9c29d	0.855139465957183
234	0xbfc0c8bb8aea92e7	-0.13112587245009097
235	0x3fdd474037298911	0.45747380625665907
236	0xbfe242cc1c8101f5	-0.5706539684979918
237	0x3fce114485b0f504	0.23490196731464874
238	0x3f658a66f0b150b7	0.002629471831406684
239	0x3fd80aa0f11e9db5	0.37564872309527725
240	0xbfa6ad1f1b7e3f8b	-0.044289562326525
241	0x3fd355e5847c6605	0.30211770952300326
242	0xbfeb533ce9691bd3	-0.8539108809280783
243	0x3fb5d11715263c83	0.08522171274511163
244	0x3ff02c7c9b1f029c	1.0108610209864883
245	0xbf8c5cab0628444f	-0.013848625302701615
246	0x3fcf2b495161bbc3	0.24350849603385258
247	0x3fd2dfd4fa9886d1	0.2949116179680518
248	0xbfc08be9e2126267	-0.12926982439673226
249	0x3fbacd8297c43a8f	0.1046983356975295
250	0x3fd77f9cc9bbc813	0.3671638460210726
251	0x3fd0d14c427662db	0.26277452936623796
252	0xbff791469fed4552	-1.4729677436010502
253	0x3fa2c3ec72acf27b	0.03665102863167121
254	0x3ff4e6ecf94b5302	1.3063783395820683
255	0x3ffea64e6275653b	1.9156020971334573
