trotterization/Order_n6/Cycle_q10/q10_standard_parameters_a.npy (npy, 11648 bytes, 1 tensors)

array f8 [240, 6]
0	0x3fadd3a497a6e0aa	0.05825533248156607
1	0x3fd5f8cce920b67f	0.34331057325730535
2	0x3fac37173b411664	0.055107809050736006
3	0xbfc0464b3056a1b9	-0.1271451936747903
4	0x3fe095d796243417	0.518291276211701
5	0xbfe642adf79accb2	-0.6956395946530363
6	0x3fc01d93e0655daf	0.1259026380237009
7	0xbf9c8a21c491d03f	-0.02787068140283133
8	0x3fd076ec33ef2960	0.2572584635896842
9	0x3fe78df4cf40b30a	0.7360786483673973
10	0x3f942208c725ec3c	0.019661080508267967
11	0xbff38d8f19664006	-1.2220602981724382
12	0x3faf6167ffdefd03	0.0612900256960476
13	0x3fd22e987225b6c8	0.28409396311949964
14	0xbf99d82d769e504d	-0.025238714566129073
15	0x3fe8fdcb87e8b4f6	0.7809808401558758
16	0x3f88c800fc3ebdc5	0.012100227067860634
17	0xbff39f8cd935889f	-1.2264526829463092
18	0x3fc19e0b6c14096e	0.13763563897380088
19	0x3fb23389f5d2dc66	0.07109892131380632
20	0xbfb5fcdd44bfe60a	-0.08588965347725988
21	0x3fd34774b0ed4b00	0.3012363174249657
22	0x3fd6aaa66a8b05bb	0.35416565327258426
23	0xbfe1cecbfdc7130a	-0.5564937550157947
24	0x3fb05d3bd9170782	0.06392263460204897
25	0x3fe94f3e3ed901df	0.7909232356542438
26	0x3f949e7a43562707	0.02013579402913648
27	0xbff04bcf7cf7e228	-1.0185084230016717
28	0x3fe06d5303bcb71a	0.5133452485076504
29	0x3fd0a9c9a871e4bd	0.2603630204171841
30	0x3fb1906640e72b68	0.06860961041017577
31	0x3fd4df77c112aa34	0.32613939146782234
32	0x3f66f2e2cd2a74bc	0.0028013639178668653
33	0xbfacd212b17a2f8b	-0.05629022995444107
34	0x3fe039b6072acc8e	0.507044805525213
35	0xbfe64aa0cf0d1d22	-0.6966098827332738
36	0x3fc12296e2eb1a05	0.13386808471678094
37	0xbf8ea56fde180894	-0.014963983502642976
38	0x3fd2bbf6c8db5684	0.2927224122516707
39	0x3fd7a72a1ff40979	0.3695779144328735
40	0x3f43bc9edf1095e6	0.0006023193110464258
41	0xbfe2091f2ac3b505	-0.5636134944194572
42	0x3fdb11720d054c57	0.4229397895007358
43	0x3f9326bbdbcc9194	0.01870244530722827
44	0xbfd5c0fe9d1c5d0d	-0.33990445463992175
45	0x3fd222b0c84e9710	0.2833673435328459
46	0x3fdb1809027beaf8	0.42334199183066756
47	0xbfe3bd98f8703a6c	-0.6168942310631116
48	0x3fb57f98b13ce6f2	0.08397821738335745
49	0x3ff1c92be9a6e892	1.111614144042083
50	0xbff4ba7e6a85c4a1	-1.2955307160412206
51	0x3fe2c6a8f6839d6e	0.5867504896859097
52	0xbfa1fe9691878667	-0.03514547850114696
53	0x3fb8bf25e2af6371	0.09666668686203451
54	0x3fb5d009c439f306	0.08520566025431373
55	0xbfd4a9ba546028d9	-0.3228593658428856
56	0x3fbd0f37f1487c72	0.113513466269511
57	0x3fe427aa35a1b06f	0.6298419044010312
58	0xbf9d2ee451065bf1	-0.028499190755237384
59	0x3fa7583c0cc91dc1	0.045595051346534195
60	0x3fab64a94ee55954	0.053502360230299445
61	0xbfcc4d6dc3fd55ff	-0.22111293859295242
62	0x3fb9653fa1f8d6f9	0.0992011804999854
63	0x3fd8d22ee4aac3c0	0.38782856302992386
64	0x3fe53a1a156c0141	0.6633425157925005
65	0xbfeee5913fdefc2b	-0.9655233619195135
66	0x3fb5e623b0f0dffb	0.08554289884420989
67	0xbfc5e2b5df68f97f	-0.17098115357107344
68	0x3fe279f1e6d919e3	0.5773858555556298
69	0xbfe24befd446849e	-0.5717696329121684
70	0x3fe149426becf129	0.5401928050919526
71	0x3fb44a4833c9bf32	0.07925845398289935
72	0x3fb2940a7ccebea5	0.07257142588673078
73	0x3ff04cd6c13b667b	1.0187594936491269
74	0xbff4bd25f2515470	-1.296178766778464
75	0x3fb4d0e0e0e7df3b	0.08131223193038022
76	0x3fe0740570ebb391	0.5141627507670014
77	0x3fcbffdc2c4aa4e9	0.2187457290904498
78	0x3faed02846b4e513	0.060181864386729476
79	0x3fd097ad7e94847e	0.25925767289488266
80	0xbf937c18dee0ea0b	-0.01902808056204645
81	0x3fbea9dcbe32685f	0.11977939265708092
82	0xbfc00961a8535f59	-0.1252862998869613
83	0x3fda40915640062a	0.4101909010206294
84	0x3fb6a5c2eff9ecc9	0.08846681937022817
85	0x3fd0d10cfdc0bbde	0.2627594450049723
86	0x3faa86492ee92f07	0.051805769897866276
87	0xbf7359aca883fe99	-0.00472419209131627
88	0xbfbf7e95312c64f6	-0.12302524996302452
89	0x3fdcc38a3ea1988e	0.44943481556254816
90	0x3fcbb27861a830d2	0.21638397949607807
91	0xbfbf0895b3f60bd9	-0.12122474330503454
92	0x3fbe7a63884d81f7	0.11905500486091812
93	0xbfb9ca04a4445a33	-0.10073880205559575
94	0x3fd3c00b19faea25	0.3085963968002566
95	0x3fc3f319a4b0d9e0	0.15585632840675512
96	0x3fb44fc515149fde	0.07934219135915963
97	0x3fd12592dd205b04	0.26791831583379655
98	0x3fe6d6c0ab8d56f7	0.7137149191500772
99	0x3fb28444a0d99b88	0.07233075072291062
100	0xbfb18a3a8af4865d	-0.06851545231304486
101	0xbff212c3ff7cbb1a	-1.1295814495057983
102	0x3fbef93df989b92b	0.12099063245998269
103	0x3fd36ec41bbf313d	0.3036356230702671
104	0x3fd6e29d0a2c6d1b	0.35758138650426624
105	0x3f93e84532ad13fe	0.019440728395483824
106	0xbfb104ff2b49683a	-0.0664824944191488
107	0xbfde19ea594d07a8	-0.4703317520217021
108	0x3fcde28cec421bff	0.23347627197310314
109	0x3fc232f89cdf3f08	0.14218051585930191
110	0xbfcf904e7996a097	-0.2465913861935902
111	0x3fd73f9dfe9ec18e	0.3632578836941541
112	0xbf9c3e0e72c2ad58	-0.02758047652666326
113	0x3fb20d3b06406079	0.07051438238738851
114	0x3fc67e0c5c3d1217	0.17572168830714993
115	0x3fa6da4479ea649c	0.0446339987585784
116	0xbfb4f84a695d44fd	-0.08191361496325907
117	0x3fdaddc68fc5a720	0.4197861103080971
118	0x3fcb7246fc84e4c3	0.214424966144895
119	0xbfe17326310c9de1	-0.5453062971109227
120	0x3fbe2c9b3b39c36a	0.11786813922823361
121	0x3f451aa1a2b6388c	0.0006440438495916175
122	0x3fd3390395e636fb	0.30035485876656737
123	0x3fd74048ba53d485	0.3632985896686665
124	0xbfa7246d27a7db4f	-0.04519978627279519
125	0xbfde54e595c9b819	-0.4739316904805278
126	0x3fb8b18162af0497	0.09645851763981948
127	0x3fe400bd9992bdf0	0.6250904082752964
128	0xbfc59b6d9db4dd6a	-0.16880579185974948
129	0xbfbc8dbcbfeff8dd	-0.11153773961993659
130	0xbfd408eb82e65c86	-0.31304443152607353
131	0x3fe7cc35f5eb8c6d	0.7436780741812875
132	0x3fb625e19233a825	0.08651552028064254
133	0x3fd18d93c967f050	0.2742661921363423
134	0x3fe34a3a43ccc19f	0.6028109859671992
135	0xbf4a0adf4acb402a	-0.000794753102661976
136	0x3f5af1a192614cb8	0.0016445234155256071
137	0xbfedb96ce77b5943	-0.9288849373940952
138	0x3fdb34c12b40ab43	0.42509488319290173
139	0xbfab207606b447fb	-0.052982033079516065
140	0xbfcfe1727c8bd119	-0.24906760293345867
141	0x3fd550d2b623647d	0.3330580500310772
142	0xbfcbe3ab1daeb457	-0.21788538884485106
143	0x3fe0c109ac8fbbf8	0.5235641832676938
144	0x3fb163b805191c4e	0.06792783855881732
145	0xbfd6c30357b48308	-0.35565265240624955
146	0x3fe7e23029795bfe	0.7463608560600503
147	0xbfea4771beb4968f	-0.8212212300029068
148	0x3fe5bfec8135fdef	0.6796782039309032
149	0x3fd7697efcf16a70	0.36581396771877106
150	0x3fc0212f854d1668	0.1260127449879065
151	0x3fdd9d20516e962d	0.4627152247652216
152	0x3fcc7c9d0232cc33	0.22255289656968244
153	0xbfd3336a93df8c7a	-0.3000132030558188
154	0x3fd2f1ced7e9f50f	0.29600878796903
155	0xbfe3aa6ad938f00f	-0.6145529024720434
156	0x3fb525297f4b928d	0.08259829862397279
157	0x3fc7dda573d0c6d5	0.1864516082292115
158	0xbfc7b611b50cee22	-0.18524381008488527
159	0x3fd0df003567dcc5	0.2636108895816956
160	0x3fe351d3f10aa9d8	0.6037387569279486
161	0xbfecdfbc56b20171	-0.9023114865558864
162	0x3fb7ffcae9a2edc1	0.09374683574690491
163	0x3fd92cab5c77d93e	0.3933514025697099
164	0xbfe7eaa9b336f983	-0.7473953724182113
165	0xbf8a07712a49946d	-0.012709507086763073
166	0x3fe737bed34b99b7	0.7255548598157507
167	0x3fb84b999243bc73	0.09490356274521776
168	0x3fc36af1b5f73ef3	0.1517011774544624
169	0xbf91306ffea10a4c	-0.016786336819004696
170	0x3fdae69a122ca65f	0.4203248193249233
171	0x3fcd0e5bfc444e5e	0.22700071160999163
172	0x3f61381bf7560ac2	0.0021019502843853963
173	0xbfe232aa234f0879	-0.5686846437095162
174	0x3fb57a06c16f4661	0.08389322493101183
175	0x3ff49f1663be40a7	1.2888397117822394
176	0x3fc68c874293567d	0.1761635851932403
177	0xbff184d3bb360b0a	-1.0949284851964785
178	0xbfabf4bb298aabf1	-0.05460152513600026
179	0x3fc9c31dc5ac08cc	0.20126697685197426
180	0x3fc31debd68eb8fb	0.14935062385979578
181	0x3fe225c1fff9d8db	0.5671091079264231
182	0x3fcd03f0b30f806a	0.2266827463454349
183	0xbfae7dcdb1968744	-0.059553554466460074
184	0xbfebeb2e7244448a	-0.8724586707850375
185	0x3fef49a455f88b93	0.9777394942396874
186	0xbfeb0713e86e972d	-0.8446139850318325
187	0x3fee52bab5e6c437	0.9475987961542448
188	0xbfb5c8ccf9c10729	-0.08509522531042236
189	0xbf765fd400b1c032	-0.005462482581705829
190	0x3fd1b8a3cf16f0fa	0.2768945238456265
191	0x3fdaf78248d77b7a	0.4213567458481787
192	0x3fc5d48d042af763	0.17054903701312715
193	0x3fda7305999abe1b	0.4132703781169497
194	0x3fd1d16f81c54ead	0.2784079329769423
195	0x3f8cd726b26c698b	0.014082243270924241
196	0xbfbe07e8e2401a7d	-0.11730819247905262
197	0xbfe0937a9a78e526	-0.5180027977977815
198	0xbfe09d257187b250	-0.5191828935035776
199	0x3fe2089095097f52	0.5635455046540108
200	0x3fd9835479749133	0.398640745743495
201	0xbfb282972c7550d8	-0.0723051532307325
202	0xbfe0775b871a624d	-0.5145700110179604
203	0x3ff49a990c6cf6cd	1.2877436147095296
204	0x3fb27b7b1c08b27d	0.07219666895316297
205	0x3fda7da652b5effb	0.41391904904571647
206	0xbfc30b1cd07df324	-0.14877662830613148
207	0x3fea3f509fa88971	0.8202288740470022
208	0x3fa68c46f1073bf2	0.044038979456324415
209	0xbff6739067758eb4	-1.403213886392149
210	0x3fbb3155292ecc35	0.10622150664748704
211	0x3fded4b53c258e51	0.4817326629037995
212	0xbfa373a17270061d	-0.03799156686728742
213	0xbfdd634157dc9759	-0.4591830595039617
214	0x3fe8cf4f6ff43da1	0.7753064333536949
215	0xbfe76df3e02f2484	-0.7321719530674646
216	0x3fc9909066e28e59	0.19972424529724966
217	0x3f62d89d6ef9cf8e	0.0023005556939156907
218	0xbfb2ecc5d79a95f2	-0.07392536653295403
219	0x3fdda3a5e9e704a4	0.4631132873729007
220	0x3fcca798b4779827	0.22386463939545928
221	0xbfe42a3a3c8b6606	-0.6301547224531425
222	0x3fb2142ef52e4c36	0.07062047468052488
223	0x3fdf747a92d8b5e6	0.49148430195313464
224	0x3fec2f8ace17c6ff	0.8808034920932356
225	0xbfbab841e469be38	-0.10437404467096989
226	0xbfec6da2ed55a1fe	-0.8883833537520898
227	0x3fb985d33b8ee4d0	0.09969825939232924
228	0xbfe3d1b0858f5e07	-0.619346867427283
229	0x3f8be058f9e87232	0.013611502768122372
230	0x3fe338ed4bfe863e	0.600699089456789
231	0x3fd5b1900cb0aa60	0.33896256675021696
232	0x3fe47b22291b07fb	0.6400309374660077
233	0xbfee5550b3944e55	-0.947914458027706
234	0x3fb7625468cd5bbd	0.0913441425194454
235	0xbfa49af066ef04af	-0.04024459129824131
236	0x3fde3d3edd5a4498	0.47248813263383616
237	0xbf98daebe484d847	-0.02427261907833891
238	0x3f83f93eb8a74231	0.009752740869687223
239	0xbf9292244594efda	-0.018135611292777166
240	0x3fc2d111d84e2e9c	0.14700530111109777
241	0xbf9772743141bb17	-0.02289754439010058
242	0x3fdf941e41fdc80a	0.49341541714159176
243	0x3fce6421a41880ae	0.23743076813207636
244	0x3faeeb4dd06a264d	0.0603889767563258
245	0xbfea94fa772a48c8	-0.8306858375019823
246	0xbfec87ad04a9dc91	-0.8915619937023554
247	0xbf90e96d6c669df6	-0.016515454999220545
248	0x3fee50585c235872	0.9473077582904479
249	0x3fdb030d0499ac62	0.4220612091946291
250	0xbfac725296dd4774	-0.055559712329922656
251	0x3fc821f5d855baa2	0.1885363870928432
252	0x3fc650b84c776916	0.1743383763667416
253	0x3f6255326b0409ca	0.0022378906943469655
254	0x3fd928d70217b5eb	0.3931176681934107
255	0x3fd27c52b131e793	0.28883807472413386
