trotterization/Order_n6/Cycle_q14/q14_parameters_c.npy (npy, 75280 bytes, 1 tensors)

array f8 [671, 14]
0	0x3fb47cc858b9d7f7	0.0800290314308255
1	0x3fb99f11ae883b9d	0.10008345137633375
2	0x3fb41b385302582f	0.07854034449187063
3	0x3fd63e6e2375e40c	0.34756043875637554
4	0x3fdb3b8b97a26806	0.4255093556217847
5	0xbfd00b8dfd84450a	-0.250705239844209
6	0x3fbc36debfd92a7e	0.11021225150867939
7	0x3fbb91532ea5dfc0	0.10768623246065001
8	0x3fcf306124babb79	0.24366392415455687
9	0xbfd8573464083027	-0.38032254952190886
10	0xbfd9f3717959382d	-0.4054835972827984
11	0x3fb51e469f35c29c	0.08249322306597623
12	0x3fb4b141207b9912	0.08082968752896516
13	0xbfbebea5d2b4c3c2	-0.12009655374710262
14	0x3fa3129b1a7ddeac	0.037251326545569924
15	0x3fbedfa8ed4eca48	0.12060027879378155
16	0x3fd1072d14f8a0b4	0.26606299446076354
17	0x3fc4f31755fc484e	0.16366855333814317
18	0x3fb241d200453d1d	0.07131683832743758
19	0x3fadc193fd7548ca	0.0581175085923334
20	0x3fc82792e60ff2be	0.18870769723425512
21	0xbfc99a1fdc3ec3e4	-0.2000160050788785
22	0x3fb2fb36ab13c651	0.0741457145375304
23	0x3fb65c4b5fc87bc1	0.0873458012433579
24	0x3fa6a5f78a352aac	0.04423497736077783
25	0xbfcd8b91eb54cf4c	-0.23082183829103042
26	0xbfce5c7f9af381fe	-0.23719782892204927
27	0x3facf8935f1d7ddc	0.05658398185800781
28	0x3fa3f769bb83697c	0.03899698652249392
29	0xbfc4e71c86c129f2	-0.16330296115695792
30	0x3fccb9c1ac5e950a	0.2244188396117937
31	0x3fd5a895d84f35db	0.3384146320721279
32	0x3fc4140c74e9a671	0.1568618365156911
33	0x3fb4b9c1805f312f	0.08095940956190327
34	0x3fc606aa378fc0bc	0.17207839692082938
35	0xbfc85e7729ec9245	-0.19038285777164013
36	0x3fb6ffe2fef7d9b0	0.0898420212250588
37	0x3fba9cff22623bf2	0.10395807828375306
38	0xbfd246b158f4b148	-0.2855647438725737
39	0xbfd426493690126b	-0.3148367913093241
40	0x3fc3143d6bfa6ac0	0.1490551736104262
41	0x3fb978f63511e61e	0.09950197978641781
42	0x3fb2d36b3d4f11d2	0.07353849646376112
43	0xbfd80d1cb7b06408	-0.3758003038252018
44	0xbfd1eee7b50299e4	-0.28020661045812134
45	0x3fb7b75bd30ba084	0.09264158155895258
46	0x3fb494332037b544	0.08038634811938034
47	0x3fc347bac0b4f6d2	0.15062651071087046
48	0x3fc013ced7bea990	0.12560449156201203
49	0x3fb9e07551d3bcf2	0.10108121154529551
50	0xbfc7e1b9a8944778	-0.1865760872975064
51	0x3fb0b447f35663c0	0.06525087061744639
52	0x3fbeeb24cfd6ead8	0.12077550958830885
53	0xbfba8e7ea9bd0aee	-0.1037367977524288
54	0x3fd8860ba313492a	0.3831814854176111
55	0x3fd034f96aba6e3d	0.25323329374961984
56	0x3f99536742d43d81	0.024732221082613307
57	0x3fa664ed9bb77b8c	0.043738770731343996
58	0x3fc0ffdd8888116e	0.1328083912523072
59	0x3fd346e2590b5c81	0.3012014264654184
60	0x3fc897409f751775	0.19211585794453936
61	0x3fb4079eea922b4a	0.07824128367262265
62	0x3fcb45f371a8dd86	0.21307223367487554
63	0xbfcca8226f4ab6c5	-0.2238810580651515
64	0x3fb7d63f054b5333	0.09311288718465675
65	0x3fb6b61a2f804015	0.0887161603898224
66	0xbfd1cf81f9853946	-0.27829026572444027
67	0xbfd0180a671be5dc	-0.2514673239635081
68	0x3fa73b699b834292	0.0453751566252595
69	0x3fa4bf987be07c66	0.04052425872964065
70	0x3fa25667fee11309	0.035815477240737144
71	0x3fca8e6ceb35ca8a	0.20747148022526957
72	0x3fd6efdc43efcd03	0.35838991770215517
73	0xbfc7599b2a298fc3	-0.1824220615263795
74	0x3fc7142d118444d9	0.18030322413736746
75	0xbfcc815850b55315	-0.22269729557833587
76	0x3fb546c5439ca4bd	0.08311112309151532
77	0x3fb2a0a1392d5ea5	0.07276351591041903
78	0x3fbfb3a1b1d4b283	0.12383471099446734
79	0x3fca6aaa7d0c4408	0.2063801870904458
80	0x3fc7299336633f96	0.18095626979493024
81	0xbfd209ebbbc60c35	-0.2818555196501536
82	0xbfd5c7f1de7cb148	-0.34032866217855373
83	0x3fb40a00c0a7221a	0.07827763274611535
84	0x3fa30ce7be15afaa	0.03720783419961944
85	0xbfc3b76dadb6ea40	-0.15403529150155926
86	0x3fc27421ced0a18f	0.1441690692747781
87	0x3fc2f805219a84fa	0.14819397106933946
88	0x3fb40df7b3572cf0	0.07833812836104292
89	0x3fd588e27b37c894	0.33647977860449285
90	0x3fdc3c22b3c43d7d	0.44117038302734796
91	0xbfd6d0b6cadbd2e1	-0.3564888936082707
92	0xbfdbb1f542dda866	-0.4327366974818062
93	0x3fba0d26fe4500b6	0.10176318843605511
94	0x3fba4318a4d74712	0.10258630775868152
95	0xbfc7ab66b5ee2127	-0.18491824992475722
96	0x3fc064485fca48dc	0.1280603854871235
97	0x3fbc36ba6c56c062	0.11021008629791276
98	0x3fb540b9c9e4ee3c	0.08301888636645399
99	0xbfca9dd3e25a964c	-0.20794151832994812
100	0x3fb4620d881b5cb8	0.07962116787836038
101	0x3fb32accc9b354f8	0.07487182545021998
102	0x3fc4a46e1602a964	0.16126800608374048
103	0x3fd51ac1b67a44cd	0.3297580987937863
104	0x3fca4bd970a41636	0.20543973922774378
105	0x3fb893d9352215b2	0.09600598857112777
106	0xbfd3633c8506de1f	-0.3029319094743829
107	0xbfd1ff52324cba43	-0.2812085620124984
108	0x3fb37d0b4f91b101	0.07612677281003145
109	0x3fb741dc061728fd	0.09084868572896095
110	0xbfba833ce611da86	-0.10356503121315982
111	0x3fc96e9a7d30233d	0.1986878501195636
112	0x3fa2a4c5da3deb76	0.036413367167333385
113	0x3fc2e223c1992012	0.14752623513254598
114	0xbfc74b0e64e38404	-0.18197803426940606
115	0x3fc46492f8de3995	0.15931927825699846
116	0xbfd2973187f34c40	-0.290478117717786
117	0xbfd44a5d1228ccca	-0.31703879140259217
118	0x3fb3c87fca751470	0.07727812474065998
119	0x3fb1fcc87e065f78	0.07026341511516232
120	0x3fc91cd54ee32f56	0.19619242050100166
121	0x3fd6093172033c23	0.344311105099168
122	0x3fc8608887e4c39b	0.19044596324377214
123	0x3fc6fe4575e103f9	0.17963474517640046
124	0xbfc8e12c70465010	-0.19437175256882755
125	0x3fb51d8b06dc10e0	0.08248204152556893
126	0x3f9e7b9931052a54	0.029768365494684382
127	0xbfc10dda679b327f	-0.13323526438616182
128	0x3fb0257affa03529	0.06307190647949724
129	0x3fd043cb4ce53b37	0.25413782605476193
130	0x3fd840fa8ce7700e	0.37896598587190133
131	0x3fc5c628f3b08862	0.17010986231713604
132	0x3fce159015d034be	0.2350330454359319
133	0xbfcfd5f296eeebdf	-0.24871666307248483
134	0x3fc28c60d9fd7273	0.14490900653881375
135	0xbfd4c12b2de454b0	-0.3242900798953299
136	0xbfd6659639e5c3c2	-0.349950367489381
137	0x3fb4968fd8115c24	0.08042239213078567
138	0x3fbd616212e6cdba	0.11476719819511674
139	0x3fb5c3013733e8bf	0.08500678632472879
140	0x3fa02ad5dfeb0c73	0.03157680853248559
141	0x3fb37da5c2b1e1d0	0.07613597873012812
142	0xbfd611db011cbb67	-0.34483981236092237
143	0xbfd2076c13d6e8d2	-0.2817030137772579
144	0x3fc4d38f77689dfd	0.16270631151677142
145	0x3fc9cd85bec6f989	0.2015845471887128
146	0x3fc1205418be946a	0.1337990876028557
147	0x3fbbd96f3949d912	0.10878653668064356
148	0xbfcc76c1ab79c804	-0.22237416146123234
149	0x3fc7ec9fd48baff6	0.1869087016888213
150	0xbfc509a7fe2e0c4a	-0.1643571845162078
151	0x3fd73583fe26d7e7	0.3626413328123576
152	0x3fc960156fa407f7	0.1982447428818543
153	0x3faa0e4538aba1f7	0.05089012448098978
154	0x3fa0dc3aea668144	0.032930222619372645
155	0x3fb41988d37148e6	0.07851462518854965
156	0xbfc95647e3600da2	-0.19794558145814017
157	0x3fc7311da47c8bff	0.1811863949925225
158	0x3fcb42f9c10fffcf	0.21298143317107907
159	0x3fd6f2a0277091b4	0.35855869151626085
160	0x3fc825ff60408e3d	0.18865959358037002
161	0x3fb9d9a963c5089d	0.10097750364096432
162	0xbfd55c67b782bb0d	-0.333764962396274
163	0xbfd3109208894987	-0.2978863795625774
164	0x3fc5792db62e2bd5	0.16776057620549403
165	0xbfc7710a4cbc5460	-0.18313721415384787
166	0x3fc1c5d8865981d6	0.13885027465859306
167	0x3faac9022326dc13	0.05231482199763362
168	0x3fa025b2e584d106	0.03153761913054791
169	0x3fa952545b7abf6a	0.04945624939625655
170	0xbfd1b10a4aab2c1d	-0.2764306763826328
171	0xbfd195464dcd506b	-0.2747360000405538
172	0x3fb5dedb071eeeea	0.08543175624702895
173	0x3fbb0ab86fa5bad0	0.10563233114019543
174	0xbfcb5f8cae328905	-0.21385344033939915
175	0x3f877f5cb4be7245	0.011473392740122832
176	0x3fc9789e9cac3624	0.1989935173991607
177	0x3fb6bac6c52a8c31	0.08878748239162416
178	0x3fcb40b56bb48889	0.21291225203555467
179	0x3fd3ca83adc36d33	0.3092354962261254
180	0x3fbed7432613f2bd	0.12047214202534469
181	0x3faa2830baba25be	0.05108787803062452
182	0x3fa29806df382987	0.03631612276884071
183	0x3fb9cd520af46042	0.1007891918892492
184	0x3fc971114686cbfd	0.19876304572753148
185	0x3fd97ed9546cc5de	0.3983672451459749
186	0x3fdff20f6d41d34f	0.49914918584481865
187	0xbfd1a7b7a6595874	-0.2758616566183101
188	0x3fbefca3a1aa8f88	0.12104246804170604
189	0x3fb68cf2dd29329c	0.08808820628582698
190	0x3fd12f88b4f4a3da	0.26852624579856654
191	0xbfdac34ad39341d7	-0.4181696954883853
192	0xbfdf4f13ce2c02f8	-0.48920149930931656
193	0x3fbd8b822012045a	0.11540997775047526
194	0xbfca904d153d2752	-0.20752872025542018
195	0x3fb0769cc9cbfbf6	0.0643098824184419
196	0x3f9e9a6c01cc2113	0.029885947808936452
197	0x3fb2f031a79f78c1	0.07397756903035015
198	0x3fc8bc1a4d0884d8	0.19324044000044327
199	0xbfd743c976262026	-0.36351238763791327
200	0xbfdc2fea52b6b88a	-0.4404245193244455
201	0x3fb2e3a35068f4b6	0.07378597939619422
202	0x3fb731ab3bc35eac	0.09060163697301488
203	0x3fa99501b0159352	0.04996495508638667
204	0x3fa7f0053dd73626	0.04675308589831344
205	0x3fd689393ddf0846	0.3521254638873227
206	0x3fdc86a7d2f3e25e	0.44571872330519635
207	0xbfca6bbfd3c2ee10	-0.2064132484427863
208	0x3fb7bd63bb71838e	0.0927336056352159
209	0x3faf85270deb9bcc	0.06156274838377093
210	0x3f9fce31b2f097fe	0.03106000570928557
211	0x3fad090d0975b893	0.056709678082243496
212	0x3fb8dda8b4dd47cc	0.09713224807390403
213	0xbfcf9d1faa1d65fb	-0.24698253446949522
214	0x3fdbf2405a5574fd	0.4366608507314849
215	0x3fd66c2d63871dc7	0.35035261840354476
216	0x3fa885f41d56df3c	0.047896984654868
217	0x3fb8eb3f1ea60c70	0.09733957765824797
218	0x3fb3db370ccc5dd6	0.07756370603998816
219	0xbfdb6ecd19099bec	-0.4286377663142378
220	0xbfd76bbffba22428	-0.365951534019191
221	0x3fce8f28265f72fd	0.23874379991220698
222	0x3faedfef9b96ab80	0.06030224584841104
223	0x3fa87a9168f6431e	0.04781011968873926
224	0x3fa88ad7b4391558	0.047934284925342296
225	0x3fbbc34f15319a53	0.10844892756868178
226	0xbfd020dc4446a146	-0.25200564067428777
227	0x3fda46640615409b	0.41054630846066126
228	0x3fd4f7124435e690	0.32758003865419827
229	0x3fa718dd63448042	0.04511157833826519
230	0x3fa38c444b30a380	0.03817952554556481
231	0x3faceeab23558eca	0.05650839620900923
232	0x3fb3b410c9878ea8	0.07696633262781438
233	0x3fb1917d9e4179fa	0.06862626184145162
234	0xbfd99e94233bdb10	-0.40030387345125096
235	0xbfd63a884b68fa6f	-0.3473225342203596
236	0x3fcf6cd884e6b4e7	0.24550920953098584
237	0x3fb30028d8b74dd7	0.07422118464392412
238	0x3fa20510ff3646f1	0.03519490352040389
239	0x3face21f1a5a58ed	0.05641267010394011
240	0x3fd7e286e34d82c6	0.3732011050943068
241	0xbfd426842aa6991a	-0.3148508469115697
242	0xbfd4657de64cf4c1	-0.3186945675877944
243	0x3fb5c33d86106dac	0.0850103809647666
244	0x3fa7997ccf3ee542	0.04609289197783052
245	0x3fac8b0ee634a85a	0.05574842987182711
246	0x3fb2a301a3802d3c	0.07279978028980322
247	0x3fd0ecc8640ed2dc	0.26445207377700597
248	0x3fd660a0fd0a39d9	0.3496477576344695
249	0xbfd7fdb163d85364	-0.37485918760767434
250	0x3fbc1edb7b83bebf	0.10984584584707145
251	0x3faeb82869fdad57	0.05999876302561329
252	0x3fa012f78f380173	0.03139470694805171
253	0xbfc2831288b74695	-0.14462501216489856
254	0x3fb2bdfdc727f05a	0.07321153747756295
255	0x3fc46c5823506f35	0.15955640529943485
