trotterization/Order_n6/Cycle_q14/q14_standard_parameters_a.npy (npy, 43072 bytes, 1 tensors)

array f8 [671, 8]
0	0x3fb47cc858b9d7f7	0.0800290314308255
1	0xbf947e5090b22066	-0.02001310237076872
2	0x3fc4663cb9bef8a6	0.15937003202083594
3	0x3fdb85ffcb4354b6	0.43005366182235194
4	0x3f9481a1e492fdbc	0.02002575833898644
5	0xbfe4316130c63a97	-0.6310277893661177
6	0x3fd6a5e84253a85f	0.3538761756632364
7	0x3fcb91532ea5dfc6	0.2153724649213002
8	0x3fa3129b1a7ddeac	0.037251326545569924
9	0x3fc6adf94e6ec49b	0.17718426065178935
10	0x3f9d8ed477edfb4a	0.028865165538714245
11	0xbfb130f52ab10dfb	-0.06715328495288723
12	0x3fbd94cdc55fd273	0.11555181568821542
13	0x3fc29e8aaf419013	0.1454633098356913
14	0x3fd0d2971dcceaf3	0.2628534117717855
15	0xbfd99a1fdc3ec3e4	-0.400032010157757
16	0x3fa3f769bb83697c	0.03899698652249392
17	0xbfb05542d8706dbd	-0.06380098137053998
18	0x3fd7e6ff8c2c7fe7	0.37347401322222
19	0x3f9824ca1bf2371a	0.02357784076280387
20	0xbfc079563cffbc1b	-0.12870290735688247
21	0x3fc7ab605160b694	0.18491748784565643
22	0x3fd0c34ddb85d6cc	0.2619204181458883
23	0xbfd85e7729ec9243	-0.38076571554328015
24	0x3fb2d36b3d4f11d2	0.07353849646376112
25	0xbfbf608d33d7d72b	-0.12256701007558195
26	0x3fba5c8fb842bd18	0.10297487495948976
27	0xbf86b916b58b5342	-0.011095216193476202
28	0x3fc9bfabf807500f	0.2011618577076892
29	0x3fcba1deba6028b3	0.21587738132831688
30	0xbfaf37ab4356779e	-0.06097159573549436
31	0x3fc9e07551d3bcf3	0.20216242309059104
32	0x3f99536742d43d81	0.024732221082613307
33	0x3fb592430bcbfbfa	0.08426302946098466
34	0x3fc6ceb7ef68e213	0.1781835478775667
35	0x3fa976bf8f7bb52b	0.049734102501910314
36	0xbfb60f86a72ab62d	-0.08617440777990089
37	0x3fc55edc8d0935b0	0.16695744406244506
38	0x3fd398897a274390	0.3061851208595323
39	0xbfdca8226f4ab6c5	-0.447762116130303
40	0x3fa25667fee11309	0.035815477240737144
41	0x3fd249b6a5c4adcc	0.28574911297138494
42	0x3f927ea65731bbc4	0.018061255523601508
43	0xbfddb6b950dad416	-0.46427758117653306
44	0x3fd71ee023f3c238	0.3612594939322977
45	0xbf90b56e9d48785e	-0.016317108487890024
46	0x3fca7d337ab8aba1	0.2069458340859827
47	0x3fc2a0a1392d5ea6	0.1455270318208381
48	0x3fa30ce7be15afaa	0.03720783419961944
49	0xbfa67041de2e2841	-0.04382520520364653
50	0x3fd16c35174d7535	0.2722294547619016
51	0xbfa2cd86514e70ba	-0.036724278855417805
52	0x3fc728882c173a00	0.18092443611972442
53	0x3fdc0c2c3ac908c1	0.43824296704054794
54	0x3f8145ae1cd2a2bf	0.00843368554554169
55	0xbfe6d0b6cadbd2e1	-0.7129777872165414
56	0x3fb540b9c9e4ee3c	0.08301888636645399
57	0xbf82f39652a730bf	-0.009253668210384423
58	0xbf9884bd77d9f71f	-0.02394386333479936
59	0x3fc5365467e53efe	0.16572051117918102
60	0x3fce62f3bdcb81e8	0.23739477889377203
61	0x3fa8db7c216c5458	0.04854953678128798
62	0xbfb8f53f32d34c08	-0.09749217024663903
63	0x3fc893d9352215b5	0.19201197714225562
64	0x3fa2a4c5da3deb76	0.036413367167333385
65	0x3fcd70e945072885	0.230008276658115
66	0xbfd8161d6a94ea09	-0.37634978683823356
67	0x3fd5b16c375f9ec8	0.338954023433399
68	0xbfb99bb51003a9c5	-0.10003215447401377
69	0x3f9bed45fda6f59e	0.027272313696575894
70	0x3fd1808a9a0edcc8	0.2734705452416617
71	0x3fc1fcc87e065f7a	0.1405268302303247
72	0x3f9e7b9931052a54	0.029768365494684382
73	0xbfa8b1673004f883	-0.048228478061433065
74	0x3fc6c36e89438170	0.17783910467461395
75	0x3fd5696f42e9923f	0.33456021818554754
76	0x3f9db645301ac4c2	0.02901561838252032
77	0xbfc3bc2d681820ff	-0.15418021757819386
78	0x3fd850f877e6d398	0.3799420519747456
79	0xbfdfd5f296eeebe0	-0.4974333261449697
80	0x3fa02ad5dfeb0c73	0.03157680853248559
81	0x3fc042642f83d967	0.12702610321111793
82	0xbfc2c3a092956ed5	-0.146595069479068
83	0x3fb4b85fa93fbc56	0.08093831903509971
84	0xbf5b0c4362b72596	-0.001650872999436314
85	0x3fd8dd12c9a954c0	0.3884932488775341
86	0xbfb6acdb25766731	-0.08857507385837661
87	0x3fcbd96f3949d914	0.21757307336128717
88	0x3fa0dc3aea668144	0.032930222619372645
89	0x3fc0bf04f2825b76	0.13082944718618322
90	0xbfae41bd741a2f38	-0.059095306799547165
91	0xbf5ff6541fe431a7	-0.0019508191613254262
92	0x3fd85e13bb9f15d1	0.38074200937657304
93	0x3faf1070f73a4166	0.06067231195368343
94	0xbfc292d00ec4e7df	-0.14510536881590405
95	0x3fc9d9a963c5089b	0.20195500728192858
96	0x3fa025b2e584d106	0.03153761913054791
97	0x3fb9bd428b1a7294	0.10054412742688107
98	0xbfc3f673024c5edc	-0.15595853435728813
99	0x3fa1a9eaffb0e63d	0.034499496185571556
100	0x3fd3181177a1ffff	0.2983440082825836
101	0x3fc8e2bf9a682381	0.1944198135318196
102	0xbf8e6ee118652e1b	-0.01485992294023846
103	0x3f977f5cb4be7246	0.022946785480245667
104	0x3fa29806df382987	0.03631612276884071
105	0x3fc521f76a602e1e	0.16509907430769116
106	0xbf81f3bceb65b52e	-0.008765674527888647
107	0x3fe070dcee38a37b	0.5137772228964502
108	0x3f845f73e2ba0b18	0.009947686535502195
109	0xbfe635813cf64d25	-0.6940313521066953
110	0x3fd8eeb19d5f47bd	0.38956871384027264
111	0x3fc68cf2dd29329e	0.176176412571654
112	0x3f9e9a6c01cc2113	0.029885947808936452
113	0x3fc15962974aa354	0.1355403174141211
114	0x3fd24d661560a350	0.2859740456356592
115	0xbfe23cd4b003cb97	-0.5699256360806996
116	0x3f75af600f4a7527	0.0052942039807509006
117	0x3fdb422211f94574	0.42591144328351693
118	0x3fc194d6ed577ce0	0.13735472287132833
119	0x3fb99501b0159353	0.09992991017277335
120	0x3f9fce31b2f097fe	0.03106000570928557
121	0x3fbac1cf3935fdd7	0.10451979777098273
122	0x3fc426d041544ec5	0.15743449392231504
123	0xbf80df783bdf2ff0	-0.008238734557288269
124	0x3fb21a017acd4353	0.0707093167122939
125	0xbfb40a7ed609f897	-0.07828514791069306
126	0x3fc00f188dbbe6b9	0.12546069069485613
127	0x3fc8eb3f1ea60c6f	0.1946791553164959
128	0x3fa88ad7b4391558	0.047934284925342296
129	0x3fc761bbf6f47412	0.18267011221260582
130	0xbf7a9c0074d1b4ed	-0.00649643114330199
131	0x3fb02f6eeab118ab	0.06322377424030161
132	0xbfb29e077c17d205	-0.07272383479705276
133	0x3fbd1dec4fe3ba15	0.11373784017971673
134	0x3fbd7a32ef1fe062	0.1151458581733791
135	0x3fbceeab23558ec4	0.11301679241801837
136	0x3fa20510ff3646f1	0.03519490352040389
137	0x3fbdcd23c22c0322	0.1164114331295534
138	0x3fdeea3dc22e7276	0.4830469509413783
139	0xbfe6121ac73f763f	-0.6897100345192441
140	0x3f9fb2316bd45185	0.03095319004667509
141	0x3fd65d97c592ee47	0.34946245474177257
142	0x3fbe6fc00b1f9fdd	0.11889267226763374
143	0x3fbc8b0ee634a85a	0.11149685974365423
144	0x3fa012f78f380173	0.03139470694805171
145	0xbfa90bd712106936	-0.04891845794209575
146	0x3fc9204fba7ed2f0	0.19629856687756542
147	0x3fcee18c2d460692	0.24125816546079598
148	0xbfa8a853b6f979b2	-0.048159233175045016
149	0x3fe0ec506b6212dd	0.5288469407392672
150	0x3f810facc5af160f	0.008330678732714451
151	0xbfea2de5c999cefc	-0.8181027352825079
152	0x3fb2d64bfb7e7dea	0.07358240976326838
153	0xbfc39596d2ce0c58	-0.15300259869772748
154	0x3fbe98c93f0e1422	0.11951883115223486
155	0xbf80a22837b3cae6	-0.008121790122890226
156	0x3fdca08189b0172e	0.4472965092285105
157	0xbfc81d1933beb037	-0.1883880140934495
158	0x3fc25b1a80ffa158	0.1434052591205368
159	0x3fc0d254b0c3c105	0.13141878729903325
160	0x3f9f964aa0635852	0.03084675411158628
161	0x3fbe0e8bbb378302	0.11740945168231678
162	0x3fd6574cbf83e3f1	0.34907835676818794
163	0x3f9ac9f78a01d94d	0.026161067770283087
164	0xbfe42944b749d538	-0.6300376491405251
165	0x3fdaa2d266791ce0	0.4161878586496197
166	0x3fc0ea38f1702e05	0.1321479014298889
167	0x3fbdcd35f352f61e	0.11641251745728495
168	0x3fac14e9bd32bf32	0.05484705385731416
169	0xbfbccd2cee0fe2ff	-0.11250572979032468
170	0xbf4c2a5c0e2d2fc1	-0.0008595418442864864
171	0x3fb05cda0a9279af	0.063916804867836
172	0x3fcf314b1ace92d1	0.2436918145077898
173	0x3fcb27cdd52edacf	0.21215222272231535
174	0xbfae5d89a6248000	-0.059307385951115066
175	0x3fc91ac5b017c8d7	0.19612952326094188
176	0x3fa89fd92546bcb0	0.04809454517396128
177	0xbfa4e1fd63bc4797	-0.04078666536783187
178	0x3fd142d28be1e03d	0.26970351848968105
179	0xbfb9d79932192a25	-0.10094602082350741
180	0x3fb82ea232d5084e	0.09446157208461267
181	0xbf8a3fa45d8428df	-0.012816700080766128
182	0x3fc341cb01ed902c	0.15044534296169
183	0x3fc7831d76cccb1c	0.1836888151243209
184	0x3fa7cd0b3b521242	0.04648623561027822
185	0xbfb9ca80ec75b73c	-0.10074620984025001
186	0x3fa1bca4ddff402b	0.034642364596607265
187	0x3fd10d61e5483438	0.266441797168969
188	0x3fce911604b70907	0.23880267362807947
189	0xbfda04cf74459046	-0.40654360155736347
190	0x3fd4538c2397a2b5	0.31759932971776134
191	0x3fca730283f5e15a	0.20663482135183636
192	0x3fa40db72c34e77b	0.03916714110023541
193	0x3fc09f03ecd2724b	0.12985276282860733
194	0xbf9ced782d02037a	-0.028249624011098963
195	0x3fbf0deaf2d04bd5	0.12130611827915001
196	0x3fc219f477133c43	0.14141708196845756
197	0x3fdd538757719cd4	0.45822318591531297
198	0x3f7d7e373aca778d	0.007200446835353602
199	0xbfe79c5685ba2da7	-0.737834225832036
200	0x3fb1d63a9b6f5b36	0.0696751241187997
201	0x3fe5cda2de18bb1f	0.6813520753692933
202	0xbfe6dd4a5cde6030	-0.7145129979935572
203	0xbf7e28675685945f	-0.007362750686614821
204	0x3fc936822eedc2b7	0.19697596827929484
205	0x3fd26a0902122375	0.28772187425834456
206	0xbfbe5ecb0df27524	-0.11863392916207666
207	0x3fcad32a77f4887e	0.20956927163303257
208	0x3fa369a26ba05db8	0.037915301931373546
209	0x3fcc64f2073bf3af	0.22183060982925215
210	0x3fb993790eac9281	0.09990650757078791
211	0xbf90f44c515661f0	-0.01655692335552489
212	0xbfbe1117224c556d	-0.11744827830655931
213	0x3fc8ce048f71a2d4	0.19378716472717505
214	0x3fd380bd073484d5	0.3047325678217708
215	0xbfdcb180ac0409e7	-0.44833390043655047
216	0x3fa3f9a76f0751e5	0.03901408415154942
217	0x3fc9bbdedeee635a	0.20104585538208647
218	0x3f9a6dd568c7b4d9	0.025809607048292136
219	0xbfb06003aba96a6f	-0.06396506253205712
220	0x3fc57b01e31c8eb4	0.16781638707572244
221	0xbfd151a270cc21e9	-0.2706075765168224
222	0xbfb15ee1b820c4e2	-0.0678540300875912
223	0x3fedffd9244bcf2c	0.9374814709576405
224	0x3fa76c64b9a60d5a	0.045748851453960085
225	0xbfafebd704d72f69	-0.06234619077767329
226	0x3fa5aa08bd26e543	0.04231288250907508
227	0x3fd342a012cfcc6c	0.3009414848049292
228	0xbfb2d0022387ab6a	-0.07348645560675285
229	0x3fc6c12fe20dfd75	0.1777706006796326
230	0x3fd1023371423a40	0.2657593351404195
231	0xbfd92d7b74eba5e4	-0.3934010164071806
232	0x3fa435e087f2f792	0.03947354945692817
233	0x3fd112f3925886d3	0.2667817048223757
234	0x3fa433753364ab90	0.039455091975774015
235	0xbfbf964c65be5ad6	-0.12338712200139965
236	0x3fd30a119e645d06	0.29748955219243134
237	0xbfdfcf61893cd69f	-0.49703253175844425
238	0x3fd9e1a2c7cf6ead	0.4043967200538912
239	0x3fc2a487cad499a7	0.1456460705168869
240	0x3fa2835ea0fd6370	0.0361585208435774
241	0x3fd3937aaadeaf0b	0.3058764141703569
242	0xbfdbf9c7023faa8e	-0.43712020129775275
243	0x3fd450e4546c81af	0.31743725056187605
244	0x3fc3986e001e82a9	0.15308928495234866
245	0x3fe4aeab9774ce2b	0.646322055638341
246	0x3f87f1827775f87c	0.011691111822752946
247	0xbff1120f09efe005	-1.0669088733830006
248	0x3fbb4e49c7a71e70	0.10666333317123544
249	0xbfa9601d8909d3ea	-0.049561427095717495
250	0x3fc4cd18fe337a1c	0.1625090829101773
251	0xbfbb6f2f20b9175d	-0.10716528462316206
252	0x3fd89a536ebf8ec6	0.3844193059469315
253	0xbfd2e8fa8110d112	-0.29546988109656624
254	0x3fd193a9754c5661	0.2746375699510733
255	0x3fa88ae2550e794c	0.047934601672056404
