trotterization/Order_n6/Cycle_q14/q14_parameters_d.npy (npy, 75280 bytes, 1 tensors)

array f8 [671, 14]
000000 b6 c3 b4 d2 a5 be be bf 1d 99 7b 20 41 b1 b4 3f
       -0.12009655374710246 0.08082968752896531
000010 a7 c2 35 9f 46 1e b5 3f 2a 38 59 79 71 f3 d9 bf
       0.08249322306597638 -0.40548359728279826
000020 24 30 08 64 34 57 d8 bf 7f bb ba 24 61 30 cf 3f
       -0.3803225495219087 0.24366392415455704
000030 cc df a5 2e 53 91 bb 3f 8a 2a d9 bf de 36 bc 3f
       0.10768623246065018 0.11021225150867955
000040 07 45 84 fd 8d 0b d0 bf 09 68 a2 97 8b 3b db 3f
       -0.25070523984420884 0.4255093556217849
000050 0f e4 75 23 6e 3e d6 3f 3a 58 02 53 38 1b b4 3f
       0.3475604387563757 0.07854034449187078
000060 a8 3b 88 ae 11 9f b9 3f 02 d8 b9 58 c8 7c b4 3f
       0.1000834513763339 0.08002903143082565
000070 dc 7d 1d 5f 93 f8 ac 3f fe 81 f3 9a 7f 5c ce bf
       0.05658398185800781 -0.23719782892204927
000080 4c cf 54 eb 91 8b cd bf ac 2a 35 8a f7 a5 a6 3f
       -0.23082183829103042 0.04423497736077783
000090 c1 7b c8 5f 4b 5c b6 3f 51 c6 13 ab 36 fb b2 3f
       0.0873458012433579 0.0741457145375304
0000a0 e4 c3 3e dc 1f 9a c9 bf be f2 0f e6 92 27 c8 3f
       -0.2000160050788785 0.18870769723425512
0000b0 ca 48 75 fd 93 c1 ad 3f 1d 3d 45 00 d2 41 b2 3f
       0.0581175085923334 0.07131683832743758
0000c0 4e 48 fc 55 17 f3 c4 3f b4 a0 f8 14 2d 07 d1 3f
       0.16366855333814317 0.26606299446076354
0000d0 48 ca 4e ed a8 df be 3f ac de 7d 1a 9b 12 a3 3f
       0.12060027879378155 0.037251326545569924
0000e0 26 e6 11 35 f6 78 b9 3f c4 6a fa 6b 3d 14 c3 3f
       0.09950197978641792 0.1490551736104263
0000f0 69 12 90 36 49 26 d4 bf 46 b1 f4 58 b1 46 d2 bf
       -0.314836791309324 -0.2855647438725736
000100 f9 3b 62 22 ff 9c ba 3f b7 d9 f7 fe e2 ff b6 3f
       0.10395807828375316 0.0898420212250589
000110 41 92 ec 29 77 5e c8 bf c0 c0 8f 37 aa 06 c6 3f
       -0.19038285777164002 0.1720783969208295
000120 36 31 5f 80 c1 b9 b4 3f 75 a6 e9 74 0c 14 c4 3f
       0.08095940956190337 0.15686183651569122
000130 dc 35 4f d8 95 a8 d5 3f 0e 95 5e ac c1 b9 cc 3f
       0.33841463207212796 0.22441883961179382
000140 ee 29 c1 86 1c e7 c4 bf 8b 69 83 bb 69 f7 a3 3f
       -0.1633029611569578 0.038996986522494025
000150 3e 6e ba 6a f9 34 d0 3f 2a 49 13 a3 0b 86 d8 3f
       0.2532332937496199 0.3831814854176111
000160 ed 0a bd a9 7e 8e ba bf da ea d6 cf 24 eb be 3f
       -0.10373679775242879 0.12077550958830888
000170 c2 63 56 f3 47 b4 b0 3f 78 47 94 a8 b9 e1 c7 bf
       0.06525087061744642 -0.1865760872975064
000180 f4 bc d3 51 75 e0 b9 3f 91 a9 be d7 ce 13 c0 3f
       0.10108121154529554 0.12560449156201206
000190 d3 f6 b4 c0 ba 47 c3 3f 46 b5 37 20 33 94 b4 3f
       0.1506265107108705 0.08038634811938036
0001a0 86 a0 0b d3 5b b7 b7 3f e4 99 02 b5 e7 ee d1 bf
       0.09264158155895261 -0.28020661045812134
0001b0 08 64 b0 b7 1c 0d d8 bf d3 11 4f 3d 6b d3 b2 3f
       -0.3758003038252018 0.07353849646376114
0001c0 68 7c e0 7b 98 bf a4 3f 94 42 83 9b 69 3b a7 3f
       0.04052425872964066 0.04537515662525951
0001d0 dc e5 1b 67 0a 18 d0 bf 46 39 85 f9 81 cf d1 bf
       -0.2514673239635081 -0.27829026572444027
0001e0 16 40 80 2f 1a b6 b6 3f 34 53 4b 05 3f d6 b7 3f
       0.08871616038982241 0.09311288718465677
0001f0 c5 b6 4a 6f 22 a8 cc bf 86 dd a8 71 f3 45 cb 3f
       -0.2238810580651515 0.21307223367487554
000200 4b 2b 92 ea 9e 07 b4 3f 76 17 75 9f 40 97 c8 3f
       0.07824128367262266 0.1921158579445394
000210 81 5c 0b 59 e2 46 d3 3f 6e 11 88 88 dd ff c0 3f
       0.3012014264654184 0.1328083912523072
000220 8e 7b b7 9b ed 64 a6 3f 84 3d d4 42 67 53 99 3f
       0.04373877073134401 0.024732221082613318
000230 1c 22 a7 c0 00 0a b4 3f 47 b1 7c de f1 c7 d5 bf
       0.07827763274611538 -0.3403286621785537
000240 35 0c c6 bb eb 09 d2 bf 97 3f 63 36 93 29 c7 3f
       -0.2818555196501536 0.18095626979493026
000250 09 44 0c 7d aa 6a ca 3f 85 b2 d4 b1 a1 b3 bf 3f
       0.20638018709044584 0.12383471099446737
000260 a7 5e 2d 39 a1 a0 b2 3f bf a4 9c 43 c5 46 b5 3f
       0.07276351591041906 0.08311112309151535
000270 13 53 b5 50 58 81 cc bf da 44 84 11 2d 14 c7 3f
       -0.2226972955783358 0.1803032241373675
000280 c1 8f 29 2a 9b 59 c7 bf 04 cd ef 43 dc ef d6 3f
       -0.18242206152637944 0.3583899177021552
000290 8b ca 35 eb 6c 8e ca 3f 0f 13 e1 fe 67 56 a2 3f
       0.2074714802252696 0.035815477240737185
0002a0 5f c0 56 6c ba 36 bc 3f db 48 ca 5f 48 64 c0 3f
       0.11021008629791272 0.12806038548712348
0002b0 29 21 ee b5 66 ab c7 bf 10 47 d7 a4 18 43 ba 3f
       -0.18491824992475728 0.1025863077586815
0002c0 b4 00 45 fe 26 0d ba 3f 67 a8 dd 42 f5 b1 db bf
       0.10176318843605509 -0.43273669748180627
0002d0 e1 d2 db ca b6 d0 d6 bf 7c 3d c4 b3 22 3c dc 3f
       -0.3564888936082707 0.4411703830273479
0002e0 93 c8 37 7b e2 88 d5 3f ee 2c 57 b3 f7 0d b4 3f
       0.3364797786044928 0.0783381283610429
0002f0 f9 84 9a 21 05 f8 c2 3f 8e a1 d0 ce 21 74 c2 3f
       0.14819397106933943 0.14416906927477807
000300 41 ea b6 ad 6d b7 c3 bf a4 af 15 be e7 0c a3 3f
       -0.15403529150155928 0.0372078341996194
000310 40 23 30 7d 9a 6e c9 3f 80 da 11 e6 3c 83 ba bf
       0.1986878501195637 -0.10356503121315974
000320 04 29 17 06 dc 41 b7 3f 08 b1 91 4f 0b 7d b3 3f
       0.09084868572896104 0.07612677281003155
000330 42 ba 4c 32 52 ff d1 bf 1d de 06 85 3c 63 d3 bf
       -0.28120856201249833 -0.3029319094743828
000340 b8 15 22 35 d9 93 b8 3f 39 16 a4 70 d9 4b ca 3f
       0.09600598857112785 0.20543973922774386
000350 ce 44 7a b6 c1 1a d5 3f 67 a9 02 16 6e a4 c4 3f
       0.32975809879378637 0.16126800608374056
000360 ff 54 b3 c9 cc 2a b3 3f bf 5c 1b 88 0d 62 b4 3f
       0.07487182545022007 0.07962116787836047
000370 49 96 5a e2 d3 9d ca bf 42 ee e4 c9 b9 40 b5 3f
       -0.20794151832994803 0.08301888636645408
000380 e5 10 dc 06 8b 1d b5 3f 0e 50 46 70 2c e1 c8 bf
       0.082482041525569 -0.1943717525688275
000390 fb 03 e1 75 45 fe c6 3f 9d c3 e4 87 88 60 c8 3f
       0.17963474517640052 0.1904459632437722
0003a0 24 3c 03 72 31 09 d6 3f 58 2f e3 4e d5 1c c9 3f
       0.34431110509916807 0.19619242050100172
0003b0 7c 5f 06 7e c8 fc b1 3f 74 14 75 ca 7f c8 b3 3f
       0.07026341511516238 0.07727812474066004
0003c0 c9 cc 28 12 5d 4a d4 bf 3f 4c f3 87 31 97 d2 bf
       -0.3170387914025921 -0.2904781177177859
0003d0 97 39 de f8 92 64 c4 3f 02 84 e3 64 0e 4b c7 bf
       0.15931927825699851 -0.181978034269406
0003e0 15 20 99 c1 23 e2 c2 3f 7f eb 3d da c5 a4 a2 3f
       0.14752623513254606 0.03641336716733345
0003f0 bc e8 33 37 01 c3 b5 3f b7 cd e6 12 62 61 bd 3f
       0.08500678632472874 0.1147671981951167
000400 21 5c 11 d8 8f 96 b4 3f c2 c3 e5 39 96 65 d6 bf
       0.08042239213078563 -0.349950367489381
000410 b1 54 e4 2d 2b c1 d4 bf 72 72 fd d9 60 8c c2 3f
       -0.32429007989532993 0.14490900653881372
000420 e1 eb ee 96 f2 d5 cf bf bd 34 d0 15 90 15 ce 3f
       -0.24871666307248488 0.23503304543593187
000430 61 88 b0 f3 28 c6 c5 3f 0e 70 e7 8c fa 40 d8 3f
       0.170109862317136 0.37896598587190133
000440 36 3b e5 4c cb 43 d0 3f 26 35 a0 ff 7a 25 b0 3f
       0.2541378260547619 0.0630719064794972
000450 80 32 9b 67 da 0d c1 bf 49 2a 05 31 99 7b 9e 3f
       -0.13323526438616184 0.029768365494684344
000460 fd a1 ab 38 45 0e aa 3f f8 07 a4 6f 15 60 c9 3f
       0.05089012448098982 0.19824474288185434
000470 e8 d7 26 fe 83 35 d7 3f 48 0c 2e fe a7 09 c5 bf
       0.36264133281235766 -0.16435718451620773
000480 f7 af 8b d4 9f ec c7 3f 03 c8 79 ab c1 76 cc bf
       0.18690870168882132 -0.22237416146123232
000490 16 d9 49 39 6f d9 bb 3f 6c 94 be 18 54 20 c1 3f
       0.10878653668064361 0.13379908760285575
0004a0 8a f9 c6 be 85 cd c9 3f fe 9d 68 77 8f d3 c4 3f
       0.20158454718871283 0.16270631151677145
0004b0 d1 e8 d6 13 6c 07 d2 bf 66 bb 1c 01 db 11 d6 bf
       -0.28170301377725787 -0.3448398123609223
0004c0 d3 e1 b1 c2 a5 7d b3 3f 79 0c eb df d5 2a a0 3f
       0.07613597873012816 0.03157680853248563
0004d0 0c dc 26 23 02 c9 aa 3f d4 81 59 86 d8 c5 c1 3f
       0.05231482199763357 0.138850274658593
0004e0 62 54 bc 4c 0a 71 c7 bf d3 2b 2e b6 2d 79 c5 3f
       -0.18313721415384793 0.16776057620549398
0004f0 87 49 89 08 92 10 d3 bf 0e bb 82 b7 67 5c d5 bf
       -0.2978863795625774 -0.33376496239627407
000500 99 08 c5 63 a9 d9 b9 3f 3c 8e 40 60 ff 25 c8 3f
       0.10097750364096426 0.18865959358037
000510 b3 91 70 27 a0 f2 d6 3f cd ff 0f c1 f9 42 cb 3f
       0.3585586915162608 0.212981433171079
000520 fd 8b 7c a4 1d 31 c7 3f a4 0d 60 e3 47 56 c9 bf
       0.18118639499252245 -0.19794558145814023
000530 e3 48 71 d3 88 19 b4 3f 3d 81 66 ea 3a dc a0 3f
       0.07851462518854961 0.0329302226193726
000540 be 25 ba ba 30 28 aa 3f bd f2 13 26 43 d7 be 3f
       0.05108787803062452 0.12047214202534469
000550 33 6d c3 ad 83 ca d3 3f 89 88 b4 6b b5 40 cb 3f
       0.3092354962261254 0.21291225203555467
000560 32 8c 2a c5 c6 ba b6 3f 24 36 ac 9c 9e 78 c9 3f
       0.08878748239162418 0.1989935173991607
000570 47 72 be b4 5c 7f 87 3f 05 89 32 ae 8c 5f cb bf
       0.011473392740122835 -0.21385344033939915
000580 d1 ba a5 6f b8 0a bb 3f eb ee 1e 07 db de b5 3f
       0.10563233114019545 0.08543175624702896
000590 6b 50 cd 4d 46 95 d1 bf 1d 2c ab 4a 0a b1 d1 bf
       -0.2747360000405538 -0.2764306763826328
0005a0 6a bf 7a 5b 54 52 a9 3f 06 d1 84 e5 b2 25 a0 3f
       0.04945624939625655 0.03153761913054791
0005b0 fa fb cb c9 9c 76 b0 3f 50 27 3d 15 4d 90 ca bf
       0.06430988241844196 -0.20752872025542013
0005c0 5e 04 12 20 82 8b bd 3f f7 02 2c ce 13 4f df bf
       0.11540997775047532 -0.4892014993093165
0005d0 d6 41 93 d3 4a c3 da bf db a3 f4 b4 88 2f d1 3f
       -0.41816969548838523 0.2685262457985666
0005e0 a0 32 29 dd f2 8c b6 3f 8c 8f aa a1 a3 fc be 3f
       0.08808820628582703 0.1210424680417061
0005f0 73 58 59 a6 b7 a7 d1 bf 50 d3 41 6d 0f f2 df 3f
       -0.27586165661831 0.4991491858448187
000600 e0 c5 6c 54 d9 7e d9 3f ff cb 86 46 11 71 c9 3f
       0.398367245145975 0.19876304572753153
000610 46 60 f4 0a 52 cd b9 3f 90 29 38 df 06 98 a2 3f
       0.10078919188924926 0.036316122768840775
000620 ce 9b eb 0d 27 85 af 3f 8f 83 71 bb 63 bd b7 3f
       0.061562748383770946 0.09273360563521592
000630 10 ee c2 d3 bf 6b ca bf 5e e2 f3 d2 a7 86 dc 3f
       -0.2064132484427863 0.44571872330519635
000640 47 08 df 3d 39 89 d6 3f 28 36 d7 3d 05 f0 a7 3f
       0.35212546388732274 0.04675308589831345
000650 54 93 15 b0 01 95 a9 3f ad 5e c3 3b ab 31 b7 3f
       0.04996495508638668 0.09060163697301489
000660 b7 f4 68 50 a3 e3 b2 3f 89 b8 b6 52 ea 2f dc bf
       0.07378597939619423 -0.44042451932444543
000670 26 20 26 76 c9 43 d7 bf d9 84 08 4d 1a bc c8 3f
       -0.36351238763791327 0.1932404400004433
000680 c2 78 9f a7 31 f0 b2 3f 18 21 cc 01 6c 9a 9e 3f
       0.07397756903035016 0.02988594780893647
000690 1b 43 f6 68 91 7a a8 3f 7d ab 96 9b ef df ae 3f
       0.04781011968873924 0.06030224584841102
0006a0 fc 72 5f 26 28 8f ce 3f 28 24 a2 fb bf 6b d7 bf
       0.23874379991220696 -0.365951534019191
0006b0 ed 9b 09 19 cd 6e db bf d4 5d cc 0c 37 db b3 3f
       -0.42863776631423783 0.07756370603998813
0006c0 6e 0c a6 1e 3f eb b8 3f 38 df 56 1d f4 85 a8 3f
       0.09733957765824794 0.04789698465486797
0006d0 c7 1d 87 63 2d 6c d6 3f fd 74 55 5a 40 f2 db 3f
       0.35035261840354476 0.4366608507314849
0006e0 fc 65 1d aa 1f 9d cf bf ca 47 dd b4 a8 dd b8 3f
       -0.24698253446949525 0.097132248073904
0006f0 90 b8 75 09 0d 09 ad 3f f8 97 f0 b2 31 ce 9f 3f
       0.056709678082243475 0.03106000570928555
000700 d1 4d b7 d8 28 00 b3 3f e4 b4 e6 84 d8 6c cf 3f
       0.07422118464392403 0.24550920953098576
000710 70 fa 68 4b 88 3a d6 bf 11 db 3b 23 94 9e d9 bf
       -0.34732253422035964 -0.400303873451251
000720 f4 79 41 9e 7d 91 b1 3f a2 8e 87 c9 10 b4 b3 3f
       0.06862626184145154 0.0769663326278143
000730 be 8e 55 23 ab ee ac 3f 74 a3 30 4b 44 8c a3 3f
       0.056508396209009146 0.038179525545564724
000740 36 80 44 63 dd 18 a7 3f 8f e6 35 44 12 f7 d4 3f
       0.04511157833826511 0.3275800386541982
000750 99 40 15 06 64 46 da 3f 47 a1 46 44 dc 20 d0 bf
       0.41054630846066115 -0.2520056406742878
000760 4d 9a 31 15 4f c3 bb 3f 4c 15 39 b4 d7 8a a8 3f
       0.1084489275686817 0.04793428492534221
000770 57 ad fd 69 28 b8 ae 3f c0 be 83 7b db 1e bc 3f
       0.05999876302561329 0.10984584584707147
000780 64 53 d8 63 b1 fd d7 bf d9 39 0a fd a0 60 d6 3f
       -0.37485918760767434 0.3496477576344695
000790 dc d2 0e 64 c8 ec d0 3f 3c 2d 80 a3 01 a3 b2 3f
       0.26445207377700597 0.07279978028980322
0007a0 5a a8 34 e6 0e 8b ac 3f 42 e5 3e cf 7c 99 a7 3f
       0.05574842987182711 0.04609289197783052
0007b0 ac 6d 10 86 3d c3 b5 3f c1 f4 4c e6 7d 65 d4 bf
       0.0850103809647666 -0.3186945675877944
0007c0 1a 99 a6 2a 84 26 d4 bf c6 82 4d e3 86 e2 d7 3f
       -0.3148508469115697 0.3732011050943068
0007d0 ed 58 5a 1a 1f e2 ac 3f f1 46 36 ff 10 05 a2 3f
       0.05641267010394011 0.03519490352040389
0007e0 8e 58 66 88 39 80 b8 3f 86 b5 d5 ad a1 82 bf 3f
       0.0957065542228028 0.12308702940000246
0007f0 ba 2e eb 13 68 ea b4 3f fe 57 1c bc c0 16 ca bf
       0.08170176016136113 -0.2038193624982227
