trotterization/Order_n4/Cycle_q5/q5_parameters_b.npy (npy, 440 bytes, 1 tensors)

array f8 [13, 3]
0.8270632594653708 -0.3352814892944415 0.5082182298290707 0.37560974106058637 -0.26497627549773006 0.8893665344371438 -1.3061033666493445 1.7798877115545673
0.5262156550947771 0.4126604722798265 0.7236656478780732 -0.13632612015789972 -1.0615843218209036 0.4173086954114602 1.6442756264094434 2.407005865316545
-4.315992014703901 2.9089861493873563 -0.6579630871775028 0.828981543588751 0.828981543588751 0.3692376757232346 0.646196619135682 -0.015434294858916627
1.9196364367357899 -1.109310443460633 0.18967400672484316 -2.8525387840404384 0.15573209565053805 3.6968066883899002 -1.0510996124954173 3.5867537571076094
-1.5356541446121919 1.8871152978730754 0.12076912820186521 -1.0078844260749404 -1.0699346410935904 -1.1287207880857215 3.198655429179312
00000000: d00f 645e 4d77 ea3f bf52 de7d 4075 d5bf
00000010: 9019 8be0 5243 e03f 0583 7a70 fd09 d83f
00000020: fca1 5e0d 5ff5 d0bf 7c0f 72ce b075 ec3f
00000030: 5a45 cfa4 cce5 f4bf cadd 7a89 6b7a fc3f
00000040: 1fcf a836 c2d6 e03f 1ecd 3278 0769 da3f
00000050: ceff 5bdc 4428 e73f 7599 d561 2273 c1bf
00000060: 86ac 82d7 3ffc f0bf c03b c887 2fb5 da3f
00000070: 969d 90f5 f34e fa3f 9784 864a 8c41 0340
00000080: 37cd 2369 9343 11c0 d815 c187 9a45 0740
00000090: dee1 ac9a 080e e5bf eb70 564d 0487 ea3f
000000a0: eb70 564d 0487 ea3f 8eab 6b0f 97a1 d73f
000000b0: 1827 3f88 a4ad e43f a437 3ffd 039c 8fbf
000000c0: d2d7 3fb2 d4b6 fe3f 1265 bc4e bcbf f1bf
000000d0: 056a e4e3 3c47 c83f cb33 a0da ffd1 06c0
000000e0: 6dd8 e080 07ef c33f 4426 9262 0f93 0d40
000000f0: f218 c8d3 4dd1 f0bf 92a8 2cf4 abb1 0c40
00000100: 3138 9114 0a92 f8bf a956 82cf 9f31 fe3f
00000110: 3d52 febf b9ea be3f cc3b 826b 4b20 f0bf
00000120: e7ab 45c9 731e f1bf dc4b 7287 3d0f f2bf
00000130: e2fb 5ba8 d896 0940
