trotterization/Order_n4/Cycle_q5/q5_parameters_c.npy (npy, 648 bytes, 1 tensors)

array f8 [13, 5]
000000 cc 92 60 11 86 b3 b7 3f dc 35 32 b6 9a 46 d3 3f
       0.09258306431054136 0.30118434708205455
000010 d0 0f 64 5e 4d 77 da 3f 3b 5f 21 f5 3a 01 de bf
       0.4135316297326854 -0.4688250917292753
000020 b9 e9 65 b8 e2 ac c4 3f b8 77 4e dc 66 02 ba 3f
       0.16152605060399397 0.1015991485459996
000030 30 22 ec 24 c2 5b da bf 05 83 7a 70 fd 09 c8 3f
       -0.4118504868097572 0.18780487053029318
000040 32 d1 3c 9e 12 e1 d1 3f 8e 71 5e 17 17 f5 d5 3f
       0.2793623490608922 0.34308411867257227
000050 71 33 ff 34 02 74 ba 3f 3d 43 94 4e 8b 45 d0 3f
       0.10333265107983693 0.2542446391462823
000060 5a 45 cf a4 cc e5 e4 bf 2b bc 30 e2 a5 57 e4 3f
       -0.6530516833246722 0.6356992166310013
000070 86 04 d2 52 83 73 c4 3f 9e 77 ac d5 dc cc d2 3f
       0.15977517646755163 0.29375382296154295
000080 3d 4d 09 92 8c cd cb 3f 1e cd 32 78 07 69 ca 3f
       0.21721036081962977 0.20633023613991325
000090 5f b2 ae 26 fd 82 c2 3f fb dd 21 6e a5 29 d7 bf
       0.14462246311940682 -0.3619168830404928
0000a0 fa 99 45 04 54 55 d7 3f 68 94 b0 f9 71 d7 a1 3f
       0.3645830194203935 0.03484684155436285
0000b0 86 ac 82 d7 3f fc e0 bf a7 16 5c 09 53 3f c6 3f
       -0.5307921609104518 0.17380750615136728
0000c0 33 a1 db e6 93 48 dd 3f 82 2d 19 9f 72 35 e7 3f
       0.45755479378432823 0.7252743823423062
0000d0 60 a3 0c d2 86 39 f1 bf 97 84 86 4a 8c 41 f3 3f
       -1.076544590478271 1.2035029326582725
0000e0 0f f7 3a 00 a0 4d f1 bf 2e fe 68 70 c2 55 e7 3f
       -1.0814514168736797 0.7292186923513719
0000f0 f2 70 56 4d 04 87 ca 3f f2 70 56 4d 04 87 ca 3f
       0.20724538589718794 0.20724538589718794
000100 da e1 ac 9a 08 0e d5 bf f6 70 56 4d 04 87 ca 3f
       -0.3289815435887512 0.20724538589718805
000110 f6 70 56 4d 04 87 ca 3f fa 99 04 04 68 29 ee bf
       0.20724538589718805 -0.9425544813610138
000120 f1 c8 63 92 9f c4 b5 3f 8e ab 6b 0f 97 a1 c7 3f
       0.08503148387879712 0.1846188378616173
000130 b7 69 4c 47 f9 78 ce 3f 8b 1b 0a fc 2f ea ed 3f
       0.2380668256890439 0.9348373339315555
000140 0b 78 c7 3c bd 36 f5 3f c3 24 39 21 e4 7b e3 3f
       1.3258640646158735 0.6088734291926347
000150 d2 d7 3f b2 d4 b6 ee 3f eb c4 fa 37 d0 9d f2 bf
       0.9598182183678949 -1.1635286509229512
000160 6b 31 89 6e 49 b2 f3 bf 3d d5 a2 ce 52 bb e3 3f
       -1.231027061253452 0.6166166339741391
000170 53 13 53 f2 3e f2 fc bf cb 33 a0 da ff d1 f6 bf
       -1.8091420617867768 -1.4262693920202192
000180 d9 20 61 6a 2f 31 fe 3f a6 bb 40 fb 65 b5 f3 3f
       1.8870081096120457 1.231786710220811
000190 b2 0c c1 d5 48 ef e9 3f a3 4f 39 6d 47 59 f8 3f
       0.810459535110928 1.5217966333920934
0001a0 f2 18 c8 d3 4d d1 e0 bf bd 63 cd 1b 92 61 d1 3f
       -0.5255498062477086 0.27158024516171136
0001b0 72 22 29 75 a9 40 f9 bf 81 be 60 62 f2 6b e9 3f
       -1.578286607417024 0.7944271012729162
0001c0 c6 94 75 06 ef 8a 01 40 a9 56 82 cf 9f 31 ee 3f
       2.1928387169487875 0.9435576489365377
0001d0 7d 9b 75 1f 44 0f 01 c0 27 7d f1 e6 1e c6 f4 bf
       -2.132454152847855 -1.2983693143103865
0001e0 2f bb 18 db 2b 6a e5 3f 86 ca d3 70 a4 38 f0 bf
       0.6692103652220335 -1.0138286979023703
0001f0 e7 ab 45 c9 73 1e e1 bf 5f 92 6a b4 16 c4 dc 3f
       -0.5349673205467952 0.4494683038595095
000200 95 3c 9f 75 85 c3 ed 3f
       0.9301173493676226
