trotterization/Order_n4/Cycle_q5/q5_parameters_a.npy (npy, 440 bytes, 1 tensors)

array f8 [13, 3]
000000 5a 7b ea b5 6c 4f bc bf b8 2a 65 12 0c 9d ed 3f
       -0.11058692399317974 0.925420795372097
000010 cc 92 60 11 86 b3 c7 3f b5 12 7a 56 11 e6 ed 3f
       0.18516612862108273 0.9343344391823708
000020 8a c2 36 36 ac 9a c1 bf b8 77 4e dc 66 02 ca 3f
       -0.13753273627436996 0.2031982970919992
000030 cb 25 d1 53 d8 c4 a1 bf 80 45 fd f7 4c 7f ea 3f
       -0.034704933387341784 0.8280396312276679
000040 71 33 ff 34 02 74 ca 3f bf bf 70 4f 02 76 e6 3f
       0.20666530215967385 0.7019053985186402
000050 ba 6e 3a 4a be 85 d2 bf 9e 77 ac d5 dc cc e2 3f
       -0.2894130444417261 0.5875076459230859
000060 ba 4d 57 2a d6 d8 e6 bf c0 b3 11 26 82 83 ef 3f
       -0.7139693095181692 0.9848032706773822
000070 fa 99 45 04 54 55 e7 3f 84 d8 b8 a4 c4 3e cf 3f
       0.729166038840787 0.24410303156918556
000080 25 91 60 67 96 3a e6 bf 82 2d 19 9f 72 35 f7 3f
       -0.694651796253798 1.4505487646846125
000090 a0 a5 06 d0 19 2a cf bf eb 70 56 4d 04 87 ea 3f
       -0.2434723153831273 0.828981543588751
0000a0 f2 70 56 4d 04 87 da 3f a2 0a 5c 2b 48 0d eb 3f
       0.4144907717943759 0.8453713271013223
0000b0 54 4a 2b f7 61 51 00 40 fa 99 04 04 68 29 fe bf
       2.039737635620705 -1.8851089627220277
0000c0 0f c8 d6 f6 2e 13 da bf 13 3e d9 bb ae e8 f3 bf
       -0.4074208651101125 -1.2443072641216346
0000d0 0b 78 c7 3c bd 36 05 40 3a b4 03 3f be 7c ed 3f
       2.651728129231747 0.9214774351836532
0000e0 5a af 24 ee b1 79 f2 bf 3d d5 a2 ce 52 bb f3 3f
       -1.1547107031319315 1.2332332679482783
0000f0 28 ce c2 8b 09 41 e0 bf e4 59 fa fd 40 ec bc bf
       -0.5079391221719947 -0.1129799480498615
000100 b2 0c c1 d5 48 ef f9 3f a5 0b 2a 57 b8 05 03 c0
       1.620919070221856 -2.377793007822634
000110 c9 58 f3 4b 7e 9f fc 3f 81 be 60 62 f2 6b f9 3f
       1.7889388052768018 1.5888542025458323
000120 be 15 83 78 43 e3 c5 bf ba c3 42 60 1b 6e c5 bf
       -0.17099803337457148 -0.16742269706949547
000130 2f bb 18 db 2b 6a f5 3f
       1.338420730444067
