trotterization/Order_n4/Cycle_q5/q5_standard_parameters_b.npy (npy, 440 bytes, 1 tensors)

array f8 [13, 3]
000000 90 19 8b e0 52 43 d0 3f bf 52 de 7d 40 75 c5 bf
       0.25410911491453536 -0.16764074464722076
000010 d0 0f 64 5e 4d 77 ea 3f 7c 0f 72 ce b0 75 dc 3f
       0.8270632594653708 0.4446832672185719
000020 fc a1 5e 0d 5f f5 c0 bf 05 83 7a 70 fd 09 d8 3f
       -0.13248813774886503 0.37560974106058637
000030 1f cf a8 36 c2 d6 d0 3f ca dd 7a 89 6b 7a ec 3f
       0.26310782754738854 0.8899438557772836
000040 5a 45 cf a4 cc e5 f4 bf 75 99 d5 61 22 73 b1 bf
       -1.3061033666493445 -0.06816306007894986
000050 ce ff 5b dc 44 28 d7 3f 1e cd 32 78 07 69 da 3f
       0.3618328239390366 0.4126604722798265
000060 96 9d 90 f5 f3 4e ea 3f c0 3b c8 87 2f b5 ca 3f
       0.8221378132047217 0.2086543477057301
000070 86 ac 82 d7 3f fc f0 bf d8 15 c1 87 9a 45 f7 3f
       -1.0615843218209036 1.4544930746936782
000080 37 cd 23 69 93 43 01 c0 97 84 86 4a 8c 41 03 40
       -2.1579960073519504 2.407005865316545
000090 eb 70 56 4d 04 87 da 3f eb 70 56 4d 04 87 da 3f
       0.4144907717943755 0.4144907717943755
0000a0 de e1 ac 9a 08 0e e5 bf a4 37 3f fd 03 9c 7f bf
       -0.6579630871775028 -0.007717147429458313
0000b0 18 27 3f 88 a4 ad d4 3f 8e ab 6b 0f 97 a1 d7 3f
       0.323098309567841 0.3692376757232346
0000c0 05 6a e4 e3 3c 47 b8 3f 12 65 bc 4e bc bf e1 bf
       0.09483700336242158 -0.5546552217303165
0000d0 d2 d7 3f b2 d4 b6 fe 3f 44 26 92 62 0f 93 fd 3f
       1.9196364367357899 1.8484033441949501
0000e0 6d d8 e0 80 07 ef b3 3f cb 33 a0 da ff d1 06 c0
       0.07786604782526903 -2.8525387840404384
0000f0 31 38 91 14 0a 92 e8 bf 92 a8 2c f4 ab b1 fc 3f
       -0.7678270723060959 1.7933768785538047
000100 f2 18 c8 d3 4d d1 f0 bf cc 3b 82 6b 4b 20 e0 bf
       -1.0510996124954173 -0.5039422130374702
000110 3d 52 fe bf b9 ea ae 3f a9 56 82 cf 9f 31 fe 3f
       0.060384564100932604 1.8871152978730754
000120 e2 fb 5b a8 d8 96 f9 3f dc 4b 72 87 3d 0f e2 bf
       1.599327714589656 -0.5643603940428608
000130 e7 ab 45 c9 73 1e f1 bf
       -1.0699346410935904
