trotterization/Order_n4/Cycle_q5/q5_standard_parameters_a.npy (npy, 440 bytes, 1 tensors)

array f8 [13, 3]
00000000: cc92 6011 86b3 b73f b82a 6512 0c9d dd3f
00000010: 5a7b eab5 6c4f acbf b877 4edc 6602 ba3f
00000020: 8ac2 3636 ac9a b1bf b512 7a56 11e6 dd3f
00000030: 7133 ff34 0274 ba3f 8045 fdf7 4c7f da3f
00000040: cb25 d153 d8c4 91bf 9e77 acd5 dccc d23f
00000050: ba6e 3a4a be85 c2bf bfbf 704f 0276 d63f
00000060: fa99 4504 5455 d73f c0b3 1126 8283 df3f
00000070: ba4d 572a d6d8 d6bf 822d 199f 7235 e73f
00000080: 2591 6067 963a d6bf 84d8 b8a4 c43e bf3f
00000090: f270 564d 0487 ca3f eb70 564d 0487 da3f
000000a0: a0a5 06d0 192a bfbf fa99 0404 6829 eebf
000000b0: 544a 2bf7 6151 f03f a20a 5c2b 480d db3f
000000c0: 0b78 c73c bd36 f53f 133e d9bb aee8 e3bf
000000d0: 0fc8 d6f6 2e13 cabf 3dd5 a2ce 52bb e33f
000000e0: 5aaf 24ee b179 e2bf 3ab4 033f be7c dd3f
000000f0: b20c c1d5 48ef e93f e459 fafd 40ec acbf
00000100: 28ce c28b 0941 d0bf 81be 6062 f26b e93f
00000110: c958 f34b 7e9f ec3f a50b 2a57 b805 f3bf
00000120: 2fbb 18db 2b6a e53f bac3 4260 1b6e b5bf
00000130: be15 8378 43e3 b5bf
0.09258306431054136 0.4627103976860485 -0.05529346199658987 0.1015991485459996 -0.06876636813718498 0.4671672195911854 0.10333265107983693 0.41401981561383394
-0.017352466693670892 0.29375382296154295 -0.14470652222086305 0.3509526992593201 0.3645830194203935 0.4924016353386911 -0.3569846547590846 0.7252743823423062
-0.347325898126899 0.12205151578459278 0.20724538589718794 0.4144907717943755 -0.12173615769156365 -0.9425544813610138 1.0198688178103525 0.4226856635506612
1.3258640646158735 -0.6221536320608173 -0.20371043255505625 0.6166166339741391 -0.5773553515659657 0.4607387175918266 0.810459535110928 -0.05648997402493075
-0.25396956108599733 0.7944271012729162 0.8944694026384009 -1.188896503911317 0.6692103652220335 -0.08371134853474774 -0.08549901668728574
